Assets/Resources/ONNX/SwordMan-500895.onnx (onnx, 82729 bytes, 8 tensors)

network_body.observation_encoder.processors.0.normalizer.running_mean f4 [12]
2.8011918 -3.8448505 44.881054 0.21905138 0.7623439 0.01860266 0.3771602 0.024687752
0.024162706 0.019896347 0.0 0.0
00000000: ba46 3340 0812 76c0 3386 3342 014f 603e
00000010: f828 433f 9b64 983c 241b c13e f83d ca3c
00000020: def0 c53c aafd a23c 0000 0000 0000 0000

network_body._body_endoder.seq_layers.0.weight f4 [128, 12]
0.5778475 -0.3915384 0.19548555 0.3495203 0.07444748 0.3176516 0.15537599 0.05054629
-0.16986302 0.08212238 0.6457969 0.13210507 0.3135669 0.572283 0.08030464 0.0322343
-0.00021166843 -0.13760558 0.0015491291 0.30504966 0.37021726 -0.2831491 -0.11699136 0.217079
0.01781406 0.14493789 0.12542014 -0.08556091 -0.16524677 -0.004520004 -0.2753775 0.366617
-0.03005707 0.29884595 -0.16291536 0.024644243 -0.10310159 0.1470122 0.078571364 -0.27986813
0.17393976 0.14014007 0.22900282 0.22859192 0.1350291 -0.16958997 0.31753734 0.32575786
-0.117588386 0.34535256 -0.7787819 -0.4812568 0.27142903 -0.19137307 -0.027307523 0.47956672
0.58287835 -0.070125 0.49586084 0.35475576 0.67766774 -0.33395338 0.32798806 -0.06857929
-0.018452268 0.09235117 0.16828835 -0.48645326 0.6995201 -0.013652111 -0.40056664 0.550356
-0.011947101 -0.22006698 -0.39320946 -0.71120626 -0.18731566 -0.20195684 -0.29756784 0.084913805
0.29447222 0.10600711 0.14820004 -0.43004766 0.2566911 0.31816357 0.53545 -0.26631302
0.28947282 0.8313972 0.043562546 -0.08357637 0.26058266 0.11270907 0.16485876 0.06295349
0.30530325 0.16592075 -0.049431387 -0.4638623 -0.26665694 0.23946631 0.08779019 0.020853603
0.029096792 0.49836853 -0.4600376 -0.32109308 0.08829338 -0.0122221885 0.5829796 -0.14174196
-0.17295983 -0.2513486 0.006084892 0.27533457 -0.49869436 0.56485456 0.72427607 0.09965995
0.120105706 -0.022989808 -0.16560082 -0.21880911 0.11727658 -0.2480625 -0.27437785 0.09036602
0.61759007 -0.16359974 0.31468502 -0.2721147 0.49828634 0.22898316 0.107964665 0.029221928
0.003663853 -0.075782806 0.013620672 -0.139589 -0.11853345 0.13635458 -0.104170755 0.27156517
0.1924362 0.34928203 0.17290962 0.19917862 -0.34805247 -0.22745365 0.53288335 -0.05047197
-0.074313104 -0.078999914 0.09380617 0.362139 -0.047153853 0.19807212 -0.21360128 0.40407887
-0.7781766 -0.19348212 0.57596487 -0.5754443 0.23163994 -0.25859562 -0.25602442 0.08017498
-0.4484 0.19773088 -0.55973905 0.08457882 0.4627004 0.18427141 -0.24415818 -0.023529392
-0.032726362 -0.35109887 0.019594438 -0.28032875 -0.72525 -0.52726203 -0.061790463 0.1675483
0.11029235 0.043903884 0.08869456 -0.62815815 0.048758306 -0.1931802 -0.08613244 0.011238892
-0.20234695 -0.15377216 -0.71035826 -0.59498423 -0.024724642 0.15491094 0.14196236 0.15167245
-0.6626841 0.25061888 0.28536198 0.33160263 0.76144046 -0.062974066 0.114739075 0.022155289
0.6129795 0.45574376 0.07600002 -0.5666338 -0.2299906 0.15599069 0.14244805 -0.04780449
0.67764837 0.41436473 0.43026438 -0.15295787 -0.08113785 0.25979552 0.34974903 -0.07022254
-0.12687854 0.033612024 0.34294942 0.052653324 0.19406272 -0.05065694 -0.04677656 0.10316632
0.11573037 0.30208758 -0.18792196 0.21967395 -0.34501782 -0.31928447 0.45168918 -0.730148
-0.10612312 -0.39759266 0.1676387 -0.19879659 -0.14169218 0.2627293 -0.034407526 0.34362403
0.017339442 0.4174196 0.25202858 0.49662736 -0.23419717 -0.2012734 0.12592867 -0.4633319
00000000: d0ed 133f b977 c8be 5d2d 483e 53f4 b23e
00000010: ec77 983d 3ba3 a23e e21a 1f3e a009 4f3d
00000020: 92f0 2dbe c72f a83d f252 253f 8d46 073e
00000030: d78b a03e 2481 123f c276 a43d 1d08 043d
00000040: 50f3 5db9 7ae8 0cbe 260c cb3a 782f 9c3e
00000050: 1e8d bd3e ebf8 90be 2b99 efbd f549 5e3e
00000060: cbee 913c 996a 143e 236e 003e 8f3a afbd
00000070: 7336 29be 8b1c 94bb 48fe 8cbe 39b5 bb3e
00000080: 3f3a f6bc 5602 993e 49d3 26be b9e2 c93c
00000090: ed26 d3bd 5e8a 163e 06ea a03d e04a 8fbe
000000a0: 441d 323e e180 0f3e b77f 6a3e 0014 6a3e
000000b0: 1245 0a3e fea8 2dbe 4194 a23e bcc9 a63e
000000c0: 2ed2 f0bd 0dd2 b03e 405e 47bf 4b67 f6be
000000d0: bff8 8a3e 4df7 43be 07b4 dfbc c589 f53e
000000e0: 8437 153f b29d 8fbd 79e1 fd3e 8ca2 b53e
000000f0: a27b 2d3f f0fb aabe 0dee a73e 4c73 8cbd
00000100: 3629 97bc 9c22 bd3d c853 2c3e 6710 f9be
00000110: c013 333f 1bad 5fbc 1217 cdbe 21e4 0c3f
00000120: c6bd 43bc 3d59 61be c052 c9be 9d11 36bf
00000130: adcf 3fbe c6cd 4ebe d05a 98be 4ae7 ad3d
00000140: 10c5 963e 411a d93d c0c1 173e 352f dcbe
00000150: 046d 833e 56e6 a23e 4013 093f 2e5a 88be
00000160: c835 943e 72d6 543f a46e 323d 162a abbd
00000170: 176b 853e 03d4 e63d bcd0 283e c2ed 803d
00000180: b550 9c3e 21e7 293e 9178 4abd 5c7f edbe
00000190: 4287 88be a836 753e 58cb b33d 2dd5 aa3c
000001a0: 655c ee3c 292a ff3e 0c8a ebbe 5066 a4be
000001b0: 29d3 b43d 933f 48bc 273e 153f ce24 11be
000001c0: 621c 31be c4b0 80be c663 c73b a7f8 8c3e
000001d0: de54 ffbe 4f9a 103f 286a 393f 841a cc3d
000001e0: fbf9 f53d 1f55 bcbc 4393 29be 7f0f 60be
000001f0: b42e f03d 1904 7ebe 417b 8cbe d211 b93d
00000200: 621a 1e3f b186 27be 651e a13e 9e52 8bbe
00000210: 631f ff3e 907a 6a3e 941c dd3d d362 ef3c
00000220: 411d 703b 0434 9bbd 3d29 5f3c 6bf0 0ebe
00000230: aac1 f2bd 89a0 0b3e 7a57 d5bd 970a 8b3e
00000240: ff0d 453e 18d5 b23e 380f 313e 7bf5 4b3e
00000250: ef33 b2be 9ce9 68be 0b6b 083f b2bb 4ebd
00000260: 7831 98bd b5ca a1bd 731d c03d 486a b93e
00000270: 6624 41bd 6bd3 4a3e 4bba 5abe 6de3 ce3e
00000280: 9536 47bf 2d20 46be 6f72 133f 5150 13bf
00000290: 0533 6d3e a566 84be a215 83be c832 a43d
000002a0: af94 e5be f779 4a3e 0f4b 0fbf a937 ad3d
000002b0: 11e7 ec3e a5b1 3c3e 9a04 7abe b6c0 c0bc
000002c0: 140c 06bd 3bc3 b3be 8484 a03c 4087 8fbe
000002d0: fca9 39bf a5fa 06bf ff17 7dbd c891 2b3e
000002e0: f5e0 e13d 8fd4 333d 7ea5 b53d f9ce 20bf
000002f0: cab6 473d 08d1 45be 3466 b0bd 5423 383c
00000300: 0a34 4fbe 7376 1dbe 0ada 35bf e350 18bf
00000310: 558b cabc f9a0 1e3e 955e 113e 0650 1b3e
00000320: aaa5 29bf 1e51 803e f71a 923e d2c7 a93e
00000330: c3ed 423f 8cf8 80bd 52fc ea3d 027f b53c
00000340: 39ec 1c3f 3f57 e93e e6a5 9b3d ea0e 11bf
00000350: a882 6bbe 06bc 1f3e e7dd 113e a4ce 43bd
00000360: 5d7a 2d3f 9d27 d43e 9d4b dc3e fda0 1cbe
00000370: 9a2b a6bd eb03 853e 4e12 b33e d6d0 8fbd
00000380: 73ec 01be c3ac 093d 1197 af3e 03ab 573d
00000390: 61b8 463e a77d 4fbd c798 3fbd dd48 d33d
000003a0: 0b04 ed3d 39ab 9a3e 9d6e 40be 35f2 603e
000003b0: 2da6 b0be 4179 a3be ce43 e73e fbea 3abf
000003c0: 1457 d9bd 4491 cbbe 7ba9 2b3e 5591 4bbe
000003d0: c117 11be 7484 863e e8ee 0cbd 7def af3e
000003e0: 720b 8e3c 06b8 d53e e409 813e f145 fe3e
000003f0: 62d1 6fbe 9d1a 4ebe 72f3 003e d739 edbe

network_body._body_endoder.seq_layers.0.bias f4 [128]
0.028721668 -0.039883386 0.0412637 0.0038028434 -0.049487308 -0.037206467 -0.0064974804 0.033138994
0.05177976 0.09637285 -0.022281231 0.017659187 0.010243561 0.013330933 0.0064902566 -0.006743807
-0.015080787 0.021764789 0.02777719 -0.038904097 -0.004639884 -0.032983262 -0.018543836 -0.008725594
0.011394003 -0.0096348785 0.023996323 -0.091258794 0.019401789 0.0054572513 0.00018373261 0.0128173055
0.03372116 0.04576132 0.056304432 0.021751884 -0.036907475 0.036586933 -0.0036975427 0.037224878
0.08345739 -0.032975677 -0.0019622506 0.012580542 0.011115564 0.053139817 0.022276 -0.011390338
-0.023322703 0.008396858 0.0295471 0.024533983 0.033365395 -0.014250571 -0.03558623 0.04798415
0.051003505 0.013674813 0.035144508 -0.024593454 0.03431338 -0.04694134 0.011254948 -0.033206496
-0.005172185 -0.07227891 -0.058361217 0.028672805 0.07492692 -0.02320949 -0.020677866 0.017585518
-0.017671596 0.05622974 0.012955099 -0.03355963 -0.0013787707 0.005555788 -0.027325949 -0.049834434
-0.034920633 0.06342965 0.012823652 0.03459261 0.009320786 -0.036818966 -0.020530555 0.042892892
0.017988121 0.026964847 0.009695015 -0.0021037892 0.052876305 -0.05655563 -0.020811709 -0.0045125405
0.015636982 0.06405111 0.04668657 -0.008538611 0.042824373 0.020504124 0.01853934 -0.028676445
-0.069744684 0.016991103 0.049964786 0.049659926 0.0016548114 0.024786605 0.018642105 0.019232737
-0.0001792383 -0.026498768 0.023267979 -0.007276947 -0.014927259 -0.002687444 -0.07374003 0.017275285
0.003637265 0.0026317644 0.008196541 -0.029265363 0.0151698645 0.031648558 0.018161979 -0.0048008575
00000000: b449 eb3c c35c 23bd 2004 293d 2039 793b
00000010: 34b3 4abd cf65 18bd d1e8 d4bb c1bc 073d
00000020: 0317 543d 215f c53d 2187 b6bc 00aa 903c
00000030: 9cd4 273c fc69 5a3c 38ac d43b 27fb dcbb
00000040: 6815 77bc 124c b23c fd8c e33c e759 1fbd
00000050: 2b0a 98bb 7519 07bd 3ee9 97bc cbf5 0ebc
00000060: eaad 3a3c 9cdb 1dbc f093 c43c e4e5 babd
00000070: 80f0 9e3c bed2 b23b 59a8 4039 adff 513c
00000080: 331f 0a3d 3970 3b3d 7a9f 663d 0231 b23c
00000090: 4b2c 17bd 2edc 153d 7952 72bb 1d79 183d
000000a0: b5eb aa3d 8111 07bd 1a99 00bb 9e1e 4e3c
000000b0: 0e1e 363c 23a9 593d 287c b63c 8a9e 3abc
000000c0: 410f bfbc fa92 093c c30c f23c 7efb c83c
000000d0: 27aa 083d 3a7b 69bc dec2 11bd 078b 443d
000000e0: 0de9 503d 530c 603c b0f3 0f3d 3678 c9bc
000000f0: 308c 0c3d 9045 40bd ac66 383c 8903 08bd
00000100: 6f7b a9bb f706 94bd 2c0c 6fbd 3be3 ea3c
00000110: 4973 993d d421 bebc a164 a9bc 810f 903c
00000120: 06c4 90bc 2851 663d a041 543c d375 09bd
00000130: deb7 b4ba 540d b63b abda dfbc 311f 4cbd
00000140: f008 0fbd 68e7 813d 4b1a 523c fbb0 0d3d
00000150: 36b6 183c 7ccf 16bd b22f a8bc 75b0 2f3d
00000160: d35b 933c 62e5 dc3c d7d7 1e3c badf 09bb
00000170: d394 583d e0a6 67bd 517d aabc efdd 93bb
00000180: 2119 803c 3a2d 833d 6b3a 3f3d 88e5 0bbc
00000190: 9c68 2f3d 44f8 a73c d0df 973c ddea eabc
000001a0: 4dd6 8ebd ed30 8b3c e0a7 4c3d 3568 4b3d
000001b0: 42e6 d83a 470d cb3c 54b7 983c f98d 9d3c
000001c0: eaf1 3bb9 f213 d9bc 7d9c be3c 7573 eebb
000001d0: 7691 74bc d41f 30bb 0305 97bd e684 8d3c
000001e0: 2e5f 6e3b ae79 2c3b c94a 063c eabd efbc
000001f0: 068b 783c eba1 013d 6ec8 943c 8350 9dbb

network_body._body_endoder.seq_layers.2.weight f4 [128, 128]
0.08862646 -0.059553664 0.09006211 -0.012228725 -0.028488226 -0.04425252 -0.18603326 -0.04000502
0.1133793 -0.022691645 -0.04221989 -0.06896538 0.04929298 0.060620554 -0.036884297 0.06488341
0.093006104 -0.07552248 0.10682311 0.15097573 0.045780115 0.020486295 -0.09940496 0.17279118
0.1721161 -0.08405388 0.12184756 2.1201236e-05 0.04244855 0.035258472 0.103902444 -0.07046574
0.029929955 0.03209077 -0.002454094 0.042400476 0.23323862 0.27327475 0.053852342 -0.008411791
0.01941319 -0.16436243 -0.024969619 -0.08914683 -0.00090058305 -0.10594603 0.0476601 -0.053323023
-0.07857881 0.054154195 -0.028080154 -0.10206514 0.010248005 -0.025866913 0.10523052 -0.11384085
-0.0528006 0.077638954 0.056012347 -0.037855566 -0.022070289 0.10806209 0.113417886 -0.044793285
0.04935574 -0.025909767 0.07706716 0.13366923 0.010304961 0.17522052 0.046317045 0.032466583
0.096311145 0.103692725 -0.0051942687 0.07975807 -0.14746614 -0.03116872 -0.04072336 0.24680446
-0.071102604 -0.07608716 -0.075737745 -0.011906505 -0.01840177 -0.054790653 0.011188558 0.14692257
-0.12625837 0.06028658 -0.031007882 -0.07451478 -0.28030017 0.108306244 0.053747404 -0.07633122
0.15133205 0.0044616116 0.0777052 0.04053997 -0.06368986 0.038652334 0.06940708 -0.053667296
-0.00024830806 -0.07461142 -0.0200938 -0.14228004 0.113448635 -0.07855762 0.09650868 0.043840356
0.05243157 0.04629279 -0.06713824 0.107239515 -0.01323382 0.040052656 0.0638809 -0.15561493
0.13098021 -0.03938301 -0.11660149 -0.03772654 -0.08766891 0.018798145 -0.05762743 0.060924474
0.10220655 0.036539 -0.012898423 -0.11050674 -0.04603921 0.055688504 -0.1398117 -0.097972095
-0.09653034 0.010404765 0.19266376 -0.012580333 -0.104581304 0.07879237 0.05165312 -0.14051235
-0.008341948 0.025669709 0.04420512 -0.04530544 -0.072787784 -0.048397515 0.0018959128 -0.2500162
-0.12990184 -0.13519748 -0.034460932 -0.051904466 0.04892459 0.013159376 -0.04760953 -0.06594305
-0.050760712 -0.052540127 0.011649872 -0.11439925 -0.19492635 0.08013623 -0.14801256 -0.046321657
0.020084294 0.030562172 -0.054737754 0.04573747 0.029827988 -0.09867155 -0.123382166 0.15510105
-0.057074193 0.034993656 0.10008602 -0.094456114 -0.07092136 -0.13863838 0.16924894 0.00054671365
0.109038025 0.04445584 0.09864649 0.15245509 -0.12714818 0.04186685 -0.015771108 -0.14513606
-0.059571356 0.11324937 0.090075515 0.0770627 -0.051930826 0.06942813 -0.009093721 -0.049213048
-0.0124913575 0.22633433 0.055581532 -0.117770016 -0.09449237 -0.12338088 -0.15198699 -0.019563943
-0.043598995 0.22298017 -0.05459689 -0.044032693 0.019824695 -0.1716934 -0.14716758 0.08098314
0.03776503 0.106838286 0.06685939 0.12891468 -0.13347705 0.01754014 0.025167204 -0.04013661
-0.055339348 0.016530871 0.074773945 -0.035600036 -0.17282933 -0.043267928 0.06917536 -0.014824441
0.026232226 0.060579255 -0.0064410213 0.056921124 -0.1277967 0.018438816 0.11349755 -0.10483306
0.11972562 -0.059603788 0.040316965 0.072843365 0.030054875 -0.104052365 -0.084774315 -0.042274952
0.01572419 0.1262263 -0.043906964 -0.031192344 0.003871565 -0.04369494 -0.019368093 -0.07302792
00000000: ca81 b53d 8bee 73bd 7c72 b83d fd5a 48bc
00000010: 2460 e9bc 2142 35bd 817f 3ebe 4edc 23bd
00000020: 6833 e83d d4e3 b9bc c3ee 2cbd b93d 8dbd
00000030: 70e7 493d 424d 783d fd13 17bd 98e1 843d
00000040: fc79 be3d 88ab 9abd 13c6 da3d 6299 1a3e
00000050: ee83 3b3d e0d2 a73c d494 cbbd 2cf0 303e
00000060: 343f 303e 7124 acbd 378b f93d 4fd9 b137
00000070: 88de 2d3d 306b 103d ceca d43d 5850 90bd
00000080: aa2f f53c 9c71 033d ddd4 20bb 1fac 2d3d
00000090: 1bd6 6e3e abea 8b3e 4694 5c3d 9cd1 09bc
000000a0: 6908 9f3c a04e 28be 168d ccbc 9d92 b6bd
000000b0: 1b15 6cba 3bfa d8bd 3d37 433d 3e69 5abd
000000c0: eded a0bd cad0 5d3d 5a08 e6bc 8707 d1bd
000000d0: 40e7 273c d9e6 d3bc 1983 d73d 6425 e9bd
000000e0: 7145 58bd 2c01 9f3d 346d 653d 700e 1bbd
000000f0: c0cc b4bc a84f dd3d a347 e83d 2a79 37bd
00000100: 3f29 4a3d b840 d4bc 63d5 9d3d 96e0 083e
00000110: 24d6 283c 026d 333e f1b6 3d3d aefb 043d
00000120: c73e c53d da5c d43d af34 aabb 3358 a33d
00000130: 5d01 17be 8b55 ffbc 8acd 26bd 4fba 7c3e
00000140: 3e9e 91bd 96d3 9bbd 641c 9bbd 8013 43bc
00000150: 4fbf 96bc 2a6c 60bd 3750 373c df72 163e
00000160: e049 01be 10ef 763d 3e04 febc 349b 98bd
00000170: 8183 8fbe aacf dd3d 3d26 5c3d 8b53 9cbd
00000180: caf6 1a3e b632 923b e723 9f3d 3d0d 263d
00000190: d46f 82bd e951 1e3d 4d25 8e3d 3dd2 5bbd
000001a0: 582f 82b9 dfcd 98bd c19b a4bc dcb1 11be
000001b0: c257 e83d d1e2 a0bd 58a6 c53d f291 333d
000001c0: 7cc2 563d 829d 3d3d c67f 89bd 64a0 db3d
000001d0: aad2 58bc 410e 243d fdd3 823d 8559 1fbe
000001e0: ad1f 063e 1450 21bd c3cc eebd 2587 1abd
000001f0: c28b b3bd 91fe 993c bd0a 6cbd f18b 793d
00000200: ab51 d13d eba9 153d e853 53bc 5c51 e2bd
00000210: 9c93 3cbd a119 643d cc2a 0fbe 98a5 c8bd
00000220: b3b1 c5bd bf78 2a3c a649 453e be1d 4ebc
00000230: b92e d6bd e55d a13d 3992 533d 78e2 0fbe
00000240: aaac 08bc 4849 d23c 6e10 353d 3292 39bd
00000250: c311 95bd 793c 46bd 4780 f83a 2002 80be
00000260: fd04 05be 3571 0abe e826 0dbd c799 54bd
00000270: 2765 483d 6c9a 573c 3602 43bd 260d 87bd
00000280: 77ea 4fbd 5134 57bd 1bdf 3e3c 274a eabd
00000290: c69a 47be 771e a43d 9b90 17be c7bb 3dbd
000002a0: d187 a43c 855d fa3c b234 60bd 3757 3b3d
000002b0: d359 f43c 4f14 cabd caaf fcbd cfd2 1e3e
000002c0: a1c6 69bd 8255 0f3d e6f9 cc3d 3572 c1bd
000002d0: 383f 91bd 38f7 0dbe 984f 2d3e 5551 0f3a
000002e0: 544f df3d 5417 363d 2c07 ca3d 301d 1c3e
000002f0: 2233 02be 937c 2b3d 6932 81bc 8c9e 14be
00000300: 1801 74bd 49ef e73d 8379 b83d 0dd3 9d3d
00000310: 6bb5 54bd 5630 8e3d d5fd 14bc 9f93 49bd
00000320: 8da8 4cbc 30c4 673e 76a9 633d 6831 f1bd
00000330: 3785 c1bd 1daf fcbd 7aa2 1bbe 9044 a0bc
00000340: dc94 32bd ea54 643e fda0 5fbd a05b 34bd
00000350: 6667 a23c 65d0 2fbe 19b3 16be 7dda a53d
00000360: 81af 1a3d 08ce da3d 93ed 883d 3602 043e
00000370: 35ae 08be 57b0 8f3c 742b ce3c 4966 24bd
00000380: 83ab 62bd c06b 873c 1523 993d 58d1 11bd
00000390: 2cfa 30be b639 31bd d0ab 8d3d 36e2 72bc
000003a0: f7e4 d63c f421 783d 340f d3bb 2026 693d
000003b0: 23dd 02be 000d 973c 6771 e83d b7b2 d6bd
000003c0: b532 f53d 1a23 74bd 6723 253d e72e 953d
000003d0: a435 f63c 6819 d5bd 289e adbd 8028 2dbd
000003e0: 04d0 803c 7841 013e cad7 33bd 1687 ffbc
000003f0: 15ba 7d3b 77f9 32bd d6a9 9ebc aa8f 95bd

network_body._body_endoder.seq_layers.2.bias f4 [128]
-0.025573617 0.007811091 -0.050655395 0.036353666 -0.027990347 0.020082982 -0.029650392 0.049449988
0.006755378 0.039274417 -0.0037114262 0.0055707144 -0.0020901673 -0.061763264 0.020347876 -0.003377102
0.04376183 -0.016530562 -0.022344887 0.021336323 -0.007250412 0.021929018 0.014779642 0.04433542
-0.04070292 0.030492367 0.009592877 -0.023009257 -0.05730252 0.0029130296 -0.057414133 0.009954752
-0.0576892 0.0293589 -0.055740736 -0.0460139 -0.04452005 -0.04759513 0.025866864 -0.014141044
0.07860119 0.056735016 -0.037268054 0.027629824 -0.015276967 0.018309398 0.04945959 0.042165082
0.02128968 -0.0018665832 0.04405803 0.019367976 0.033208895 -0.07423793 0.01563571 -0.010892199
-0.011697995 -0.06635329 -0.046219118 -0.02403745 -0.010986719 0.027532235 0.0229668 -0.03856814
-0.00985677 -0.044394676 -0.027556233 -0.01660861 -0.054138374 -0.013324265 -0.00993713 0.057749316
0.0444277 -0.018692851 0.06944852 0.027354361 -0.052226573 -0.03364683 0.02007276 0.016319143
0.032476034 -0.004696198 -0.0029067304 0.035651322 0.0017811412 -0.016061824 0.014694574 -0.04284696
-0.04280545 -0.06588081 0.02686366 -0.025977233 -0.032964546 -0.02919277 0.042884577 0.012498146
0.045937743 -0.021413015 0.041423157 0.0038487802 -0.04333585 -0.018324174 -0.06781248 0.018214464
0.029416835 -0.022916397 0.010258559 -0.008318897 0.03436144 -0.022589147 0.019126182 0.049562193
-0.029694203 -0.0024772824 0.0072535453 -0.05474625 0.018146502 0.010432523 0.031355694 -0.00945592
0.018832719 -0.030531222 -0.01567444 0.028642327 -0.03327227 -0.0135767255 0.029408595 -0.014336471
00000000: c37f d1bc 2ef4 ff3b 087c 4fbd 95e7 143d
00000010: 034c e5bc 1185 a43c 61e5 f2bc 128c 4a3d
00000020: 385c dd3b 36de 203d 663b 73bb 8a8a b63b
00000030: 30fb 08bb 7afb 7cbd 97b0 a63c 5f52 5dbb
00000040: 9b3f 333d 1a6b 87bc a00c b7bc 83c9 ae3c
00000050: dd94 edbb 7ca4 b33c 5026 723c 0f99 353d
00000060: 1bb8 26bd 21cb f93c 712b 1d3c e97d bcbc
00000070: 0cb6 6abd 87e8 3e3b 152b 6bbd 4219 233c
00000080: 834b 6cbd 1382 f03c 6650 64bd 1279 3cbd
00000090: a85a 36bd 1cf3 42bd bfe6 d33c d6af 67bc
000000a0: a9f9 a03d fa62 683d 63a6 18bd f157 e23c
000000b0: 3e4c 7abc 97fd 953c 2496 4a3d 4bb5 2c3d
000000c0: b267 ae3c 24a8 f4ba 3176 343d 97a9 9e3c
000000d0: 0d06 083d 0e0a 98bd 7616 803c 3275 32bc
000000e0: f2a8 3fbc 3ce4 87bd 4250 3dbd 30ea c4bc
000000f0: a401 34bc 488b e13c df24 bc3c a0f9 1dbd
00000100: 4a7e 21bc 31d7 35bd 9cbd e1bc c80e 88bc
00000110: 33c0 5dbd 054e 5abc 58cf 22bc 8c8a 6c3d
00000120: d2f9 353d c021 99bc 073b 8e3d 4116 e03c
00000130: 88eb 55bd 42d1 09bd a16f a43c b9af 853c
00000140: 9705 053d 90e2 99bb d87e 3ebb 1f07 123d
00000150: 2e75 e93a 1694 83bc 83c1 703c 4b80 2fbd
00000160: c454 2fbd 85ec 86bd 2e11 dc3c 35ce d4bc
00000170: d505 07bd ad25 efbc bda7 2f3d 06c5 4c3c
00000180: 3729 3c3d 596a afbc 54ab 293d d13b 7c3b
00000190: ef80 31bd 941c 96bc 45e1 8abd 8036 953c
000001a0: 93fb f03c 2bbb bbbc 8413 283c fc4b 08bc
000001b0: 95be 0c3d e00c b9bc 83ae 9c3c ba01 4b3d
000001c0: 4241 f3bc e759 22bb 26af ed3b 9b3d 60bd
000001d0: f9a7 943c 2ced 2a3c d46e 003d 01ed 1abc
000001e0: 1347 9a3c 9d1c fabc af67 80bc 50a3 ea3c
000001f0: 8148 08bd ea70 5ebc 4bea f03c 85e3 6abc

action_model._discrete_distribution.branches.0.weight f4 [8, 128]
0.02735603 -0.05553262 -0.011643083 -0.0603499 -0.010759089 0.013941042 -0.020981014 0.026939573
-0.047556907 0.04458054 -0.02965986 -0.011375927 0.024627276 -0.017485034 0.051647488 0.017943872
0.0462938 0.04030995 0.028977705 0.0106810825 0.028703477 -0.00061232084 -0.049859926 -0.0060673812
0.010227746 0.015517574 -0.01361433 0.032676857 0.0057356698 -0.010190564 0.02484079 -0.025640577
-0.016687108 -0.04866058 -0.006038745 -0.010411741 -0.022122752 0.046237696 -0.023173695 0.011768143
-0.059173618 -0.010256115 0.03615627 -0.0077673933 0.008844858 -0.023333546 -0.015727459 -0.010761475
-0.011571263 -0.011109156 -0.032240767 -0.04946934 -0.05727078 -0.013620926 0.022881309 0.019430587
0.024863211 0.0116438335 0.013530968 -0.025955562 -0.02634101 0.030285235 -0.0343605 -0.02642214
-0.02256795 0.022552913 -0.0048122383 -0.045847673 -0.021109752 0.056742467 0.015531288 -0.041450985
-0.045170307 -0.0021687548 -0.03918325 0.04041814 -0.03462274 0.010114202 -0.013192843 0.02695431
0.01348209 0.025500098 0.020921491 0.031772733 0.012639894 0.021730244 0.017880151 -0.0060113813
0.017505327 0.0083487965 0.041622512 -0.027726404 -0.026494361 -0.0024740924 0.03541999 0.0007162719
-0.03619329 -0.019822186 -0.014296179 -0.0018504198 0.0036592444 -0.04067563 0.023130005 0.03420975
0.015821258 0.008095843 0.0326026 -0.013126159 0.030570878 0.019430676 0.014933498 -0.02631419
0.029731192 0.039764304 -0.030805105 -0.014853977 0.041938785 0.022193909 -0.030944899 0.0122786015
0.03596011 0.010132619 0.018795809 -0.00012718192 -0.00419237 -0.025988473 0.021782044 0.0413516
-0.030969042 0.009592182 -0.02684759 0.034736883 -0.01602466 0.011980561 0.029170662 0.026261002
0.008380686 -0.0068425294 -0.046799485 -0.03465332 0.0037824297 -0.0019607109 0.0061125373 -0.0063570677
0.021261856 0.018395016 -0.0064517925 -0.025752023 0.01512008 0.04062207 0.026810898 -0.025814835
0.02657124 -0.05077172 -0.018573705 -0.0065505975 -0.008276703 0.0042804494 -0.012058807 0.039309893
0.033415966 0.022097744 0.0035046218 -0.0049955375 -0.0058024367 -0.035683356 0.0036065031 -0.0152127305
0.015658066 -0.05073493 -0.033713285 0.043798074 -0.025604682 -0.0037615139 -0.00531929 -0.016214082
0.012242238 -0.050003923 -0.0015994691 -0.021545513 0.007849814 -0.009677761 -0.002102503 -0.02589056
-0.03695 -0.022023262 0.03229153 -0.03224092 0.05141038 0.023808062 0.004933452 -0.034055647
-0.027590754 -0.0029170457 -0.04568242 -0.010359696 0.0014989255 -0.0431491 -0.048407845 -0.04003998
-0.027389998 -0.046803113 -0.028846892 0.006187941 -0.03303221 0.0072715757 -0.0124242855 -0.003344406
0.02121073 -0.013526556 0.0278885 0.016897822 -0.051895242 -0.021844003 0.009468118 -0.03660296
-0.016330536 -0.022247221 -0.025777347 -0.037768103 0.016925815 -0.037556756 0.023492409 0.02497302
-0.024243746 -0.007107048 0.04318356 0.054620232 0.010052916 -0.027066827 0.0010779916 0.028901616
-0.009986692 0.043406043 -0.041393436 0.07656077 -0.0025212865 -0.0010756887 -0.027548106 -0.0021636265
-0.059347093 -0.022965562 -0.032475322 -0.030866507 -0.0030643034 -0.014865415 -0.0001263179 -0.032112475
0.015722256 -0.03598664 -0.02026159 -0.0038455587 -0.022509644 -0.023880478 0.030795557 -0.024016127
00000000: c119 e03c 2c76 63bd a1c2 3ebc 7531 77bd
00000010: e446 30bc f868 643c 60e0 abbc 61b0 dc3c
00000020: 08cb 42bd 169a 363d 3cf9 f2bc 1962 3abc
00000030: 24bf c93c c63c 8fbc 518c 533d 07ff 923c
00000040: 919e 3d3d 0c1c 253d a762 ed3c b5ff 2e3c
00000050: 8e23 eb3c 2884 20ba ec39 4cbd e2d0 c6bb
00000060: 4792 273c 6c3d 7e3c a40e 5fbc 2bd8 053d
00000070: 49f2 bb3b 53f6 26bc ea7e cb3c 300c d2bc
00000080: 67b3 88bc 5150 47bd aae0 c5bb 0296 2abc
00000090: c63a b5bc bd63 3d3d c3d6 bdbc 2bcf 403c
000000a0: 0960 72bd 4409 28bc 9918 143d 9e85 febb
000000b0: 06ea 103c fe25 bfbc dfd6 80bc e650 30bc
000000c0: 6595 3dbc 2d03 36bc e50e 04bd 5da0 4abd
000000d0: c494 6abd 4e2a 5fbc 9571 bb3c e52c 9f3c
000000e0: efad cb3c c7c5 3e3c feb0 5d3c c2a0 d4bc
000000f0: 1ac9 d7bc be18 f83c 98bd 0cbd 3e73 d8bc
00000100: 6ce0 b8bc e3c0 b83c fbaf 9dbb c5ca 3bbd
00000110: 5cee acbc ca6a 683d f276 7e3c 82c8 29bd
00000120: 8004 39bd ab21 0ebb 9e7e 20bd 7e8d 253d
00000130: 93d0 0dbd 0ab6 253c cb26 58bc 49cf dc3c
00000140: fce3 5c3c 95e5 d03c 8c63 ab3c 2024 023d
00000150: 8f17 4f3c a003 b23c 6579 923c 1ffb c4bb
00000160: 5567 8f3c 64c9 083c 5e7c 2a3d 7c22 e3bc
00000170: b40a d9bc 6224 22bb 8d14 113d 32c4 3b3a
00000180: 6a3f 14bd 2362 a2bc 853a 6abc c989 f2ba
00000190: efcf 6f3b 7d9b 26bd 237b bd3c 861f 0c3d
000001a0: 959b 813c 6da4 043c 4e8a 053d 1a0f 57bc
000001b0: c76f fa3c 152d 9f3c a1ab 743c db90 d7bc
000001c0: d48e f33c e5df 223d fd5a fcbc 185e 73bc
000001d0: 01c8 2b3d 00d0 b53c 2880 fdbc 302c 493c
000001e0: e94a 133d 4903 263c abf9 993c 235c 05b9
000001f0: 2660 89bb c7e5 d4bc 4270 b23c 4c60 293d
00000200: cab2 fdbc 8728 1d3c 7aef dbbc 4348 0e3d
00000210: 2646 83bc 1d4a 443c 50f7 ee3c 5021 d73c
00000220: 254f 093c 4c37 e0bb d1b0 3fbd a4f0 0dbd
00000230: a4e2 773b 457f 00bb ae4b c83b f34e d0bb
00000240: 582d ae3c 25b1 963c 8f69 d3bb e8f5 d2bc
00000250: 36ba 773c 5463 263d 87a2 db3c a279 d3bc
00000260: eeab d93c 02f6 4fbd e227 98bc 65a6 d6bb
00000270: 029b 07bc 0343 8c3b 4d92 45bc 6903 213d
00000280: 2edf 083d 5406 b53c ccad 653b 9bb1 a3bb
00000290: 5e22 bebb b628 12bd 155b 6c3b d13e 79bc
000002a0: 5845 803c 6ecf 4fbd f116 0abd 9c65 333d
000002b0: e9c0 d1bc bb83 76bb 704d aebb 65d3 84bc
000002c0: ab93 483c ead0 4cbd 47a5 d1ba 3780 b0bc
000002d0: 829c 003c 798f 1ebc 26ca 09bb 7118 d4bc
000002e0: e258 17bd 216a b4bc 2044 043d 0e0f 04bd
000002f0: b193 523d 2009 c33c cba8 a13b ef7d 0bbd
00000300: 0106 e2bc e82b 3fbb 7d1d 3bbd b7bb 29bc
00000310: 9877 c43a 1cbd 30bd 4e47 46bd f600 24bd
00000320: fd60 e0bc 9fb4 3fbd 5150 ecbc 36c4 ca3b
00000330: c84c 07bd 6646 ee3b 3b8f 4bbc d22d 5bbb
00000340: 20c2 ad3c 7d9e 5dbc 6c76 e43c 4d6d 8a3c
00000350: 1b90 54bd 32f2 b2bc 2a20 1b3c fcec 15bd
00000360: 9ec7 85bc ce3f b6bc 042b d3bc bab2 1abd
00000370: 02a8 8a3c 1dd5 19bd 2773 c03c 3894 cc3c
00000380: d29a c6bc 3de2 e8bb 3fe1 303d 77b9 5f3d
00000390: fcb4 243c 40bb ddbc 654b 8d3a 15c3 ec3c
000003a0: 399f 23bc 89ca 313d 2a8c 29bd e5cb 9c3d
000003b0: 2b3c 25bb 20fe 8cba 91ac e1bc a1cb 0dbb
000003c0: f015 73bd 4622 bcbc d804 05bd c2db fcbc
000003d0: 7bd2 48bb 128e 73bc 3474 04b9 5f88 03bd
000003e0: f6cb 803c ba66 13bd a2fb a5bc c505 7cbb
000003f0: 2566 b8bc fea0 c3bc f746 fc3c 78bd c4bc

action_model._discrete_distribution.branches.0.bias f4 [8]
0.004472023 0.01254806 -0.024706215 -0.011579927 0.05286972 -0.048238993 -0.05790192 0.04153009
00000000: 0c8a 923b 6196 4d3c b064 cabc bcb9 3dbc
00000010: eb8d 583d 4096 45bd 902a 6dbd 751b 2a3d

onnx::Div_52 f4 [12]
4.8390613 4.5896883 96.29933 0.41360578 0.42564976 0.13512444 0.4846776 0.15517823
0.15356067 0.13965127 0.0014129481 0.0014129481
00000000: 97d9 9a40 bade 9240 4299 c042 23c4 d33e
00000010: c4ee d93e 105e 0a3e aa27 f83e 0be7 1e3e
00000020: 023f 1d3e be00 0f3e ac32 b93a ac32 b93a
