Assets/Resources/ONNX/SwordMLAgents_State_chace.onnx (onnx, 23089 bytes, 6 tensors)

0.bias f4 [64]
000000 c8 90 f5 bd 33 40 81 ba 48 c2 c5 3d 8f 19 88 3e
       -0.119905055 -0.0009861052 0.09656197 0.26582
000010 11 49 e6 3c 06 b7 99 bd 50 e6 04 3e 0d 19 15 be
       0.028111013 -0.07505612 0.12978482 -0.14560337
000020 70 b2 07 be 10 74 6b be 5f 17 2e 3c 68 cb 36 be
       -0.13251662 -0.22993493 0.010625689 -0.17851031
000030 21 83 0a be 7c 95 39 bd b6 3c 2e 3e 78 6b 11 be
       -0.13526584 -0.045308575 0.17015347 -0.14201152
000040 75 bc 4f bd 2f 87 c8 bc 92 31 99 bb 26 3f b6 bd
       -0.050716836 -0.024478523 -0.0046750987 -0.08898763
000050 d0 c0 9d 3e 1a ba bb bd 4d 1f a3 bc d6 fe ab 3d
       0.30811167 -0.091663554 -0.019912386 0.083982155
000060 5e 3d a2 bd d6 78 4b be 34 27 0e be 1f 62 67 be
       -0.07921861 -0.19870314 -0.13882142 -0.22596024
000070 65 02 f7 bc 91 dd 37 be 12 87 98 bd 74 38 2c bd
       -0.030152509 -0.17955615 -0.074476376 -0.042046025
000080 95 80 80 3d 93 46 2f be 80 62 b0 3d 74 90 08 3e
       0.06274525 -0.17116766 0.086125374 0.13336354
000090 85 c6 32 3e a0 b8 ff 3d 42 8a 88 3e 12 af 6f bd
       0.17458542 0.12486386 0.26667982 -0.05851657
0000a0 82 b1 95 bd 47 cb 73 be 89 d1 cf 3d c4 bc 92 3a
       -0.073092476 -0.23808013 0.101473875 0.0011195173
0000b0 db 01 77 3d e6 7b 1a 3e af ac 04 3c fa d9 20 3e
       0.060304504 0.15086326 0.008097812 0.15708151
0000c0 e9 5f 88 3e 8a f0 01 3e 7d 18 ac bd 92 98 cb 3d
       0.26635674 0.12689415 -0.08403108 0.0994121
0000d0 87 22 99 3d d4 69 e3 3d e3 3e f4 3d ba d2 92 be
       0.07477289 0.111041695 0.11926057 -0.28676397
0000e0 f7 bc d5 bd 08 97 ce 3d 53 d4 0a 3e 05 b5 0f be
       -0.10436433 0.10087401 0.13557558 -0.14033897
0000f0 2a d9 45 be 76 59 00 3d b3 7b 81 bd 6b 00 30 3e
       -0.19321123 0.031335317 -0.06322422 0.1718766

2.bias f4 [64]
000000 5c 5f b2 bd 66 0a 3b 3c 31 66 be bd 05 1b 92 3d
       -0.087095946 0.011416053 -0.09296835 0.0713406
000010 32 b1 9a bc b1 ab 43 bd 91 61 d1 bd 76 9b 41 bc
       -0.018883321 -0.04777116 -0.102236874 -0.01181685
000020 9f a0 c2 3d fb f7 bf bd c6 7d c5 bb 5a 08 52 3d
       0.09503292 -0.093734704 -0.0060269563 0.051277496
000030 2b e4 65 3d a2 b5 74 bd b6 43 ea 3d f7 bb 7e 3c
       0.0561258 -0.05974353 0.11438696 0.015547744
000040 4c 96 07 be 7a 76 93 ba 84 b1 c0 bd 96 83 b2 bc
       -0.13240927 -0.0011250519 -0.094088584 -0.02179126
000050 3f 85 35 3d 3c 51 6b 3c 59 06 2c 3e 15 e6 81 bd
       0.044316527 0.0143626295 0.16799296 -0.06342713
000060 57 89 18 bd ed 11 b0 3d 5e 80 38 bd 1f c5 f5 bd
       -0.037240352 0.08597169 -0.045044295 -0.120004885
000070 d9 e9 d8 bd f8 7f 3d 3d 08 18 5f bd 61 4b be bd
       -0.10591478 0.04626462 -0.054466277 -0.09291721
000080 05 d9 97 3b f4 27 df bc 28 e9 b3 bd d3 fd b6 3c
       0.004634025 -0.02724073 -0.087847054 0.02233783
000090 1c 7c 75 3d a5 7d ff bd d9 bf d5 3c f9 9d d9 3d
       0.059932813 -0.12475137 0.026092457 0.10625834
0000a0 54 21 b5 bc 03 08 29 3e f5 2a ca 3c d7 b1 6d 39
       -0.022110619 0.16506962 0.024678687 0.00022668332
0000b0 d4 0a a5 bd d1 7e 4f bd b3 e6 85 3c 4f 07 14 3d
       -0.08058706 -0.05065805 0.016345358 0.036139783
0000c0 75 d6 04 be 22 cf 03 bc 23 ff 22 3d d1 28 4c 3d
       -0.12972434 -0.00804499 0.0397941 0.049843613
0000d0 d2 0a 84 3d 51 52 11 bd 2c e5 f9 3d 93 5c 7f bd
       0.06447376 -0.035478894 0.12201914 -0.062344145
0000e0 22 35 c8 3d 0c f1 a6 bd 49 ca 7d 3c b0 9f 17 bd
       0.09775759 -0.08151445 0.015490123 -0.037017524
0000f0 88 a7 13 be aa b3 c1 bd 9d 1b 20 3e ea 66 35 bd
       -0.14419377 -0.09458096 0.15635534 -0.0442876

4.bias f4 [6]
000000 75 62 94 3d 86 68 03 be ac 7e 0f 3e b5 12 51 3d
       0.07245342 -0.12832841 0.14013165 0.05104323
000010 7f eb 0a be fc fa a8 bc
       -0.13566397 -0.020627491

onnx::MatMul_19 f4 [15, 64]
000000 13 22 2d be f9 cf 22 3e 51 6b 81 be f2 e6 56 be
       -0.1690753 0.15899648 -0.25277188 -0.20986536
000010 ab c7 df 3d a6 3c 53 3e e3 54 0d be 03 19 59 3e
       0.109267555 0.20628604 -0.13801913 0.21200947
000020 d2 5a 33 3e fb 10 f2 bd 36 93 2b 3d 0d 24 7d be
       0.17515114 -0.11819645 0.04188844 -0.24720784
000030 f6 8f 07 be 3e 74 18 3e 08 81 96 bd 78 cf c6 bd
       -0.1323851 0.14888093 -0.073488295 -0.0970754
000040 89 41 25 3d 06 4d 6c 3e fe 4f 74 bd 79 de 45 3d
       0.040345702 0.23076257 -0.0596466 0.04830787
000050 5d 7c 4e be 55 be 23 be 67 c1 9b 3d 61 4d 0e be
       -0.20164628 -0.15990575 0.07605248 -0.13896705
000060 89 86 08 bc 42 a2 18 3c e3 b6 43 be 5e 2d a5 3c
       -0.008332857 0.009316029 -0.19112734 0.020163234
000070 2b fb 4c be e9 c8 98 be a5 7e 7c be 05 d2 ae 3b
       -0.20017688 -0.29840782 -0.24657686 0.005335095
000080 dc f1 f0 bd 86 e2 80 3c 3c a0 4a bd 08 4a 4d be
       -0.11764881 0.015733015 -0.049469218 -0.20047772
000090 b4 04 6a be 5f ae df bd 3b a7 1c be 3b 18 9a be
       -0.22853357 -0.109219305 -0.15298168 -0.3009661
0000a0 e5 df 9a 3e 2d 3b 9c 3d 3f d5 dd 3c 99 24 30 be
       0.30248943 0.076284744 0.027079223 -0.17201461
0000b0 0f 78 81 be 86 e2 76 bc 08 dc 64 be 0c 9b 6d 3e
       -0.2528691 -0.015068656 -0.2234956 0.23203677
0000c0 f8 b8 a1 3e ca b7 0a 3d ec 98 e6 3d be cd 1c bd
       0.31586432 0.03386668 0.11259636 -0.03828215
0000d0 99 e8 1b be 84 2d 6b 3e b4 a7 00 be 27 2d 6d be
       -0.15225448 0.22966582 -0.12563974 -0.23161756
0000e0 31 1b c7 3d 38 55 83 bd b5 62 2d be 54 b2 f7 bc
       0.09721983 -0.064127386 -0.16932185 -0.0302364
0000f0 6e 60 3d 3e a9 51 32 3e 60 b9 a3 3e 18 59 d0 3d
       0.18493816 0.17413963 0.31977367 0.10173243
000100 4e 9b 90 bd 1c e3 aa bd a2 1b bb 3e d9 4f a0 bd
       -0.07060872 -0.08344099 0.3654452 -0.0782773
000110 f5 fd e9 3b 90 24 24 bd 51 0e 48 3d db 4f b6 be
       0.0071408697 -0.04007393 0.04884178 -0.356078
000120 f6 db f8 3b e9 b1 92 be c7 90 41 3e f2 d9 9e 3e
       0.0075945808 -0.2865136 0.18902884 0.31025654
000130 0b ce 29 bd 19 7a c5 3b 61 a9 9a 3e 1b 06 52 be
       -0.041456264 0.006026518 0.3020735 -0.20510142
000140 84 e5 25 3e 48 1d f0 3d f7 f3 1a be 21 6a 0c 3d
       0.16200835 0.11724335 -0.15132128 0.0342809
000150 6f a0 72 bc b8 a0 06 be 76 a5 f8 bd 21 5f f1 3c
       -0.014808758 -0.13147247 -0.12140934 0.029464306
000160 7f 18 7b 3e e8 2f 24 be be fc 59 be cf 6d 69 be
       0.24521063 -0.160339 -0.2128782 -0.22795795
000170 bc b4 3a be 9f 68 0b 3e 4c e1 a6 3d 0a 40 ca 3d
       -0.18233007 0.13614129 0.08148441 0.09875496
000180 0f 5f 88 bd 3c 53 12 3e 44 73 1c bc 42 f2 b8 3d
       -0.06658756 0.14289564 -0.009548966 0.09030582
000190 3c d5 bf bd 6e ff 9c 3d 23 9c 1b 3d 92 0f 9d 3e
       -0.09366843 0.07665907 0.0379907 0.30675942
0001a0 26 b4 c9 be 47 0b 84 be c1 b3 42 3e 9e ae 3f 3d
       -0.39395255 -0.25789854 0.19013883 0.046797387
0001b0 7d 5b c2 3e 02 6d ab bd de ce d2 bd ed 96 02 be
       0.37960425 -0.08370401 -0.10293363 -0.12752886
0001c0 0b c5 29 be da e7 86 3d a1 3f 39 3e 5e ad a1 3d
       -0.16579072 0.06587191 0.18090679 0.07894395
0001d0 1e e5 75 be 0c 36 e0 3d 31 0a 6b 3d 77 78 0b 3d
       -0.24013183 0.109478086 0.057382766 0.03405043
0001e0 d1 d7 3d 3e 31 4f 7c be 74 46 1a bb be a3 85 3c
       0.18539359 -0.24639584 -0.0023540528 0.01631343
0001f0 a8 a5 ec 3d 06 ef da bd 72 70 6f be a3 3b 9c be
       0.11555034 -0.10690121 -0.23382738 -0.3051425
000200 e4 82 d6 3d d1 99 be 3d 70 c4 6d be 92 21 1a 3e
       0.10474184 0.09306682 -0.23219466 0.15051869
000210 ad bd d2 bc 34 46 9e be e5 8e 4a 3d 8f 16 50 bd
       -0.02572521 -0.30912936 0.04945268 -0.050802764
000220 02 0a 5b be 0b c3 39 3e 10 97 84 be bb c2 94 be
       -0.21390536 0.18140809 -0.25896502 -0.29054818
000230 ec c1 4e be ac 53 25 3e a2 3d fa 3c c7 35 05 3e
       -0.20191163 0.161452 0.030546967 0.13008796
000240 39 73 a8 3b 34 29 69 3d 07 7a 2a bd 80 77 5d 3d
       0.0051406887 0.05692406 -0.04162028 0.054069042
000250 3b 8e 42 3d 9a 03 4c be 15 32 6c 3d a2 f1 6e 3e
       0.047498923 -0.19923249 0.05766495 0.23334363
000260 94 e1 a0 be 89 ea 54 3e f3 61 0e bb 60 c0 b3 bd
       -0.31422102 0.20792593 -0.0021725863 -0.08776927
000270 62 93 82 3e ab cf 3c be d6 0c 66 be a7 f1 82 be
       0.2550307 -0.18438594 -0.22465834 -0.2557499
000280 de 6f 82 bd 3a bb 16 3e 91 be 95 3d 0c a6 16 3e
       -0.06368993 0.14719859 0.07311738 0.1471178
000290 86 f3 1f 3e c4 45 5d 3d a7 c3 51 3e 97 e6 8c be
       0.1562024 0.05402161 0.20484792 -0.27519676
0002a0 fc f2 42 3e 9f ef 57 be d6 c3 76 bd 40 aa a5 be
       0.19038004 -0.21087502 -0.060245357 -0.32356453
0002b0 bc 49 de 3d a3 a4 30 be 9a e1 0d bd e9 6c 81 3e
       0.108539075 -0.17250304 -0.03463898 0.25278404
0002c0 a5 72 3c be 8b 58 21 be 68 ff 1e 3d 6b 0a 75 be
       -0.18403108 -0.15756433 0.038817793 -0.23929755
0002d0 e4 2d a5 bd 15 3f 6a be 86 9c b4 3d c1 18 5d be
       -0.080653936 -0.22875626 0.08818917 -0.21591474
0002e0 40 34 47 3e b4 e8 4b 3e 47 fc 7c 3e e0 ed 4d bb
       0.19453526 0.19912988 0.24705611 -0.0031422302
0002f0 70 bc de bd 5d 03 47 3e 7f a5 95 3e 8d 37 bb 3c
       -0.10875785 0.19434877 0.29227826 0.022853637
000300 90 7a 3b 3e 09 26 b6 bd ed 14 07 3e 39 ee 4a 3e
       0.18308473 -0.088939734 0.13191576 0.19817437
000310 53 46 e8 bd 6f 82 f1 3d 52 b6 5c be 8a f0 51 3d
       -0.11341538 0.11792456 -0.21553925 0.051254787
000320 54 8f 71 be 99 36 14 3e 6d f9 82 be 87 6b 97 3d
       -0.23589832 0.14473952 -0.25580922 0.07393556
000330 ef af 92 3d 2e b7 8f 3d 97 6a 76 3e 5b 7a cd 3c
       0.07162463 0.07017361 0.24064098 0.025082758
000340 4e 6d 84 3b 82 36 22 bc 13 9f a7 3d ab f7 8c bd
       0.0040413504 -0.009900691 0.08184638 -0.068831764
000350 0f 77 75 3d a2 b7 c5 3d 8d 1c 5a 3e b1 db 0b 3e
       0.059927996 0.09654166 0.21299954 0.13658024
000360 65 4f 52 3e 3e 5d e6 bc 7e 9d 3c bd 69 4c 1d be
       0.20538099 -0.028120633 -0.046048634 -0.1536118
000370 83 b2 33 3e aa b0 eb 3d 1a 51 ed 3d 4c a2 30 3e
       0.17548566 0.11508305 0.115877345 0.17249411
000380 2d 72 37 3e ec bb 80 3d 07 ee b3 bd 69 21 94 3c
       0.17914648 0.06285843 -0.087856345 0.018082337
000390 d1 16 46 3d 40 6f 25 3e ed bf 14 be 9e 19 b9 bd
       0.048361603 0.1615572 -0.14526339 -0.09038089
0003a0 ed 2d 8b be bf ed 99 bd 93 74 b9 3d d1 65 95 3e
       -0.27183476 -0.075160496 0.09055438 0.29179242
0003b0 38 8b 56 be 86 77 99 bd 54 10 8a 3e f0 56 62 be
       -0.20951545 -0.074935004 0.26965582 -0.22103477
0003c0 ac 96 4e 3e 21 2d ca 3a d2 16 08 3e 68 60 4c be
       0.20174664 0.0015424826 0.13289955 -0.19958651
0003d0 29 ff 8f 3e 29 96 8d 3d 38 26 05 be e9 f4 50 3e
       0.2812436 0.069134064 -0.1300286 0.20405926
0003e0 cb 6e ad 3d 3a d5 79 3b 67 eb ab 3d a9 2f 44 be
       0.08468398 0.0038121478 0.08394509 -0.19158806
0003f0 e7 84 62 39 e9 ee ac bd 1a 60 44 3c 72 29 54 bd
       0.0002160255 -0.08444006 0.011985803 -0.051797338

onnx::MatMul_20 f4 [64, 64]
000000 2b de a9 3d 8b 26 05 3d 9f d9 aa 3c df 16 c5 3d
       0.08294328 0.03250746 0.020855723 0.09623503
000010 7d 3c 81 3d 03 ec 47 bd 70 07 37 3d 0a a4 b3 bd
       0.06310365 -0.048809063 0.044684827 -0.08771522
000020 33 61 c9 3d 59 07 a4 bd 36 4f 7b 3c 1c 27 15 3d
       0.098329924 -0.08009214 0.01533871 0.03641425
000030 0f 37 84 3d cd c5 c9 bd c2 16 11 bd ae d5 92 3d
       0.06455814 -0.09852181 -0.035422094 0.071696624
000040 48 1d a3 bd 4e 25 a7 bd 76 26 ae bd 23 e3 bd 3c
       -0.07964569 -0.08161412 -0.085034296 0.023179596
000050 9d 2d 26 3e 16 0d a5 3d 9b 13 9b 3c 1d 3f dc 3d
       0.16228338 0.080591366 0.018930247 0.107542254
000060 a0 d0 0c 3e bb 12 27 bd 8e 58 03 be bd 9d b2 3d
       0.13751459 -0.040789347 -0.1282675 0.087214924
000070 04 dd ce 3d 9e 13 9c 3d 76 72 45 bd ca f6 90 3c
       0.10100749 0.07620929 -0.04820486 0.017695803
000080 1f cf 26 3e 02 d2 c1 3c 26 ac 1b be 99 17 bd 3d
       0.16289948 0.02365971 -0.15202388 0.092330165
000090 ca ec 70 3d 86 83 23 3e 16 0e 74 3d f8 bb 1a 3d
       0.05881957 0.15968141 0.059583746 0.037776917
0000a0 e9 4f 68 be a2 48 2e bd ab 43 7e 3d d0 36 00 3e
       -0.22686733 -0.042549737 0.062076252 0.1252091
0000b0 f3 f5 2e bb 21 b4 09 be ca a0 df 3c bc 93 fa bd
       -0.002669689 -0.1344762 0.02729835 -0.12235209
0000c0 58 6d 49 3e 34 90 d5 3c 21 ea 27 be 52 ac f0 bd
       0.19670618 0.026069738 -0.16397907 -0.117516175
0000d0 86 d5 1b 3e 86 9c 89 3b 36 4a 61 bd d6 4b 27 bc
       0.15218171 0.0041995673 -0.055002414 -0.010210952
0000e0 a1 79 1b be 31 62 ed bd 66 2b d0 3d 40 a4 b9 3d
       -0.15183116 -0.11590994 0.101645276 0.09064531
0000f0 c1 9b a9 bd f5 f3 a5 bc c4 87 26 bd c2 96 52 3e
       -0.08281661 -0.02025793 -0.04065682 0.20565322
000100 a0 fb 46 3d 46 37 00 3e b1 74 da bd 52 9b 98 bd
       0.048579812 0.12521085 -0.10666788 -0.074515
000110 7a 5b 3f 3d c7 51 b0 bd 14 3d a8 bd c4 d5 41 3b
       0.0467181 -0.08609348 -0.08214775 0.0029576877
000120 f0 db a0 bc 03 5c 21 be 02 d6 7d 3d 57 a5 e7 bd
       -0.019636124 -0.15757756 0.061971672 -0.11310833
000130 c3 a6 d1 bd 2a 37 11 3e 96 96 16 3d ba 3d f7 bd
       -0.102368854 0.141812 0.036764704 -0.1207232
000140 4b f0 c7 3d a2 81 8c 3d d9 d3 79 3d 29 39 39 3d
       0.09762629 0.06860663 0.06099305 0.045220528
000150 62 71 ce bd 5d 88 8c 3d 3e 51 ae ba c6 47 e6 3c
       -0.1008022 0.06861947 -0.0013299359 0.028110396
000160 b0 0a 39 3d 2b d0 b8 3d db c0 93 bd cf df 42 3c
       0.045176208 0.0902408 -0.07214519 0.01189418
000170 aa 7d be bd bf 10 29 be 8a 99 b6 bc c7 4a 09 be
       -0.09301312 -0.16510294 -0.02229001 -0.13407432
000180 0c f0 89 3d bb 38 11 bc 98 e3 c3 3d 31 72 e8 bd
       0.067352384 -0.008863623 0.095648944 -0.11349905
000190 f9 c1 e8 bc 9f 5b a3 3d db bc f9 bd 7a ed d3 3c
       -0.028412806 0.0797646 -0.121942244 0.025870074
0001a0 7d f7 9f bd 08 d4 17 be 84 f8 e7 3d 96 80 47 bd
       -0.078108765 -0.14826977 0.113266975 -0.048706613
0001b0 0b 8a 50 bd 5e f5 d9 bd 0a c3 1e 3e 73 65 a3 bb
       -0.050912898 -0.10642503 0.15504089 -0.004986459
0001c0 61 5e a6 3d ab 78 1e be b4 5e 5a 3c bf e0 31 3d
       0.0812347 -0.15475719 0.013328243 0.043427225
0001d0 ad ea d4 b8 23 13 fa 3d 1d 6b 36 bc 67 65 af bd
       -0.000101526595 0.12210681 -0.011133936 -0.08564263
0001e0 ab c7 a4 3c b3 6f 83 bd 18 bd 90 3d 4c bb b7 bd
       0.02011474 -0.06417789 0.07067317 -0.08971271
0001f0 1c 66 8b bc fc 1b 30 bd 3f fe 84 3c 35 a0 52 3d
       -0.017016463 -0.042995438 0.016234515 0.051422317
000200 7b 68 cd 3c bd 86 2b be ce 66 96 3d 8c 21 f3 3c
       0.025074234 -0.16750617 0.07343827 0.029679082
000210 fa be b8 bd 22 ad 91 bb 4b 1e bb 3d 56 14 b1 bd
       -0.09020801 -0.004445688 0.09136637 -0.08646457
000220 43 ed 2d bd bc dd 2a 3e 51 5c 06 be f4 66 e2 bd
       -0.0424626 0.16686147 -0.13121153 -0.11054793
000230 9a dd 3e 3e 06 95 63 be 6a e7 db bd a7 90 ba bd
       0.18639222 -0.22224817 -0.10737498 -0.091096215
000240 c9 38 b9 b9 24 1c 8a bd 2d f7 d1 3d 56 dd 5c bd
       -0.00035328258 -0.06743649 0.10252223 -0.05392202
000250 14 c1 cf bd a1 5d 76 3d cf 3f 33 bd fb f7 51 bd
       -0.101442486 0.060147885 -0.043762024 -0.051261883
000260 8d d8 51 3d 71 17 3a 3e 81 8d 01 be 8f 68 1f 3d
       0.05123191 0.18173005 -0.12651636 0.038918074
000270 63 d1 8a bc a8 13 9b bb 0d 88 92 bd ac 99 c8 3d
       -0.016945546 -0.004732568 -0.07154856 0.097949356
000280 b7 1e cf 3d d5 66 c7 3c 91 a3 05 bd a7 17 1c 3d
       0.1011328 0.024341026 -0.032626692 0.038108494
000290 43 66 c9 bd ea 36 c5 3c 0e aa 88 3d de 4c 14 3e
       -0.09833958 0.024074037 0.0667306 0.14482448
0002a0 c1 e0 9e bb 76 97 c2 3d 10 0e 26 be 94 b3 24 3e
       -0.00484857 0.09501545 -0.16216302 0.16084129
0002b0 b6 a8 b1 3d 26 a0 aa 3d ad 19 08 3e 63 47 07 3e
       0.08674757 0.08331327 0.13291045 0.13210826
0002c0 27 a9 e0 bd bc cb c4 3d 10 5c ac 3d 53 6f 31 bc
       -0.10969763 0.09609172 0.08415997 -0.010829764
0002d0 4c 21 d8 3d 4e dd db bd 9e 7b f0 3d 41 e3 2e 3d
       0.10553226 -0.1073557 0.11742328 0.042697195
0002e0 b1 ca 79 bd e0 e9 9a 3d fb fc 81 bd 7f f9 d0 3c
       -0.060984317 0.07564139 -0.0634708 0.025509594
0002f0 ae 0e ab 3d 5f df ef bc cb a5 80 bb 7a a8 75 bc
       0.08352409 -0.029281316 -0.003926014 -0.014993781
000300 1f d6 95 3d 0a b9 e4 3c e0 f6 1f 3d 93 b2 f0 3d
       0.07316231 0.027920265 0.039053798 0.1175281
000310 7a e3 22 be 13 a9 46 3d ed 92 51 3b 14 2d 02 3c
       -0.15907088 0.048501085 0.0031978444 0.007945318
000320 87 70 b5 3d fb cb 08 3d 49 5a 87 bc e3 01 bd bd
       0.088593535 0.033397656 -0.016522544 -0.092288755
000330 de b9 05 bc 09 fe 17 be 75 fc 06 bc 8a b6 eb 3d
       -0.00816199 -0.14843 -0.008238901 0.11509426
000340 9e a6 c7 3d 03 d2 d0 3d 5a 51 d4 3d d1 16 20 bd
       0.097485766 0.101963066 0.10367079 -0.03908426
000350 4e ba 2d 3e 00 df 08 bd 04 ef b6 3d 65 e1 fa bc
       0.16965601 -0.033415794 0.08932307 -0.030625055
000360 a9 a8 15 3e 56 95 c7 bc ef c6 13 be b0 74 41 3e
       0.1461512 -0.024363201 -0.14431356 0.18892169
000370 c2 68 cf 3c cb 54 7e 3e 64 43 cb 3c e1 03 a2 bd
       0.025318507 0.24837033 0.024812408 -0.07910896
000380 9a e7 54 3e 41 8c 64 bd 51 d7 5d bc cc 5d c0 bd
       0.20791474 -0.05579782 -0.013540105 -0.0939289
000390 cd cb 16 3d 6e 5d 65 bd 28 03 86 3d fa 05 52 bd
       0.036815453 -0.055997305 0.06543571 -0.05127523
0003a0 1f 80 09 be 47 22 1f 3d 2d c9 3b bd a4 ae 10 3c
       -0.1342778 0.03885105 -0.045846153 0.0088307
0003b0 20 cd f9 bd 01 87 c9 bd 85 92 51 be 48 e8 19 3c
       -0.121973276 -0.09840203 -0.20466049 0.009393759
0003c0 ed 37 1f 3e 49 56 3a 3c ec cf e5 bd b8 73 69 be
       0.15548678 0.011373111 -0.112212986 -0.2279805
0003d0 0f c5 48 3b 9e 5d ca 3d 6c 87 09 be 13 54 80 ba
       0.0030635034 0.09881137 -0.13430566 -0.0009790681
0003e0 04 8f 04 be 1a ae 5c bc 0f 82 bf 3d af 20 24 3e
       -0.12945181 -0.013469243 0.093509786 0.16028093
0003f0 32 f2 1e 3e 71 fc 55 3c 63 41 11 be ee 02 77 3d
       0.15522078 0.013060675 -0.141851 0.06030553

onnx::MatMul_21 f4 [64, 6]
000000 1f 61 c5 3d ae 96 e8 3c a0 35 f9 bb 76 8e 20 3d
       0.09637665 0.028392162 -0.0076052696 0.03919836
000010 54 be 39 3e be 7d a0 bd d5 70 84 ba 2b 3e 5a bd
       0.1813901 -0.078364834 -0.0010104427 -0.053281944
000020 7a de 57 3a c9 68 09 3e 44 23 62 3d 8f 39 2c be
       0.0008234751 0.13418879 0.055209413 -0.16818832
000030 38 23 4c bd 5e 8c de bd 3d 1b cc bd 1b 66 dc bd
       -0.049838275 -0.10866617 -0.09966133 -0.107616626
000040 11 a4 14 3e b3 fb 52 bd de f8 ec 3d 7e 6c 6d bd
       0.14515711 -0.05150957 0.11570905 -0.057964794
000050 bd 65 1e 3e 41 dc a9 bc d8 70 8b 3d 33 9d 36 3d
       0.15468498 -0.020734908 0.068086326 0.04458351
000060 d9 94 06 3e 80 a1 d6 3d f1 bb b8 bc eb ec 05 3e
       0.13142718 0.104800224 -0.022550555 0.13078658
000070 1e 38 8e 3b dd 45 41 bd 64 6c bf 3c 2a db 37 bd
       0.004340186 -0.047185767 0.023367114 -0.044886746
000080 ab 7c 17 3d c3 b5 c2 bd 0a 40 b1 bd 45 cc 28 3d
       0.036984127 -0.095073245 -0.086547926 0.04121043
000090 f2 0f d5 3b 92 21 c6 bd 87 ef 90 3c 92 96 52 bd
       0.006502145 -0.09674372 0.01769234 -0.051413126
0000a0 29 04 32 be c1 90 af 3d bc 0a f3 3d 36 1d c1 bd
       -0.173844 0.085725315 0.11867282 -0.094294
0000b0 b0 71 14 bd 4f 9c 5b 3d 32 ba 49 ba 03 bb c1 bd
       -0.036241233 0.053615864 -0.0007695287 -0.09459498
0000c0 f9 99 db 3c e6 be 4a 3d d1 87 ff 3d 7a 6b 95 bd
       0.026806818 0.04949846 0.12477077 -0.0729589
0000d0 6c 19 0b be 84 8a ff 3d 7a 8a 3f 3c 6c b8 e8 bb
       -0.13583916 0.12477592 0.01169073 -0.007102063
0000e0 4c e0 ef 3d 52 c2 8b bd 07 ae 10 bd ea dc 3e 3d
       0.11712703 -0.06824173 -0.035322215 0.0465974
0000f0 ec b7 58 3d 76 f6 ad bb ec ae 1b 3d ed b9 99 3c
       0.052909777 -0.0053089214 0.038008615 0.018765414
000100 b5 92 88 3d 38 92 35 bd d9 5c fc 3d f2 fd aa bc
       0.06668607 -0.0443289 0.12322397 -0.020873044
000110 3d e2 15 3c d9 d1 bc 3a b7 5a 0d be ff a9 13 bd
       0.009148178 0.0014405801 -0.13804136 -0.036050793
000120 03 b8 94 bd 2d ab 07 bd ae 94 a9 3d 53 9b 09 be
       -0.0726166 -0.03312223 0.082803115 -0.13438158
000130 65 51 42 be b2 c6 dd 3d 83 a2 e6 3d 55 d5 30 3d
       -0.18976362 0.10828914 0.112614654 0.0431722
000140 dc 54 d3 bd 96 1d 69 3c cf f4 63 bd 06 11 29 be
       -0.1031892 0.014228245 -0.05565339 -0.165104
000150 8c 94 d6 ba 2f 8c ec bd 62 8b 60 3d 82 19 97 bc
       -0.0016371175 -0.115501754 0.054820426 -0.01844478
000160 e1 8c 7d bd 4f 7f 31 3d 99 9c 8f 3d 88 64 c6 3c
       -0.06190193 0.0433343 0.070122905 0.024217859
000170 28 83 73 3a 48 85 db bd de e2 13 3e c8 40 b8 3d
       0.0009289258 -0.10718781 0.14442012 0.08996731
000180 52 f8 83 bd 47 46 30 3d 52 61 9f bd 6e 6b 13 bd
       -0.06443848 0.04303577 -0.07782234 -0.035991125
000190 0e 17 65 3e cf 5e b6 bd 7c aa e3 3d 61 f7 31 bd
       0.22372076 -0.08904802 0.11116502 -0.04344881
0001a0 24 06 33 bd ec ce 34 3e 03 7e 24 bd eb 03 97 bd
       -0.043707028 0.1765706 -0.040159237 -0.07373794
0001b0 a1 b2 ca bd 8d 67 b0 3d 7e d1 0a 3c 56 00 db 3b
       -0.09897352 0.08613501 0.008472798 0.0066833897
0001c0 f3 1b 92 3d 50 ae ff 3d 72 74 db 3d 12 67 c1 3d
       0.07134237 0.12484419 0.107155696 0.09443487
0001d0 8f 86 ae 3d 8f 23 d3 3d 26 2e 38 bd be fc 92 bd
       0.08521759 0.10309517 -0.044965886 -0.07177113
0001e0 b0 36 e2 3d 37 a8 3c 3d 6e bd 60 bd bb eb 2f 3d
       0.11045587 0.04605886 -0.054868154 0.04294942
0001f0 ed d7 6c 3e 02 cd 5a bc 37 17 d6 3d d5 d0 87 bb
       0.23129244 -0.013354542 0.10453647 -0.0041447678
000200 57 5e 86 3d c8 e1 34 3d c1 28 31 bd 9b 50 7a bb
       0.06560963 0.044160634 -0.043251757 -0.0038195017
000210 b5 f2 93 3d a2 a0 2f bb 6b ce c4 3c cc 64 f5 3d
       0.07224027 -0.0026798625 0.024024209 0.11982116
000220 bb 4a 3c 3d c4 6d 8b bd 1b f6 07 be b1 3d c5 3d
       0.045969706 -0.068080455 -0.13277476 0.09630907
000230 e9 f8 54 3d ff 2a c6 3c 09 1a 0f 3e 78 45 58 3d
       0.05199519 0.024190424 0.13974775 0.052800626
000240 8d 39 f9 3d ae c9 96 3d 97 54 50 bd 4f 25 38 3d
       0.1216918 0.07362686 -0.05086192 0.044957455
000250 6e 16 8b 3e 06 b3 44 3d 13 a4 ab bd 9e 7e c7 3c
       0.2716555 0.048022293 -0.08380904 0.024352368
000260 76 8d 2d 3b 29 53 15 bd f3 ea 6a 3c d2 ff c9 3d
       0.0026482022 -0.03645626 0.014338243 0.09863247
000270 4c 10 9f bd 17 85 a1 3c 9f 70 0e be 6a d6 ad 3d
       -0.0776678 0.019716782 -0.13910149 0.08488162
000280 81 ae 08 bd 51 59 8b bd 0b 85 b0 3c 6e e9 26 bb
       -0.033369545 -0.06804145 0.021547815 -0.0025468725
000290 03 3f 54 bd 52 99 29 be f3 ca 3f 3e 69 f2 12 3c
       -0.051817905 -0.16562393 0.18729763 0.008968928
0002a0 00 fa f5 bd 17 52 9f bd b8 3d aa 3c 45 08 4f 3c
       -0.12010574 -0.07779329 0.020781383 0.012636249
0002b0 c0 5b fe bc 8b 5a d2 3d 91 c5 12 bd 30 ed d6 bd
       -0.03104961 0.10271176 -0.035832945 -0.10494459
0002c0 76 8f 9a 3d ef 36 13 be 5b bf 3c 3e b4 69 31 3d
       0.07546894 -0.14376424 0.18432371 0.043313697
0002d0 b0 11 90 bd 4f 64 ca 3d 81 94 13 bd ec ff b3 bb
       -0.070346236 0.098824136 -0.036030296 -0.0054931547
0002e0 53 82 14 3d 72 70 c6 3d da 18 11 bd 24 99 b4 3d
       0.0362571 0.09689416 -0.03542409 0.08818272
0002f0 23 09 95 3d 17 76 e6 bb 26 60 49 bd 61 85 4f 3e
       0.07277133 -0.0070331204 -0.04916396 0.20265724
000300 41 ed f3 bc 10 e9 63 3d 8a aa 69 bd 73 6f b8 bd
       -0.029776217 0.055642188 -0.057047404 -0.09005632
000310 7e 4a 91 3d 24 23 0a bd b4 7b ab bc a7 8f fa bd
       0.070942864 -0.03372492 -0.02093301 -0.12234431
000320 dd 3e 85 bd 3e 34 a7 bd 05 fc 95 3d a4 09 b8 3c
       -0.06506131 -0.08164261 0.073234595 0.022465535
000330 0b 62 d5 3d 3b 77 15 3e ce 86 6b 3b 6a bc 3a 3e
       0.10419091 0.14596264 0.0035938504 0.18235937
000340 c4 89 37 bd 0b 88 82 bd e8 0d 55 3d ea 0a 1b be
       -0.044809118 -0.063736044 0.052015215 -0.15140882
000350 59 c7 d6 3b df b2 0e be 8c bb 95 be 47 ab c5 3c
       0.006554526 -0.13935421 -0.2924465 0.024129523
000360 bd 7b f6 3c b2 17 8f bd f4 b7 79 bd 64 c3 7a 3d
       0.0300883 -0.069869414 -0.060966447 0.061221495
000370 04 32 c0 bc 59 ef 4f be ab d5 fe bd 3f 71 80 bc
       -0.02346135 -0.20306148 -0.12443098 -0.015679
000380 e6 81 ad bd a7 28 44 bd a6 6d 56 3e 91 a7 59 bd
       -0.08472042 -0.04789033 0.20940265 -0.05313832
000390 54 94 7f bb 50 41 a8 3d 40 0a 23 3d 55 a9 aa bd
       -0.0038998323 0.08215582 0.039804697 -0.08333079
0003a0 fe dc 20 3e 87 3b 07 be d9 22 11 be 94 65 53 3c
       0.15709302 -0.13206302 -0.1417345 0.012902636
0003b0 14 f2 91 3d 7d 75 6f bd a7 9b ce 3b 8c f6 18 3e
       0.07126251 -0.058461655 0.0063051763 0.149378
0003c0 fe 03 98 3d 26 0f 8f 3d 5a 14 e8 bb b3 e4 0f 3e
       0.074226364 0.06985311 -0.007082504 0.14052086
0003d0 74 45 b0 bd 86 a6 16 3d 5e da b5 3c 78 e9 9c bd
       -0.08606997 0.036779903 0.022198852 -0.07661718
0003e0 90 6b d4 3d 1d 16 21 bd ae d5 9e be 1c 2b f1 3b
       0.103720784 -0.03932773 -0.310224 0.0073598754
0003f0 b1 0d 59 3d 27 42 37 3d 76 8c 19 be 56 42 18 3e
       0.052991573 0.044740822 -0.14994988 0.14869055
