Assets/Resources/ONNX/SwordMan-500455.onnx (onnx, 82729 bytes, 8 tensors)

network_body.observation_encoder.processors.0.normalizer.running_mean f4 [12]
000000 d4 da 54 be 8c 7e d3 c0 f5 78 5b c1 a8 74 71 3f
       -0.20786601 -6.6091976 -13.717031 0.9431863
000010 4d ef 24 3d 30 89 87 3c 57 72 17 3d a5 a7 84 3b
       0.040267278 0.016544908 0.036974277 0.004048305
000020 b0 67 1d 3b 74 d8 29 3b 00 00 00 00 00 00 00 00
       0.0024018101 0.002591637 0.0 0.0

network_body._body_endoder.seq_layers.0.weight f4 [128, 12]
000000 28 2d ab 3e a0 00 b4 3d d4 29 14 3e f9 bf 1f bf
       0.3343289 0.08789182 0.14469081 -0.624023
000010 98 b0 94 3c f4 85 58 bd 44 e1 cc 3e 9c b5 a6 be
       0.018150613 -0.052862123 0.40015614 -0.32560432
000020 3d 87 1d be f2 30 40 bb 44 6e ac 3e 85 f9 58 3d
       -0.1538362 -0.0029326049 0.33677876 0.052972335
000030 4d 30 a6 bd ea 3b 98 bd de 14 c6 3e eb 3d 99 3e
       -0.081146814 -0.07433303 0.38687795 0.29930052
000040 36 7a 37 3e 77 ad 90 3c ee 50 86 be a2 af 10 3e
       0.17917714 0.01766084 -0.2623362 0.14129499
000050 f5 b9 29 3e 73 92 0a 3f 70 90 49 bd 20 bb 9e be
       0.16574843 0.54129714 -0.049210012 -0.3100214
000060 5a 19 01 bd 1e 74 e9 3e 2b 44 25 3e 6d c3 29 bf
       -0.031518318 0.45596403 0.16139285 -0.6631382
000070 5d ee 71 bd cd 7b 9f bd 6d 24 99 3e ba 1f 17 3e
       -0.05906521 -0.07787285 0.29910603 0.14758196
000080 8a 4c 50 bf 92 6d 1e be de 3d b3 3d 00 44 e7 3e
       -0.8136679 -0.15471485 0.087520346 0.45169067
000090 b8 d2 23 be 30 70 fa 3d f0 85 39 bf c8 ec 25 bf
       -0.15998352 0.12228429 -0.7247 -0.64814425
0000a0 15 6d 67 be 26 c5 ab bd 7b 12 90 3c 54 d3 cf 3e
       -0.22600205 -0.083872125 0.017586937 0.40590918
0000b0 4a 5e e5 ba 30 2c c3 3e 6a d6 93 bd d2 16 c6 3c
       -0.0017499414 0.3811965 -0.072186306 0.024180803
0000c0 52 dc 88 be 34 80 92 bc 7d 54 bb be e9 ca 27 3f
       -0.2673059 -0.017883398 -0.36587897 0.6554399
0000d0 22 4f ed be 5e 35 f9 be 4a 8b 86 3e 1c 6f 2f 3e
       -0.46349436 -0.48673528 0.26278144 0.17132229
0000e0 a4 ef 28 3e 18 0c e5 3e 09 84 87 3e 46 3b 4c be
       0.16497666 0.4473579 0.26467922 -0.19944486
0000f0 6d a3 43 3e 8a bf c8 3e b3 0f c5 bc b9 2f 29 3c
       0.1910531 0.39208633 -0.024055338 0.010326319
000100 5e 7f b6 3b 58 92 b1 3d e1 6f c5 bd 0d 96 46 bd
       0.0055693826 0.08670491 -0.0964048 -0.048482943
000110 97 93 33 3f 33 7d 74 be 3c 7c f9 3e 0a 58 8c bd
       0.7014708 -0.23875885 0.48727596 -0.068527296
000120 fe 44 f1 3d f0 f2 0e 3e 7c a3 0a 3f 24 b2 1c bf
       0.11780737 0.13959861 0.5415571 -0.6120932
000130 21 72 18 3e b8 93 b3 3e 9e 00 de 3c 5b a6 86 be
       0.14887287 0.35073638 0.027099904 -0.26298794
000140 d2 da 85 be 2f 79 95 3e a9 e5 8a bd 9d c6 32 be
       -0.2614351 0.29194018 -0.067820854 -0.17458577
000150 18 a3 fa bb 6f 46 b4 be 25 5e 80 be d7 6a 27 3f
       -0.007648837 -0.35209987 -0.25071827 0.653974
000160 45 f3 2c bd 9a 97 86 3d ff de 37 be 87 b1 24 3e
       -0.042224187 0.065718845 -0.1795616 0.16083346
000170 62 14 88 3d 29 06 13 3d 3a ee 25 bf 22 eb c9 bd
       0.06644513 0.035894547 -0.6481663 -0.09859301
000180 80 08 0e 3f 6d 66 97 3e 73 fa 98 3e fd 0d 82 bd
       0.5548172 0.29570332 0.29878578 -0.06350324
000190 8b 79 6d 3e 6c 0d a2 3e 94 92 e7 3e 29 d4 5d 3d
       0.23190896 0.31650865 0.45229018 0.05415741
0001a0 e8 3d d4 be c4 c7 86 3e 67 b0 35 bd 39 05 fe bd
       -0.4145348 0.26324284 -0.044357684 -0.1240334
0001b0 d3 7a 9a 3c 3a 3d b0 bd 2d 9e 0d bf 65 0a 41 3d
       0.018857395 -0.08605428 -0.5531948 0.047129054
0001c0 65 16 38 3e 5d 42 26 bf f8 8f e0 be 74 0d ef be
       0.17977293 -0.6494501 -0.4385984 -0.4668995
0001d0 46 f7 15 bc f8 0e 8b be 5e fb a7 bc a1 c9 7d be
       -0.009153193 -0.27159858 -0.020505603 -0.24783947
0001e0 f7 39 1f be f9 47 a0 be a7 cb 3b be fd 4a 91 be
       -0.15549456 -0.3130491 -0.18339406 -0.28377524
0001f0 66 a3 14 be 14 9e c0 bb f0 26 98 be 69 28 a4 be
       -0.14515457 -0.0058782194 -0.29717207 -0.3206208
000200 9a 20 e8 3e 85 51 d7 bd fe fc 24 3f a1 04 02 3e
       0.45337373 -0.105135955 0.64448535 0.12697078
000210 fc aa 33 bc b1 0c 82 3e 0d 7e fe be 51 55 f3 be
       -0.010966059 0.25400308 -0.49705544 -0.4752603
000220 68 77 1a 3e ed 52 3f be 60 bd fc bd 26 db af be
       0.15084612 -0.18683977 -0.12340808 -0.34346884
000230 9b 7c 31 be 44 49 6a be 7d 42 cc be 01 45 a8 be
       -0.1733269 -0.22879511 -0.39894477 -0.32865146
000240 79 24 1a 3f 53 a6 db 3e 2b 5f a2 3d 75 ba 88 be
       0.602119 0.42900333 0.07928308 -0.26704755
000250 d4 03 98 be 26 31 e2 3e 3e b3 09 3e 4d a7 87 be
       -0.2969042 0.44178122 0.13447282 -0.26494828
000260 3e c5 bb bd c4 a6 03 3d 7c 0b 21 bd 2d 2f 31 be
       -0.0916848 0.032141462 -0.039317593 -0.17303152
000270 86 1a 42 be 22 6a b5 be 41 30 78 3d 60 d2 72 be
       -0.1895543 -0.35432535 0.060592894 -0.23713064
000280 10 16 19 3f c2 28 97 3e 71 01 22 3e fe 5a d5 3e
       0.5979929 0.29523283 0.15820862 0.41670984
000290 cb 69 4e be 07 46 a8 bb 51 0b b6 bd 55 a4 af be
       -0.20157544 -0.005135301 -0.08888877 -0.34305063
0002a0 32 63 9b 3e d8 99 9b be 14 f9 54 3d 50 d6 42 bd
       0.30349118 -0.3039081 0.051995352 -0.047567666
0002b0 bb 08 b6 3e 0d 94 01 be 0f 6f 87 3d b6 21 06 be
       0.35553536 -0.12654133 0.066129796 -0.13098797
0002c0 4f 73 f9 be ce 78 64 be 36 dd 9e 3d 5a ef 3e be
       -0.48720786 -0.22311708 0.077570364 -0.18645993
0002d0 15 2b b0 bd db 5d 8e 3e 60 78 56 3b f0 00 ae 3e
       -0.08601967 0.2780598 0.0032725558 0.3398509
0002e0 42 51 3e be cf a4 ad 3e fc 2f a0 be 60 b5 97 be
       -0.18585685 0.339148 -0.3128661 -0.29630566
0002f0 a7 e4 9e 3e 76 0d 21 3f ad a5 90 be b3 81 01 3f
       0.31033823 0.62911165 -0.282514 0.5058853
000300 b5 3b 82 3e 09 c1 ba be 9d 83 6f be 22 2e 28 be
       0.25436178 -0.364754 -0.2339005 -0.16423848
000310 8e fb b5 3d d8 07 de 3d db ea 3b 3e de 82 68 bd
       0.08885871 0.1084134 0.18351309 -0.05676543
000320 94 cf b6 3e 26 fc 21 3d cc e6 25 3e d7 a0 60 3e
       0.35705245 0.039547108 0.16201323 0.21936356
000330 d7 50 49 be 3a fa 37 bd 13 55 af 3e 3e c0 1b 3d
       -0.19659744 -0.04491637 0.34244594 0.038025133
000340 15 3f 86 3e b1 c6 a3 be 84 3e 98 be 34 35 32 be
       0.26220003 -0.31987527 -0.29735196 -0.17403108
000350 f7 b0 f2 be 99 3c 84 be 5a aa eb bd e6 17 8e bd
       -0.47400638 -0.25827482 -0.11507101 -0.06938152
000360 03 cd e0 bd a9 a6 23 3f 24 65 d1 3e 88 4e be 3e
       -0.10976603 0.6392618 0.40897477 0.3716929
000370 76 82 a2 3e 89 6e 3f bd dc 7e 8f 3e 4b c3 fe bd
       0.3174016 -0.046736274 0.28026474 -0.12439593
000380 fc 42 0b 3f 00 0e 19 3f 8b da 10 be 3e 62 43 be
       0.54399085 0.5978699 -0.14145868 -0.19080445
000390 41 da f3 bd 2c c5 dd be f5 97 9a 3e df 90 db 3d
       -0.11906863 -0.43314493 0.3019406 0.10720991
0003a0 16 ad bf 3e 46 70 29 3e 1f bb 88 be 9a 5d 6d be
       0.37436742 0.16546735 -0.26705262 -0.23180237
0003b0 a2 0a 9b be 23 5f 43 3e 34 c9 05 3e 8b 11 62 be
       -0.3028155 0.1907926 0.13065034 -0.22077005
0003c0 80 d9 2c bd fc be d8 be 5f fe e3 bd e9 73 35 bd
       -0.04219961 -0.4233321 -0.11132502 -0.044299994
0003d0 35 53 cb be 01 21 23 3d a7 19 0f be 3d 21 3f 3d
       -0.3971192 0.039826397 -0.1397463 0.046662558
0003e0 a1 34 48 3a 3f 3d 27 3c 5e e9 47 3d f0 9c 75 3e
       0.0007637237 0.010207473 0.04880654 0.23985648
0003f0 09 f4 2a be ef b3 95 be 8f c6 36 bd a4 08 4b 3e
       -0.16694655 -0.2923884 -0.044622954 0.19827515

network_body._body_endoder.seq_layers.0.bias f4 [128]
000000 55 8b 0d bd 0a d4 04 3c e9 42 54 3c 07 73 dc 3c
       -0.034556706 0.008107195 0.012955406 0.026910318
000010 d7 d0 2c 3d 19 92 93 bc d3 79 ad bc 92 8f 5e 3d
       0.042191353 -0.018014 -0.021176254 0.054336138
000020 72 49 01 3c 1f 37 a5 3d 77 01 87 ba c3 56 92 3c
       0.007891046 0.08067154 -0.0010300119 0.017863637
000030 67 e5 02 3d e6 79 8d 39 85 f3 0f 3c 6a 0c 3e 3d
       0.031957056 0.00026984437 0.008786087 0.046398558
000040 a0 7b a1 3c 57 f8 b7 3a fe bd 86 bc b9 48 16 3d
       0.01971227 0.0014035803 -0.016448017 0.036690447
000050 d8 a6 89 bb 9b 12 bb 3b ae 2b d4 3c a8 3b 30 bd
       -0.0042007975 0.005709005 0.025899734 -0.043025643
000060 cc 16 50 3a a8 bf 45 3c c9 94 8b bc b8 6b 4e 3d
       0.00079379673 0.01206962 -0.01703872 0.050395697
000070 9a 53 f0 3c 18 d9 8b 3c 86 c3 86 bc 53 45 46 3c
       0.02933674 0.017071292 -0.016450655 0.012101489
000080 e2 f6 33 bd b1 f5 56 bc cb bc 1d 3d 45 12 fb 3c
       -0.043936618 -0.013120101 0.038510125 0.03064836
000090 a9 27 2e 3d 9f 45 a8 bc a7 cd 24 3d 27 ef 1d 3d
       0.04251829 -0.02054101 0.040235188 0.03855815
0000a0 9d 18 1e 3c 15 71 b4 bc 31 01 8a bc 0a 72 46 bc
       0.009649423 -0.022026578 -0.016846271 -0.01211215
0000b0 1a 1a 45 3d 94 3b 9e bc ea 10 fb bc e6 e1 1e bd
       0.048120596 -0.019315518 -0.030647714 -0.038789652
0000c0 d0 82 2d bc d8 06 b5 3c 7f 23 0b 3c 80 73 5d 3d
       -0.01059027 0.02209799 0.00849235 0.054065228
0000d0 46 a5 1b bc 76 39 f3 bc d7 31 c9 3c e5 ef 6e 3a
       -0.0094998535 -0.029690485 0.024559898 0.00091147266
0000e0 83 aa ac 3c fc 57 14 3d 47 f4 2a bc ec eb 9d bc
       0.0210774 0.03621672 -0.010434217 -0.019277535
0000f0 81 d3 45 bd d8 19 fd 3c 0b 03 5f 3b 17 b2 fb 3c
       -0.04829741 0.030896112 0.0034028913 0.030724568
000100 3c c9 49 3c ac de b2 3c dc fc a4 bc 4e e9 99 3b
       0.012316044 0.021834694 -0.020140104 0.0046970015
000110 ae a6 81 bd 81 b7 92 3c d1 f8 0c 3d 92 eb cf bc
       -0.0633062 0.017909767 0.034416977 -0.025380883
000120 aa a5 92 bc a5 f2 9a 3c 45 61 9c 3c eb df 3a 3d
       -0.01790126 0.01891453 0.01908935 0.0456237
000130 3a 79 7c b9 2b a4 3e bd 11 15 ba bb a6 fe 46 bc
       -0.00024077753 -0.04654328 -0.005678781 -0.012145674
000140 08 38 27 3d 0f 28 ba ba f4 2c ac bc 9f a7 aa 3c
       0.04082492 -0.0014202612 -0.02101753 0.020831881
000150 3c 4a df 3c a4 3f 21 bd ea 0d 4d bb e6 a6 21 3d
       0.027257077 -0.039367333 -0.003128881 0.039465807
000160 8a 86 2b 3d b5 e2 9f 3c ba 06 7a bc c2 44 a4 3b
       0.041876353 0.019517282 -0.015260393 0.0050130794
000170 bb 6b eb bb e9 0e d4 bc f9 a6 cc bb d3 8a 2e 3c
       -0.0071844733 -0.025886016 -0.0062454906 0.010653215
000180 4f f1 69 3d 76 43 21 bc c7 d2 c4 bc 22 4c 8d 3b
       0.057114895 -0.009842744 -0.024026288 0.0043120543
000190 30 c3 94 3d 4a 05 c3 3b d1 36 35 3c 6b db 9b 3d
       0.072637916 0.0059515582 0.0110604325 0.0761021
0001a0 86 0f 8b 3c b1 7b d1 bc fa 02 1a 3c 3e 03 63 bd
       0.016975176 -0.025571676 0.009400124 -0.055423014
0001b0 1e bb 0f bd b5 e5 21 3d 80 11 03 3d 36 8a b1 ba
       -0.03509056 0.039525706 0.03199911 -0.0013545218
0001c0 82 f4 2d 3d 66 d8 13 bc 02 ad d0 3b 5d f6 54 bd
       0.04246951 -0.009023761 0.0063682804 -0.051992763
0001d0 0a ad 42 39 70 64 4c bc 08 37 95 bc 46 5b 0b 3c
       0.00018565744 -0.012475118 -0.018214718 0.008505648
0001e0 f4 73 34 bc 34 da 93 3d c2 03 c8 b9 d0 e1 09 bd
       -0.0110139735 0.07219353 -0.00038149772 -0.033662617
0001f0 e1 24 2f bd 7c 29 36 3d a3 5d 7e 3c 7a f8 8a bc
       -0.04275978 0.044473156 0.015525254 -0.016964186

network_body._body_endoder.seq_layers.2.weight f4 [128, 128]
000000 9a 80 58 3d fb ea 1d 3e 03 cf e9 bc e1 f8 66 3d
       0.05285702 0.15421669 -0.028541094 0.056389693
000010 37 e3 89 bc 0b 82 d5 3d ff f5 60 3e 86 7f 3c 3d
       -0.016831977 0.10425194 0.2196884 0.046020053
000020 2c 4a 33 be 74 e9 07 bd 73 1e 22 3c 29 16 cf bd
       -0.17508763 -0.033181623 0.009894955 -0.101116486
000030 c6 40 66 bd d8 4f 2e bd 06 b1 4d 3c 46 bb 25 bd
       -0.056214117 -0.042556614 0.012554413 -0.0404618
000040 30 8c 8a 3d b6 dd 0c be 95 aa 9a 3d d7 5b 2b 3e
       0.0676502 -0.13756451 0.07552067 0.16734253
000050 52 70 c6 ba 44 49 c0 3d 8e 6f 8e 3e 56 fa d8 bb
       -0.0015139675 0.09388974 0.27819484 -0.0066216392
000060 73 d9 79 3d c2 25 d9 3c 51 dc 73 3d e3 d1 0c 3c
       0.06099839 0.026507262 0.059536282 0.008594963
000070 1f 9b c4 bd ba 0c f5 bc ff a6 c9 bd 44 00 29 bd
       -0.095998995 -0.029913295 -0.09846305 -0.04126002
000080 ea d9 24 bd 0b 63 96 3c 81 63 ed bc 5d 83 58 bb
       -0.04024688 0.018357774 -0.028978111 -0.0033037283
000090 5c 99 0d bd cf 60 b0 bd 38 13 fe bc 12 d0 8b 3c
       -0.034570083 -0.08612215 -0.031015024 0.01706699
0000a0 32 a8 6b 3d d3 61 8b bd 0b 55 a5 bc 12 93 05 3e
       0.05753345 -0.06805768 -0.020182153 0.13044384
0000b0 e8 5b 51 3d 37 b7 80 bd b3 71 86 bc 5f 98 b9 bc
       0.05111304 -0.062849455 -0.016411638 -0.022655664
0000c0 1d fb 57 be c4 25 c4 bc b1 0f d9 bc 9e 32 f6 bc
       -0.21091886 -0.02394379 -0.02649674 -0.030053433
0000d0 ae f3 98 bc 52 1b 08 bc 3a 17 27 bc 98 eb b6 3d
       -0.018670883 -0.008307295 -0.010198409 0.08931655
0000e0 81 f4 d0 3c 91 cd 40 bc 02 85 01 3d 33 00 c3 bc
       0.025507214 -0.011767761 0.031620987 -0.023803806
0000f0 49 42 e5 3c 08 ac 38 3d 2b b0 61 bd cd 87 04 3e
       0.027985709 0.045085937 -0.055099647 0.12942429
000100 57 48 bc bd 0c 7f e1 3c 86 ec 9d 3d 68 db 46 3e
       -0.09193485 0.027526401 0.07711129 0.19419634
000110 db 7d f1 bc 29 57 a7 bb ce da a1 3c d0 0f 81 bd
       -0.029478958 -0.005106826 0.019757655 -0.06301844
000120 1e ee 4f 3d 00 f0 23 bd 19 0a 0d bc 29 48 bf 3c
       0.050764196 -0.040023804 -0.0086083645 0.023349838
000130 5c d0 05 be 4f 58 87 bd d5 2b bd 3b d6 6f 96 bd
       -0.13067764 -0.066086404 0.0057730475 -0.0734555
000140 66 b7 91 3d e8 b6 ff 3d bd 41 d0 3c 68 f8 4c 3d
       0.071150586 0.124860585 0.025421971 0.050041586
000150 40 a3 45 3e 4b 3f a0 3c de 1e f1 3c 17 a9 b8 3d
       0.19300556 0.01956143 0.029433664 0.09016626
000160 24 86 dd bd 8a 4a c7 3d f8 9b f4 bd 75 79 db bc
       -0.10816601 0.09731014 -0.11943811 -0.026791314
000170 9d 72 83 3d 55 f7 fa bc ea 92 01 3e c6 d0 92 bc
       0.06418345 -0.030635515 0.126537 -0.017921817
000180 73 19 8c bd c2 2b 29 be 7f 45 c7 bd ff 34 8a bd
       -0.068407916 -0.16520599 -0.09730052 -0.067483895
000190 b0 df ab bd 65 5f 9b 3d 20 ce 67 bd b2 f7 2c be
       -0.083922744 0.075865544 -0.05659306 -0.16891363
0001a0 6a 5d e5 bd 36 02 28 be 56 3f c7 bd 96 6b f0 bd
       -0.11199458 -0.16407093 -0.09728877 -0.117392704
0001b0 b3 9f c7 bc d5 e7 22 3d f7 04 f4 3d 7a 03 2e 3c
       -0.024368143 0.039771874 0.119150095 0.010620946
0001c0 87 25 30 3d 70 70 ac 3d 3d 0c 3f bd 41 46 ae 3d
       0.04300454 0.08419883 -0.04664253 0.085094936
0001d0 ff 10 8c be 66 4a 9d 3d 85 c2 b8 3d 83 d5 4d bd
       -0.27356717 0.07680206 0.09021477 -0.05025245
0001e0 81 f3 b8 3b bb 35 26 bd 22 7d fd 3c 4d e3 06 3e
       0.0056442623 -0.040578585 0.030943457 0.13172646
0001f0 28 ea 2a 3d f6 a0 9b 3c 1d 13 10 be ff a1 d9 ba
       0.041727215 0.01899765 -0.14069791 -0.0016604065
000200 6d f8 84 3d 85 42 95 3d 27 6c 6b bc ff be 99 bd
       0.06492696 0.07288078 -0.014369047 -0.07507133
000210 02 6f 6b be 8c 3d 7b bd 1f d2 52 bd 22 1b 0a 3d
       -0.22991565 -0.061337993 -0.05146992 0.033717282
000220 c1 d2 9d bd 5d 56 bb 3d 5e 43 57 3d ea e2 c9 3c
       -0.07706214 0.09147332 0.05255448 0.024644334
000230 88 d0 4e bd 88 b1 c2 3a 79 dd 3f 3d ed e9 c8 bd
       -0.05049184 0.0014853934 0.046842072 -0.09810243
000240 2a f1 84 3d ff cd a0 3d cd 4e a5 3d c2 bd 35 bd
       0.06491311 0.07851791 0.08071671 -0.04437042
000250 28 72 21 bd 3a 19 ba bd af e4 6e 3b e1 fd b3 bd
       -0.03941551 -0.09086843 0.0036452224 -0.08788658
000260 8b 47 00 3d f0 9e bb bc 04 50 53 3d b0 c6 b0 bb
       0.03131823 -0.022902936 0.05158998 -0.005394779
000270 cf 1a 46 3d 6d 20 85 bb 92 78 0f bd 2f 3c c1 3c
       0.04836541 -0.0040627033 -0.035027094 0.023588268
000280 79 a0 0b bc b6 ab 1f bd 5c 73 fb ba 6a 6f 54 bd
       -0.008522146 -0.038982116 -0.001918416 -0.051864065
000290 f4 fe e1 bd d4 2a 09 3d 93 bc 0e be f5 63 18 3d
       -0.110349566 0.03348811 -0.13939123 0.0372047
0002a0 1e ac 15 3e 42 85 24 3d 7e af 47 be 21 40 ce 3c
       0.14616439 0.040166147 -0.19500539 0.025177063
0002b0 88 30 e3 bd 4a ce ae bc 5f ca c7 bd fc 6d 74 3e
       -0.11093241 -0.0213386 -0.09755396 0.2387008
0002c0 95 8f 90 3d 5c ef a1 3c 09 b2 f6 bc ce 81 e8 bc
       0.07058636 0.019767456 -0.03011419 -0.028382208
0002d0 b9 82 5f bd a0 8e 1b 3d a4 bf 28 bd 11 aa 13 3e
       -0.054568026 0.037977815 -0.041198388 0.14420344
0002e0 b8 b4 53 3d 7f e4 45 3d 3b b8 12 3d de 3b 0e 3d
       0.05168602 0.048313614 0.035820227 0.034725063
0002f0 a7 82 20 bd 70 33 00 be 2f d9 2e bd 4e d9 e9 3c
       -0.0391871 -0.12519622 -0.04268759 0.028546002
000300 c4 9c f0 bc 3a d5 4d be f0 34 68 3d 81 3a c6 3c
       -0.029371627 -0.2010087 0.05669111 0.024197819
000310 33 92 ba bc 09 09 2a bc 04 7a 0d be 73 9a 7c 3c
       -0.022774791 -0.010378131 -0.13816077 0.015417683
000320 74 8c d4 3d 33 89 10 3e d8 56 26 bc 7c b0 5a be
       0.10378352 0.14114837 -0.010152541 -0.21356386
000330 1a 5d b1 bd 71 c9 e6 bd 84 05 d9 bc ff 8b 5e be
       -0.08660336 -0.11268891 -0.026491888 -0.21733092
000340 4b 28 39 bb 2e 83 8c 3c a8 67 d6 bd 23 b9 d1 bb
       -0.0028252776 0.017152395 -0.104689896 -0.006400244
000350 46 23 5f 3d 1f ca 60 3e 70 fb 6c bb 51 e8 8c 3d
       0.054477 0.21952103 -0.003616061 0.06880248
000360 28 d7 cc bd df 75 f3 bd a2 4c 46 3e d5 67 ac bb
       -0.10001975 -0.118877165 0.1936517 -0.005261401
000370 88 8f 44 bd a0 22 be 3d 9c 9e ca 3c 0d bf 4e 3c
       -0.047988445 0.09283948 0.024733834 0.012618792
000380 6d 7e 78 bd 49 f3 d8 bd 3e 3a 85 bd bb 02 6d bd
       -0.060667444 -0.10593278 -0.065052494 -0.057863932
000390 f9 e1 60 bd 4c 83 8f bd 38 a5 fb 3b 35 16 a5 bd
       -0.054903004 -0.07007465 0.0076796077 -0.08060876
0003a0 9e c0 aa bd 3c a4 18 3e d7 0c 5e bd af b5 b5 bd
       -0.0833752 0.149064 -0.054211464 -0.08872544
0003b0 06 c9 87 3d 79 c0 70 3d 1f 34 ee 3c 9a d8 ed 3c
       0.06630139 0.058777306 0.029077588 0.029033948
0003c0 38 44 81 3c 9e 3c f1 3d cc 07 05 be 3c c0 2e be
       0.0157796 0.1177914 -0.12991256 -0.17065519
0003d0 76 25 bf bd 28 9b f8 bd ab 86 22 3e 57 ec 1d bd
       -0.09333317 -0.12138969 0.15871684 -0.03855547
0003e0 86 2a bf bc d3 d9 f7 bd e7 06 04 bd 0e f8 35 ba
       -0.023335706 -0.121020935 -0.032233145 -0.0006941565
0003f0 49 57 f3 bd f3 f5 51 bb 6d 30 83 3d 17 3f ec 3d
       -0.11881883 -0.0032037466 0.06405721 0.11535471

network_body._body_endoder.seq_layers.2.bias f4 [128]
000000 16 49 51 bc 84 91 07 bd 37 9b 15 3d a1 f2 65 bd
       -0.012773773 -0.03309776 0.036524978 -0.056139592
000010 36 00 79 3c fe 05 dc bc 70 f3 b5 bc f1 20 8a 3c
       0.015197804 -0.026858326 -0.022210807 0.01686141
000020 4d 2a ca bc 52 13 83 bd 3e 49 3f 3c f9 08 0e 3d
       -0.024678374 -0.064001694 0.011675177 0.034676526
000030 69 ff 5c 3d c1 e6 8e 3d ec 94 c3 bc 2b 52 5e bd
       0.053954516 0.069776066 -0.023874722 -0.05427758
000040 bf 8a 14 bc 04 45 2e 3d 81 bb 59 bc ab 45 ad bc
       -0.009066283 0.042546287 -0.013289333 -0.021151384
000050 54 29 ef bc 22 1c 61 bd f5 05 9c 3b 63 82 ac 3c
       -0.029194511 -0.05495847 0.0047614523 0.021058267
000060 c6 9d 02 3c 45 73 ec 3c 13 aa 40 3a 10 44 a5 bc
       0.007972186 0.028863559 0.0007349562 -0.020174056
000070 69 d2 d4 3c 3f 6f 52 bc bf b3 15 bc 59 2e db bc
       0.025979238 -0.012843906 -0.009137093 -0.026755499
000080 a3 fb 97 3c 05 ae ae 3c 27 2c 78 3d 66 5c 19 3d
       0.018552607 0.021323213 0.060588982 0.037441634
000090 73 4e 84 3d 3f cd 05 bd ec 8c 9e bc 64 ce 72 bc
       0.064602755 -0.03266644 -0.019354306 -0.014819715
0000a0 2f f2 89 bd d6 54 a3 bc 31 43 92 bd b8 9a 9f 3b
       -0.06735646 -0.019937914 -0.07141722 0.004870739
0000b0 9f a2 55 3c 16 8e 5e bb c8 0e 54 3d cc 65 e6 3c
       0.01303926 -0.0033959202 0.05177191 0.028124712
0000c0 63 05 9d bb 86 e4 8b 3c fe cc b4 39 98 0c f2 3b
       -0.004791902 0.017076742 0.00034485006 0.007386755
0000d0 a0 59 49 bd 8d 65 43 bc 19 10 1a bc 33 4c 39 3c
       -0.04915774 -0.011926067 -0.009403252 0.011309671
0000e0 e7 13 04 3c 70 a4 c8 3c bc b3 86 3c cb f1 99 bc
       0.008061386 0.024492472 0.016443126 -0.018792054
0000f0 09 e0 ae bc 89 22 42 3c 57 d7 d5 3a 7a 13 5f bc
       -0.021347063 0.011849054 0.0016314787 -0.013615483
000100 25 9a d8 bb d8 a2 f0 bc 16 68 bf 3c d3 01 09 bd
       -0.0066101723 -0.029374525 0.023365062 -0.033449005
000110 c1 ba a2 3c a0 b0 c0 bc 8d 66 99 3c ad 3e 81 bc
       0.019864442 -0.023521721 0.018725658 -0.015776956
000120 cb c2 83 bd 75 94 1f 3a 72 dd 22 bd 1d 8a fb 3a
       -0.06433638 0.00060874905 -0.039761968 0.0019190941
000130 be a9 49 bd 2b 8d 40 3c 1b 6e 2c bd a1 c2 86 bc
       -0.049234144 0.011752407 -0.042097192 -0.016450228
000140 37 1e d9 3b 5e 95 29 3c 1c a8 52 bb 20 ac 83 bb
       0.0066259163 0.010350553 -0.0032143658 -0.0040183216
000150 b4 36 99 bc 09 43 a1 bc 34 99 54 bc f1 7f 5d bd
       -0.018702842 -0.019685285 -0.01297598 -0.054077093
000160 4a 51 ea bc f8 64 c1 bc b6 f7 68 bd 37 f2 17 bc
       -0.028603215 -0.023607716 -0.05687686 -0.009274057
000170 f5 2f ab bc d6 bb a4 3c f1 a5 86 3d 7a 46 85 3c
       -0.020896891 0.020109098 0.065746196 0.016268957
000180 ff 43 31 3c 10 89 36 3d b9 3a d3 ba aa 18 24 bc
       0.010819434 0.044564307 -0.0016115523 -0.010015646
000190 13 dd e6 bc 28 9b 83 3d c0 96 09 3d 55 5a ac bc
       -0.028181588 0.06426078 0.033591032 -0.021039167
0001a0 40 41 63 bd 4b 6d ef 3b d2 75 fe bc 7e 17 ae 3d
       -0.05548215 0.00730673 -0.03106204 0.085005745
0001b0 02 aa 41 bb 7b e7 e0 bc 9e 45 56 3d 9d 5e a9 3c
       -0.0029550795 -0.027454128 0.052312486 0.020674998
0001c0 25 09 34 3b c1 d3 52 3c 76 57 c6 ba 54 af 8c 3c
       0.002747127 0.012867869 -0.0015132267 0.017173447
0001d0 f0 fa 33 3b f0 f8 f4 3c bb 79 5e 3c cc 1f a3 bc
       0.0027462803 0.029903859 0.0135788275 -0.019912623
0001e0 d8 03 0a 3d 2a 03 37 ba 23 54 2a 3d 37 9e 08 3c
       0.033695072 -0.00069813675 0.041584145 0.008338503
0001f0 ed c9 4f bd 6a ac cc 3b 0b bc ab 3c b9 1e 7d 3d
       -0.05072968 0.0062461393 0.02096369 0.061796878

action_model._discrete_distribution.branches.0.weight f4 [8, 128]
000000 67 a4 d7 3c 93 86 86 bc bb 17 13 bd 2a 96 ce bc
       0.02632351 -0.016421592 -0.035911303 -0.025218088
000010 e7 e2 b3 3c 12 56 35 bc 90 13 d8 bc 9d c6 f8 bc
       0.021958781 -0.011067884 -0.026376516 -0.030368144
000020 f6 34 69 3c 2e b0 44 bb 92 9b 0f 3d 7f 45 cc bc
       0.014233818 -0.0030012238 0.035060473 -0.024935482
000030 21 e0 08 bc 10 97 3b 3d 32 8f 45 3c 00 16 da ba
       -0.008354218 0.04579836 0.012058066 -0.0016638637
000040 52 16 1e bd 87 07 da 3c 09 96 51 bc 29 9f c5 3c
       -0.038595505 0.026614917 -0.012792119 0.024123745
000050 e4 16 ee 3c 5b ff ee 3c 14 83 3f bc 83 81 55 bb
       0.02906365 0.029174497 -0.011688966 -0.0032578416
000060 f4 01 ce 3c 0b 35 42 3c c0 c7 01 bc da f8 c4 3b
       0.025147416 0.011853467 -0.007921159 0.0060111107
000070 c2 cd f1 3c 68 e6 85 3c de d4 43 3c d0 20 03 bd
       0.029517058 0.016345218 0.011952607 -0.032013714
000080 bf e1 43 bc be 48 87 3c a6 ce f1 bc 7a dc 46 bb
       -0.0119556775 0.016514178 -0.029517483 -0.0030343817
000090 a3 ff f7 3b 42 14 84 bc ec b8 58 3c fc 0c a5 3b
       0.007568316 -0.01612294 0.013227683 0.0050369482
0000a0 30 bd 4d 3d 03 fc f9 3b ae 99 d0 bc 34 e7 c3 bc
       0.05022925 0.007628919 -0.025463905 -0.023913957
0000b0 12 cd f6 3c 92 db e2 3b 3e 9d 8c 3c 07 bc 53 bc
       0.030127082 0.0069231475 0.017164823 -0.012923247
0000c0 dd ab 9b 3c 12 a6 99 bc 00 84 13 3d ab ba d7 bc
       0.01900285 -0.018755946 0.036014557 -0.026334127
0000d0 aa 9c 46 bc 29 c8 b3 bb 19 b4 f5 bb a3 b6 fc bb
       -0.012122313 -0.0054865074 -0.007498276 -0.0077122017
0000e0 34 91 9a bc d8 b1 45 3c 75 ac ba 3c 87 94 e8 3c
       -0.018868066 0.012066327 0.022787312 0.028391136
0000f0 51 3c ce 3c 7f 21 82 bc 5b 0e da 3c 15 0a 2a bd
       0.025175245 -0.015885113 0.026618173 -0.04151352
000100 2a 05 8f bc e0 d4 3c bc 04 84 f7 bc 7c 9e 04 bc
       -0.017458517 -0.011525363 -0.030214317 -0.008094426
000110 bc 12 29 3d a0 2b 90 3a 9c e1 84 bc 53 ec c8 bb
       0.041277632 0.0010999329 -0.01622086 -0.0061316877
000120 60 c6 82 bc 74 b1 3d bc 78 da 2f bc ea 97 aa ba
       -0.015963733 -0.011577953 -0.010733239 -0.0013015245
000130 d7 c3 80 bb 1c 60 77 bc 69 b6 42 bc c3 d4 93 bc
       -0.003929596 -0.015098598 -0.01188431 -0.018045789
000140 54 45 92 3c 05 eb 86 bb 05 45 9e bc 87 09 f6 3c
       0.017855324 -0.004117372 -0.01932002 0.03003384
000150 6d 01 e4 bc ba 25 ad 3c 11 cb 9d 3c 5b 73 e0 3a
       -0.027832711 0.021136153 0.019261869 0.0017124222
000160 0a c5 d6 3a 62 6c 37 bb 61 b3 18 3c 5d 23 5e bc
       0.0016385627 -0.0027988185 0.009320111 -0.013558236
000170 7e 20 d7 3c 4f 26 7b bb 67 14 85 bc df 91 c7 3c
       0.02626061 -0.0038322394 -0.01624508 0.024361549
000180 5c 6f b0 3c 83 46 23 bd 19 ac 1e bd 3f bb 77 bc
       0.021537475 -0.039862167 -0.038738344 -0.015120327
000190 77 d0 8e bc 52 b9 29 3c 64 07 02 3d 0c 82 00 bd
       -0.017433388 0.010359125 0.03174533 -0.031374022
0001a0 d8 93 63 bc 0c 01 b0 3c bd f3 95 bc 17 2e a5 bc
       -0.013890229 0.021484874 -0.0183047 -0.020163579
0001b0 55 47 a9 bc c2 52 cb bc e9 f3 29 bc 8e 6a 60 3c
       -0.020663897 -0.024819735 -0.010373094 0.01369728
0001c0 16 36 b5 bb 50 36 8b 3c cc 1a 26 3d 9d 5a d7 bc
       -0.005530129 0.016993672 0.0405529 -0.026288325
0001d0 57 99 98 bc 4e ec 17 3d 59 7b 0f 39 73 62 33 bc
       -0.018627806 0.037090592 0.00013683493 -0.010948765
0001e0 73 cb ad bc ed 20 96 bc 07 95 4b 3d 16 86 30 bd
       -0.021215176 -0.018326247 0.04970267 -0.043096624
0001f0 68 21 e6 bc b0 9a ca 3c d9 d9 c7 bc 7a a2 02 bd
       -0.028092101 0.024731964 -0.02439587 -0.03189323
000200 51 31 cd bc 78 7f 24 3d bc e9 60 bc fb 4f 5b 3d
       -0.02504793 0.040160626 -0.013727602 0.053543072
000210 0d 6c 36 bc e5 24 65 3c af f6 af 3c 0d 25 29 bc
       -0.01113416 0.013985847 0.021479933 -0.010323775
000220 f6 84 e4 3c ee 39 03 3d 2d 45 18 bd a7 6e 55 bd
       0.027895432 0.032037668 -0.037175346 -0.05210748
000230 fc 32 a5 bd 3f f5 97 bd b9 a4 ec 3c e5 08 e6 3c
       -0.08066365 -0.07419824 0.02888714 0.028080413
000240 b1 49 f6 3c f4 18 33 bd f5 3a 90 bc 9a 13 b8 3c
       0.030064436 -0.04372497 -0.017606238 0.022470284
000250 46 f1 ce bc 73 4b 17 3d 3d 3d fc 3c 3c 21 51 bd
       -0.025261533 0.03693719 0.03079092 -0.051057085
000260 db 6f ad bc b8 0b 90 bd 14 3c b8 bc 63 07 a2 bb
       -0.0211715 -0.07033485 -0.022489585 -0.004944728
000270 82 88 26 bd 40 57 b0 3c 6c a9 fa 3b 5e 98 2b 3c
       -0.040657528 0.021525979 0.007649591 0.010473339
000280 89 4c 74 bd b8 78 a7 bc fa 35 84 bd 59 d2 af bb
       -0.059643302 -0.020443305 -0.06455608 -0.0053656516
000290 a6 1d d3 bc 77 5c c6 3b cc c8 c4 3b aa 6d dd bc
       -0.025770973 0.006053503 0.006005382 -0.027029831
0002a0 07 9c 21 3d 10 68 ab 3c 37 75 95 3d af 48 2e bd
       0.03945544 0.020923644 0.072977476 -0.042549785
0002b0 d2 87 b4 bc 3c cd 01 bd 41 0d 27 bd 46 cc 29 bd
       -0.02203742 -0.031689867 -0.040784124 -0.041454576
0002c0 6c fa 80 3c 5f 5c fa bc 37 3a ab bc 75 f0 87 3a
       0.01574441 -0.030561624 -0.020901782 0.0010371344
0002d0 8f 88 0c 3d 17 24 90 3c 6a 9b 74 3a 3d ba 51 bd
       0.03430992 0.017595334 0.000933102 -0.051203
0002e0 56 5f 2d 3a 7e 93 40 bd 3f 6f e5 bc e8 12 e4 bc
       0.00066136324 -0.04701566 -0.028007148 -0.027841046
0002f0 79 f0 b9 ba 72 e9 09 bd f7 50 eb bc 1b 50 17 3d
       -0.0014186046 -0.033669896 -0.02872513 0.03694163
000300 4c 84 8c 3c 41 0b 3b 3d 0c f0 92 bc 0f 68 6a 3c
       0.017152928 0.04566503 -0.017936729 0.014307036
000310 00 9c a8 bc e8 c8 17 bd a4 4f a0 bc fe bc 93 bb
       -0.0205822 -0.037056834 -0.019569226 -0.0045086136
000320 0f 01 60 3d 44 61 89 3a 6e f2 c2 3a f9 8a 8a bc
       0.05468851 0.0010481258 0.0014873275 -0.01691197
000330 fd 4e 00 3d 19 99 00 bd 53 f9 d5 3d 25 75 9e ba
       0.03132533 -0.031396005 0.104479454 -0.0012089355
000340 6e 5d 72 bc a0 58 e9 bc 3d fd 1d bd 6b 20 5e bc
       -0.014792783 -0.028484643 -0.038571585 -0.013557534
000350 ad 39 89 3d ae 01 fc bb 7f 6c d5 bb b7 60 15 3d
       0.06700454 -0.00769063 -0.006513178 0.036469188
000360 20 a7 23 3d 68 29 63 bc ed c0 e1 3c 33 e7 1c 3b
       0.039954305 -0.0138648525 0.027557814 0.0023941516
000370 bb d4 91 bb b2 6f 32 bd 02 b2 a4 bd 21 24 b3 bc
       -0.0044504083 -0.043563552 -0.08041765 -0.021867814
000380 90 a7 14 bd f1 fd 74 bd e3 27 ce 3b 89 7d f6 3c
       -0.036292613 -0.05981249 0.006291376 0.030089157
000390 c9 29 37 3d f2 22 35 bd 08 d0 21 bc a3 41 05 3b
       0.044717584 -0.04422278 -0.009876259 0.0020333312
0003a0 d8 91 5c 3c a9 10 a7 bb be 82 d8 3c 69 f7 d7 bd
       0.013462506 -0.0050984216 0.02642953 -0.105452366
0003b0 77 96 01 bc f4 4b b3 3b b4 8b 54 bd 89 e7 fb bb
       -0.007909409 0.005471701 -0.051891044 -0.0076875133
0003c0 dc ea fb bb 99 47 64 bd 02 5c c4 bc 4a 8d 1d bd
       -0.0076879095 -0.055732343 -0.023969654 -0.038464822
0003d0 2b 5c 3d 3c a0 71 df bc fa 7f d3 bc 42 6a 09 3d
       0.011557619 -0.02727586 -0.02581786 0.0335486
0003e0 00 ce 40 3c 8d c1 35 bc 27 45 0c bd a8 b3 44 3c
       0.011767864 -0.011093509 -0.034245636 0.012005724
0003f0 9e e6 26 3d a4 ea 09 bd f2 be c9 bc 65 ba a9 bd
       0.040747277 -0.033671036 -0.024627183 -0.08287505

action_model._discrete_distribution.branches.0.bias f4 [8]
000000 50 53 2c 3c 01 f0 c4 bd f7 8a 9f 3c 50 81 74 bb
       0.01051791 -0.096160896 0.019475443 -0.0037308522
000010 2b 67 55 3c 34 b1 1e 3c 25 8f 1e 3c eb b0 02 3d
       0.013025085 0.009685803 0.009677683 0.031907003

onnx::Div_52 f4 [12]
000000 93 3e 92 40 bc 2e 9d 40 5c 02 e8 42 20 0c 6d 3e
       4.5701385 4.911955 116.00461 0.23149157
000010 04 4f 49 3e c2 a0 02 3e 9f 3b 41 3e 2e 13 82 3d
       0.19659048 0.12756637 0.188704 0.063513145
000020 87 94 48 3d 67 54 50 3d 82 47 b9 3a 82 47 b9 3a
       0.04896977 0.050861742 0.0014135691 0.0014135691
