Assets/Resources/ONNX/SwordMLAgents.onnx (onnx, 23609 bytes, 6 tensors)

0.bias f4 [64]
0	0x3e594f0c	0.2122156
1	0x3d7f3ede	0.062315814
2	0xbe5d3834	-0.21603471
3	0x3d42c4d3	0.047550987
4	0xbcbe370a	-0.023219604
5	0x3e0711d8	0.131904
6	0xbe27e50a	-0.16395965
7	0xbe85d7dc	-0.2614125
8	0xbce028c2	-0.027363185
9	0x3dd4dbea	0.10393508
10	0x3de65e62	0.11248471
11	0x3e4ad29d	0.19806905
12	0xbe83fdb6	-0.25779504
13	0xbd968023	-0.07348659
14	0xbcf32539	-0.029680835
15	0xbe36c986	-0.17850313
16	0x3e8917b0	0.26775885
17	0x3db6b42d	0.089210846
18	0x3d2ede33	0.042692374
19	0xbe04096e	-0.12894222
20	0x3e3d458b	0.1848356
21	0xbe49dcab	-0.19713084
22	0xbe042cee	-0.12907764
23	0x3e83a181	0.25709155
24	0x3e447e59	0.19188823
25	0x3e02eab7	0.12784849
26	0x3e11a2cb	0.14222257
27	0xbcc55be4	-0.024091668
28	0xbcfb4903	-0.030674463
29	0x3dda9713	0.10673346
30	0xbe4a5102	-0.19757465
31	0x3e250b37	0.1611756
32	0x3e858376	0.2607686
33	0xbe38028c	-0.17969722
34	0xbe8460c4	-0.25855076
35	0xbe244857	-0.1604322
36	0x3cd1309c	0.025535874
37	0x3e86dabd	0.2633876
38	0xbe2b2d42	-0.16716483
39	0xbdd1f5f3	-0.10251989
40	0x3e8eac5f	0.27865884
41	0x3d6e4d52	0.058179207
42	0x3e897b0c	0.2685169
43	0x3e2b8eb4	0.16753656
44	0xba3f928c	-0.0007307909
45	0x3d2fbfa2	0.042907365
46	0x3e74e504	0.23915488
47	0x3e4a27d3	0.19741754
48	0xbd89c218	-0.067264736
49	0x3e57a589	0.2105924
50	0xbe106cbb	-0.14103977
51	0x3dcd2f8d	0.10018835
52	0x3e61c5e4	0.22048146
53	0x3e3980d6	0.18115553
54	0xbe652872	-0.2237871
55	0xbe99c17d	-0.30030432
56	0x3e354fe8	0.17706263
57	0x3e9bf13d	0.30457488
58	0x3d23a4eb	0.0399522
59	0x3d1ea45a	0.038730957
60	0x3e795eab	0.24352519
61	0x3d464228	0.048402935
62	0xbe324da5	-0.17412432
63	0xbd8a4d66	-0.06753044

2.bias f4 [64]
0	0xbd82740b	-0.0636979
1	0x3dc47c0b	0.09593972
2	0x3e08d23c	0.13361448
3	0x3d4e1763	0.050315272
4	0x3e0c16ab	0.13680522
5	0xbd974a3b	-0.07387205
6	0xbd51d314	-0.05122669
7	0xbdc302cd	-0.095220186
8	0xbd894e4c	-0.06704387
9	0x3e2881a6	0.16455707
10	0xbd135119	-0.035966013
11	0x3d336124	0.043793812
12	0xbb837c1a	-0.004012597
13	0xbe077853	-0.13229494
14	0x3e3d22b3	0.18470268
15	0x3cf67a79	0.030087696
16	0xbd10aed3	-0.035322975
17	0xbd1f9541	-0.0389607
18	0xbca84286	-0.020539533
19	0xbdad0b84	-0.08449462
20	0x3d7fdac5	0.062464494
21	0xbe264303	-0.162365
22	0xbdbea4c7	-0.093087725
23	0x3c8437be	0.016139861
24	0xbd88b801	-0.06675721
25	0xbbc665db	-0.0060546226
26	0xbddf9590	-0.10917199
27	0xbe02acc4	-0.12761217
28	0xbd4a77dc	-0.049430713
29	0x3da0032d	0.07813106
30	0x3d094e6a	0.033522047
31	0xbd1ef193	-0.038804602
32	0xbcec7622	-0.028864924
33	0x3de18c37	0.11013072
34	0x3c9d3d69	0.019194322
35	0xbe32d22b	-0.17462985
36	0xbdc9dd0a	-0.09856613
37	0xbdfc02ac	-0.12305197
38	0x3d26c5c4	0.040715948
39	0xbdd38bab	-0.10329374
40	0xbd600ea8	-0.054701477
41	0x3d11ea89	0.03562406
42	0x3e32297a	0.17398635
43	0xbe022c82	-0.12712291
44	0xbe1637c4	-0.1466971
45	0xbdef8731	-0.116957076
46	0x3d264ab5	0.04059859
47	0x3e41a598	0.18910825
48	0x3dc989ee	0.09840761
49	0x3d2b38a9	0.041802082
50	0xbd8f0c41	-0.06984759
51	0x3e0f59ef	0.1399915
52	0xba065493	-0.0005124297
53	0xbdae72a8	-0.08517963
54	0x3cc0615a	0.02348392
55	0xbd447b1f	-0.04796898
56	0x3e080e19	0.13286628
57	0xbda3dafc	-0.08000752
58	0x3df97b58	0.12181729
59	0xbc906348	-0.017625466
60	0xbe31d4ec	-0.1736638
61	0x3e116d83	0.14201932
62	0x3d554117	0.052064028
63	0xbe03c1bf	-0.12866877

4.bias f4 [8]
0	0xbae7206b	-0.0017633563
1	0xbb42f3e5	-0.0029747423
2	0xbb96a70e	-0.004597551
3	0x3e04d4a5	0.12971742
4	0x3c89afbd	0.016807431
5	0x3da03f08	0.07824522
6	0xbaec2564	-0.0018016514
7	0x3d4e5af9	0.050379727

onnx::MatMul_19 f4 [15, 64]
0	0xbc1de671	-0.009637461
1	0x3dc84e75	0.097805895
2	0x3d72d4e1	0.05928505
3	0xbe2f9eb1	-0.1715038
4	0xbcaa87b8	-0.020816669
5	0x3e18a32f	0.14906
6	0x3d9e563a	0.0773129
7	0xbca5049e	-0.020143803
8	0x3d00a911	0.031411234
9	0xbd0bf60d	-0.0341702
10	0x3e9440d0	0.28955698
11	0x3da1107f	0.078644745
12	0x3d8edfb5	0.069762625
13	0xbddad8d1	-0.10685886
14	0x3d478eb8	0.04872009
15	0x3dd020a4	0.10162476
16	0x3e2fc0e1	0.17163421
17	0xbe1e8f99	-0.15484466
18	0x3e50df76	0.20397744
19	0x3bcd868e	0.0062721437
20	0x3dbfff76	0.09374897
21	0xbe89dc80	-0.2692604
22	0x3e3c288f	0.18374847
23	0xbc2e0630	-0.010621592
24	0xbe4a8fa2	-0.19781354
25	0xbce139e5	-0.027493427
26	0x3deb571b	0.114912234
27	0xbe8dde3e	-0.2770862
28	0x3db9fca8	0.090813935
29	0xbe3b1082	-0.18268016
30	0x3e14c6aa	0.1452891
31	0xbd7cbe21	-0.06170476
32	0x3e0d90eb	0.13824813
33	0xbdb5964a	-0.08866556
34	0xbe0770fe	-0.13226697
35	0xbe873b88	-0.26412606
36	0xbde52cf9	-0.111902185
37	0x3d53c5a9	0.051702175
38	0x3e1e0c6f	0.1543443
39	0x3dca1d1a	0.09868832
40	0x3c2f6773	0.010705817
41	0xbb7ef64d	-0.003890413
42	0xbd7a8ce2	-0.061169513
43	0xbe0c7e14	-0.1371997
44	0x3db00f38	0.08596653
45	0x3e0916b0	0.13387561
46	0xbd2a30b0	-0.04155034
47	0xbde7de2e	-0.11321674
48	0xbc8fbc82	-0.017545942
49	0x3d122aa1	0.035685185
50	0x3df86ad6	0.12129752
51	0xbd158da1	-0.03651202
52	0xbe40b76c	-0.1881997
53	0x3d8a2e68	0.067471325
54	0xbddd7096	-0.1081249
55	0x3e0b95f9	0.13631429
56	0x3d9ef3ca	0.07761343
57	0xbe044348	-0.12916291
58	0x3e1a7af2	0.15085962
59	0x3ddcf65f	0.10789179
60	0xbc528441	-0.012848915
61	0xbce43592	-0.027857576
62	0xbd5b7b74	-0.05358453
63	0x3d29ddfc	0.041471466
64	0xbd8e99e1	-0.06962944
65	0xbebeba68	-0.37251592
66	0x3e39be47	0.18138991
67	0xbe078098	-0.13232648
68	0x3d187b62	0.037227042
69	0x3da7710f	0.08175861
70	0xbda2e41f	-0.07953667
71	0xbcf5a032	-0.029983614
72	0xbc0d74da	-0.008633817
73	0xbd07a2b7	-0.03311416
74	0xbe5d3ad8	-0.21604478
75	0xbda95e8d	-0.08269987
76	0x3c9527fb	0.01820754
77	0xbe3efc72	-0.18650988
78	0x3edd9af4	0.43282282
79	0x3d07bb15	0.0331374
80	0x3e420edd	0.18950982
81	0x3eb52bc0	0.3538494
82	0xbcf92a87	-0.030415786
83	0xbc6b5530	-0.014363572
84	0xbdd623ad	-0.10456023
85	0x3ec24311	0.37941793
86	0xbd24f740	-0.04027486
87	0x3ddb3d1b	0.10705014
88	0x3ea92ffa	0.33044416
89	0xbd07d886	-0.033165477
90	0x3c12d4f0	0.008961901
91	0xbda1f813	-0.079086445
92	0xbdcf30fd	-0.10116766
93	0xbda957fd	-0.082687356
94	0xbc2471a3	-0.010036859
95	0x3dc5c4da	0.09656687
96	0xbe89f857	-0.2694728
97	0xbc7fcd74	-0.015612949
98	0x3c5063bc	0.012719091
99	0xbe0791f2	-0.13239267
100	0x3e7487d3	0.23879938
101	0xbd946272	-0.072453395
102	0x3dc7ac6f	0.09749686
103	0xbe6d3aa2	-0.23166898
104	0x3e87daaa	0.26534015
105	0x3da22c6a	0.079186276
106	0x3e05a465	0.13050993
107	0x3c5043aa	0.012711445
108	0xbde20680	-0.11036396
109	0xbe266fb3	-0.16253547
110	0x3e2b0102	0.16699603
111	0xbe377cb7	-0.17918669
112	0xbd2ca9c6	-0.042154096
113	0xbe758fb9	-0.23980607
114	0xbe1225ad	-0.14272185
115	0x3e0753a3	0.13215499
116	0xbe8fec0b	-0.28109774
117	0xbe82d1bd	-0.25550643
118	0x3d14ac31	0.036297027
119	0x3e9ef4e5	0.31046215
120	0x3d9061cd	0.07049904
121	0xbd866e82	-0.065640464
122	0xbd5d2249	-0.053987775
123	0xbe5d7839	-0.21627893
124	0xbd0ecfa7	-0.034866
125	0x3d7eac5a	0.062176086
126	0x3e1f67fa	0.15567008
127	0x3c95e852	0.018299256
128	0x3f138490	0.5762415
129	0xbed08291	-0.40724614
130	0xbe760a21	-0.24027301
131	0x3e8e3076	0.27771348
132	0xbdab7770	-0.0837239
133	0x3e0f9fcd	0.14025803
134	0xbeb5e2eb	-0.35524687
135	0x3db0e917	0.08638208
136	0xbed47786	-0.4149744
137	0xbc4e427a	-0.012589091
138	0xbe9f5a6a	-0.31123668
139	0x3eeda271	0.46412995
140	0xbe5a835e	-0.21339175
141	0x3eca7a48	0.39546418
142	0x3dd7d270	0.10538185
143	0x3dea1599	0.11429901
144	0xbcad823c	-0.021180265
145	0x3e929d27	0.28635523
146	0xbe8b629b	-0.27223668
147	0x3e988de5	0.29795757
148	0x3e979768	0.296077
149	0xbc54ba1a	-0.012983823
150	0x3f43f9d9	0.7655311
151	0xbe0facf3	-0.14030819
152	0xbe98ba8a	-0.29829818
153	0xbd1d1910	-0.03835398
154	0x3d66f020	0.056381345
155	0xbd810139	-0.06299061
156	0xbf135a6f	-0.57559866
157	0xbdbae62b	-0.09125932
158	0x3f2ed1ef	0.68289083
159	0x3e96d604	0.29460156
160	0xbca98223	-0.020691937
161	0xbe664a05	-0.22489174
162	0xbd09549b	-0.03352795
163	0xbebf330a	-0.37343627
164	0xbf0f125d	-0.55887395
165	0xbd94d16b	-0.07266506
166	0xbdfc8946	-0.1233087
167	0xbeaf2d22	-0.3421412
168	0x3c563c47	0.013075895
169	0x3e8235b3	0.25431594
170	0xbe81fa8a	-0.2538646
171	0x3b43ba10	0.002986554
172	0xbeccaa10	-0.39973497
173	0xbe7977c0	-0.24362087
174	0x3e8fb4e1	0.28067687
175	0xbf09a5ca	-0.537686
176	0x3e992843	0.2991353
177	0xbf19de89	-0.60105187
178	0x3e5d1405	0.21589668
179	0x3dafaa3a	0.0857739
180	0x3e8165da	0.2527302
181	0xbda6082b	-0.08107027
182	0xbec88f39	-0.3917177
183	0xbd900e5e	-0.0703399
184	0xbd7b9757	-0.061423626
185	0x3e2d4b70	0.16923308
186	0x3d529964	0.051415816
187	0xbe8d00ce	-0.27539676
188	0x3dcb4f73	0.09927263
189	0x3ed38946	0.4131567
190	0x3ed9dd65	0.42551723
191	0xbe0edfa2	-0.13952497
192	0xbde87cbc	-0.11351916
193	0xbe8d768f	-0.27629516
194	0xbe2ada5a	-0.16684857
195	0xbec1df6b	-0.37865767
196	0x3ca38a6f	0.019963471
197	0xbef4930f	-0.47768447
198	0x3e06f6eb	0.13180129
199	0x3b93c884	0.0045099873
200	0x3e933611	0.28752187
201	0xbd49cdca	-0.04926852
202	0x3e752fbf	0.23943995
203	0x3d0f76e3	0.03502549
204	0x3e1d571c	0.15365261
205	0x3e896f49	0.26842716
206	0x3e7a099a	0.24417725
207	0x3e6bf0ec	0.23041123
208	0x3ebe2a31	0.37141564
209	0x3e265d31	0.16246487
210	0x3ea882ac	0.32912195
211	0xbd673143	-0.056443464
212	0xbcff96dc	-0.031199865
213	0x3dd9e555	0.10639445
214	0x3d8b0f6d	0.067900516
215	0x3d88f258	0.066868484
216	0x3d9dd4b9	0.07706589
217	0xbeb40b4a	-0.35164863
218	0xbead9ada	-0.33907205
219	0x3d3abe0a	0.04559139
220	0x3dc589dc	0.09645435
221	0x3ed668ad	0.41876736
222	0xbf07aac3	-0.52994937
223	0x3e24eb88	0.16105473
224	0x3dd1ba6c	0.10240635
225	0xbea021bd	-0.3127574
226	0xbd4a9f9a	-0.049468614
227	0xbebc0637	-0.36723492
228	0x3dccc10d	0.09997759
229	0x3e24db19	0.16099204
230	0x3e97566b	0.2955812
231	0xbeb53d10	-0.3539815
232	0x3cea6941	0.028614642
233	0xbe107dd5	-0.14110501
234	0xbe6c08b3	-0.23050193
235	0xbecca934	-0.39972842
236	0xbe7526d0	-0.23940587
237	0xbda00651	-0.07813705
238	0x3e5bee76	0.21477684
239	0x3dd15056	0.10220401
240	0xbd85e18d	-0.06537161
241	0xbe92a90d	-0.286446
242	0xbe2cc018	-0.16870153
243	0xbe803da0	-0.25047016
244	0xbc97c7b2	-0.01852784
245	0x3e1d5dab	0.15367763
246	0x3e30738a	0.17231575
247	0xbd2b5b04	-0.041834846
248	0x3e80b608	0.2513888
249	0xbe288ab2	-0.16459158
250	0xbe9aca49	-0.30232456
251	0x3de861d7	0.113467865
252	0x3ac69f39	0.0015153653
253	0x3e7e15e4	0.24813038
254	0xbe327cf0	-0.17430472
255	0xbe4d076b	-0.20022361

onnx::MatMul_20 f4 [64, 64]
0	0xbc96ea54	-0.018422283
1	0x3e16d1e7	0.14728509
2	0x3cca6a4a	0.024708886
3	0xbcac8cce	-0.021063235
4	0x3e5cab1b	0.21549647
5	0xbd67e9d7	-0.05661949
6	0xbe23b6b4	-0.15987664
7	0x3d81d563	0.063395284
8	0xbd8eb3e1	-0.06967903
9	0x3d97dc20	0.074150324
10	0xbdefb0f1	-0.11703671
11	0xbdb0eda9	-0.0863908
12	0x3d85b3c5	0.06528429
13	0x3c9d5ebb	0.01921021
14	0x3d71536d	0.05891745
15	0xbd6fed3a	-0.058575846
16	0x3e295055	0.1653455
17	0xbd4ec729	-0.050482903
18	0x3de00ce2	0.10939957
19	0xbd8a3d42	-0.06749965
20	0x3d15d2a7	0.036577847
21	0xbd91feb9	-0.071286626
22	0xbda90412	-0.082527295
23	0xbcd3aa40	-0.025838017
24	0xbc1e8302	-0.009674789
25	0x3bb04110	0.00537885
26	0x3c8d576c	0.0172536
27	0xbd1e06e3	-0.038580786
28	0xbe0a2dd7	-0.13494049
29	0x3d291368	0.041278273
30	0x3cbe4fdc	0.02323144
31	0x3e20b6c8	0.15694726
32	0x3dd7b2c9	0.105321474
33	0xbe0a9406	-0.13533029
34	0xbe00d939	-0.12582864
35	0x3d5b85a7	0.053594258
36	0xbd5cae5e	-0.053877227
37	0x3d6f51b3	0.058427524
38	0xbda728eb	-0.08162101
39	0x3c8c268e	0.017108228
40	0xbd815ac6	-0.06316142
41	0x3dbe9128	0.0930503
42	0xbe0672ab	-0.1312968
43	0x3dc13e72	0.094357386
44	0xbd14bee3	-0.036314856
45	0xbe192ecc	-0.14959258
46	0xbd912f4a	-0.07089098
47	0x3e253134	0.16132051
48	0x3e09ece6	0.13469276
49	0x3d9538cd	0.072862245
50	0xbe0709c3	-0.13187318
51	0xbc2ac3d2	-0.010422664
52	0x3d8362c9	0.06415326
53	0x3d1f0542	0.038823374
54	0xbcfd216d	-0.030899728
55	0x3d3bf15a	0.045884468
56	0x3e36c0c2	0.17846969
57	0x3db887f4	0.09010306
58	0x3d37bfe4	0.044860736
59	0xbcf8929a	-0.030343343
60	0x3a10c48d	0.00055224524
61	0x3db47959	0.08812208
62	0x3e056f0c	0.13030642
63	0x3cc39fc1	0.023879888
64	0xbd4ec384	-0.050479427
65	0xbaa68611	-0.001270475
66	0xbdf0f58a	-0.11765583
67	0xbdc8fb93	-0.09813609
68	0x3cb40b0a	0.02197792
69	0x3dfcf0da	0.12350626
70	0xbdec66f7	-0.115430765
71	0x3d5efa8c	0.05443816
72	0x3dc12ba4	0.09432152
73	0xbd9de084	-0.077088386
74	0x3b90d8da	0.004420382
75	0x3d90b87a	0.07066436
76	0xbc9f43f2	-0.019441579
77	0x3e03521d	0.12824292
78	0xbd4db26f	-0.050218996
79	0xbc83be29	-0.016081886
80	0xbdfdf31c	-0.12399885
81	0x3de086a3	0.1096318
82	0xbd837b5c	-0.06420013
83	0x3e30b700	0.17257309
84	0x3da5e318	0.08099955
85	0x3e51ceb5	0.20489009
86	0xbd8fc6e7	-0.070203595
87	0x3d88e4b9	0.066842504
88	0x3dfa7b00	0.12230492
89	0xbd5e8a4c	-0.05433111
90	0x3e56e8fc	0.20987314
91	0x3d9dd801	0.07707215
92	0xbd2197e7	-0.039451506
93	0x3da3a76a	0.07990916
94	0xbd49f0c4	-0.049301878
95	0xbe2e276e	-0.17007229
96	0x3de1cf25	0.11025838
97	0x3e0c1ba4	0.13682419
98	0x3d45e9b3	0.048318576
99	0x3c97abd9	0.01851456
100	0xbdffbb1a	-0.12486859
101	0xbde0291f	-0.10945343
102	0x3c7a67ce	0.015283538
103	0xbe394a8c	-0.18094844
104	0x3dec851a	0.115488246
105	0x3d888a38	0.06666988
106	0x3dde1b7e	0.108450875
107	0xbdc31af7	-0.095266275
108	0x3d188245	0.03723361
109	0xbcc57ec8	-0.024108306
110	0xbe263d9e	-0.16234443
111	0xbe2afc54	-0.16697818
112	0xbe13e847	-0.14444076
113	0x3e386523	0.1800733
114	0x3e35509d	0.17706533
115	0x3e230eb4	0.15923578
116	0x3c9ba65b	0.019000223
117	0x3da5e97c	0.08101174
118	0xbe3afef3	-0.18261318
119	0x3e004101	0.12524797
120	0xbd77f7ae	-0.06053894
121	0xbe2f6345	-0.17127712
122	0xbde46a75	-0.111531176
123	0xbd922272	-0.07135476
124	0x3ae5f354	0.0017543831
125	0x3dbb8ae9	0.091573544
126	0xbc960910	-0.018314868
127	0xbd851789	-0.064986296
128	0xbce6d5eb	-0.028178176
129	0xbccf277b	-0.02528738
130	0x3b907c72	0.0044093663
131	0xbde95b3c	-0.11394355
132	0xbd51cae9	-0.0512189
133	0x3d88dd64	0.06682852
134	0x3e0eaa44	0.13932139
135	0x3da8daa0	0.082448244
136	0xbdf52f40	-0.11971903
137	0xbdded67d	-0.10880754
138	0xbd778236	-0.060426913
139	0xbdd20255	-0.10254351
140	0xbd5b0f7c	-0.053481564
141	0x3decbf30	0.115599036
142	0xbc7dc5f7	-0.015489093
143	0x3ce834c2	0.02834547
144	0xbe13fac6	-0.14451131
145	0x3cf57e9e	0.029967602
146	0xbd8278a4	-0.063706666
147	0xbd8165aa	-0.06318219
148	0xbdab5778	-0.08366293
149	0x3d86bf11	0.06579412
150	0xbdf76b57	-0.1208102
151	0xbcba34b9	-0.022730218
152	0x3c35de48	0.011100359
153	0xbe037441	-0.12837316
154	0xbcec9fad	-0.028884733
155	0x3e32cb4e	0.17460367
156	0x3daf7798	0.085677326
157	0x3ce28ba1	0.02765447
158	0xbd656770	-0.05600685
159	0xbc38e029	-0.011283913
160	0x3e326a75	0.17423423
161	0x3b3b4fcf	0.0028581505
162	0xbdac3074	-0.08407679
163	0xbd7ab52d	-0.06120794
164	0x3e0321fa	0.1280593
165	0xbda8bdac	-0.08239302
166	0xbdf50bd6	-0.11965148
167	0x3d04fea8	0.03246942
168	0x3d9fa667	0.077954106
169	0x3da5a8ee	0.080888614
170	0xbd60128a	-0.05470518
171	0xbd1ca822	-0.03824628
172	0xbe374079	-0.17895688
173	0x3d56de41	0.05245805
174	0xbe18d6a5	-0.1492563
175	0xbd677cec	-0.05651562
176	0xbdcbd0c7	-0.099519305
177	0x3d5ad70b	0.053427737
178	0x3dee75b6	0.11643545
179	0xbd9c884a	-0.076431826
180	0x3cb323de	0.021867689
181	0x3d47e6a5	0.048803944
182	0xbc6035f3	-0.0136847375
183	0x3d024e49	0.03181294
184	0x3b4f34df	0.0031617207
185	0x3da8610b	0.082216345
186	0x3d8e2b43	0.06941845
187	0x3dc6cac9	0.09706647
188	0x3dd9af68	0.10629159
189	0xbe2ac159	-0.16675319
190	0xbbd32e26	-0.0064447103
191	0xbcce7833	-0.0252038
192	0xbe0a6ed3	-0.13518839
193	0x3d88a294	0.06671634
194	0x3c978a6f	0.018498627
195	0x3d4431d9	0.0478991
196	0x3c56b18e	0.013103856
197	0x3d4cca2a	0.049997486
198	0xbd373e17	-0.044736948
199	0x3dc339e3	0.095325254
200	0xbdc8f81b	-0.09812947
201	0xbd423b49	-0.04741982
202	0x3dbac3f9	0.0911941
203	0xbdd80064	-0.105469495
204	0x3cd2c27a	0.0257275
205	0x3ddc3a79	0.1075334
206	0x3cfd6d76	0.030935984
207	0xbdcb3581	-0.099223144
208	0xbd92ce91	-0.07168306
209	0x3d3632d3	0.044482064
210	0xbe066aba	-0.1312665
211	0x3d04cf07	0.032424
212	0x3dcc8210	0.09985745
213	0x3e08ab00	0.13346481
214	0xbe161018	-0.14654577
215	0xbe1ca635	-0.15297778
216	0x3dc3f4a1	0.09568144
217	0xbd8a2453	-0.067452095
218	0x3d9a2c1e	0.07527946
219	0xbe00f304	-0.12592703
220	0xbe28fac7	-0.16501914
221	0xbdc775e3	-0.09739282
222	0xbd0266ed	-0.03183644
223	0xbd190f98	-0.037368387
224	0x3c598026	0.013275182
225	0x3bdd9c7c	0.006763039
226	0x3c88e0a4	0.01670868
227	0xbadf6c01	-0.0017045737
228	0x3dce3ad3	0.100698136
229	0x3e30a35c	0.17249817
230	0xbb77f508	-0.003783526
231	0x3e289005	0.16461189
232	0xbde2176b	-0.11039623
233	0x3dee8a86	0.11647515
234	0xbdda1405	-0.1064835
235	0xbd8bb81c	-0.068222255
236	0xbc1857b4	-0.009298254
237	0xbdc9c45b	-0.09851905
238	0xbdac1646	-0.08402686
239	0x3d65fe29	0.05615059
240	0xbd3e42d3	-0.046450447
241	0xbd3518ed	-0.044213224
242	0xbd18ce95	-0.037306387
243	0x3d17a562	0.037022956
244	0xbda1f59f	-0.07908177
245	0x3d885c70	0.06658256
246	0x3cf9af82	0.030479196
247	0xbdb896c4	-0.09013131
248	0x3aa7d5ed	0.0012804844
249	0x3d7bf49c	0.061512575
250	0x3d94df32	0.072691336
251	0x3d5e12d1	0.054217163
252	0x3d7a0d05	0.061047573
253	0x3cf2e10b	0.029648324
254	0x3dc53829	0.09629852
255	0xbd3b2e11	-0.04569823

onnx::MatMul_21 f4 [64, 8]
0	0xbe29e1ff	-0.16590117
1	0x3d76ba33	0.060236167
2	0x3dd2f8d2	0.10301365
3	0x3d9d9476	0.07694332
4	0x3e498f34	0.19683534
5	0x3d7923de	0.06082522
6	0x3dc294ab	0.095010124
7	0x3cec2e60	0.028830707
8	0xbd59948b	-0.053120177
9	0xbe1f47a2	-0.1555467
10	0xbe42615e	-0.18982455
11	0x3de1d7b5	0.11027471
12	0x3e063517	0.1310619
13	0x3d224a3c	0.039621577
14	0x3e0dcdf3	0.13848095
15	0xbda5051a	-0.08057614
16	0xbc5630a0	-0.013073117
17	0xbe28f610	-0.16500115
18	0x3e312fd8	0.17303407
19	0x3da40143	0.08008053
20	0x3dd2a8db	0.10286113
21	0xbde5aab9	-0.112142034
22	0x3e2df9b7	0.1698979
23	0xbe8a403d	-0.27002135
24	0xbdb6f407	-0.08933263
25	0xbdc6d532	-0.097086325
26	0x3d8d89b1	0.06911028
27	0xbd0aaafa	-0.033854462
28	0xbddf0948	-0.10890442
29	0x3e29beed	0.16576739
30	0x3e014243	0.12622933
31	0x3e2639af	0.16232942
32	0xbd9a49c6	-0.075336024
33	0xbe107232	-0.14106062
34	0x3ddc5b0b	0.107595526
35	0x3e235c10	0.15953088
36	0x3dd6ead1	0.104940064
37	0x3e338735	0.17532046
38	0x3cff7974	0.031185843
39	0xbd97ea51	-0.07417739
40	0x3e30b197	0.17255245
41	0x3e242981	0.16031457
42	0x3cb24517	0.02176146
43	0x3cd9b755	0.026576677
44	0xbc0d976d	-0.00864206
45	0xbe261444	-0.16218668
46	0x3d6887d6	0.05677017
47	0x3d9ae417	0.07563036
48	0xbc4a74ed	-0.012356979
49	0xbdea72c6	-0.114476725
50	0x3e3469d8	0.17618501
51	0xbdebb17e	-0.11508463
52	0xbe109d00	-0.14122391
53	0x3d3b008e	0.045654826
54	0xbd99fedf	-0.07519316
55	0x3c807a32	0.015683267
56	0x3dde6c62	0.10860516
57	0xbd509846	-0.05092647
58	0x3d2a8364	0.04162921
59	0x3deff4a9	0.11716587
60	0xbe047e43	-0.1293879
61	0xbdfb12ef	-0.12259471
62	0x3dd2566b	0.10270389
63	0xbda40f45	-0.08010725
64	0x3d89aaff	0.06722068
65	0x3d26907e	0.040665142
66	0x3c8d50c4	0.017250426
67	0x3d47f6c3	0.048819315
68	0x3dabb598	0.08384246
69	0x3e50873d	0.2036409
70	0xbd2b087c	-0.04175614
71	0x3c01c796	0.00792112
72	0xbdf793fa	-0.12088771
73	0x3df11ec1	0.11773444
74	0x3da3b0c1	0.079926975
75	0x3d1d3871	0.038383905
76	0xbc276d90	-0.010218993
77	0xbe0c02e6	-0.1367298
78	0x3d0ad3ea	0.033893503
79	0x3d8508f3	0.064958476
80	0x3e29c6ca	0.16579738
81	0xbe43e316	-0.19129595
82	0xbdc9ca5f	-0.09853052
83	0xbddd47a7	-0.10804682
84	0x3e42f12c	0.19037312
85	0x3e319881	0.17343332
86	0xbe718692	-0.23586491
87	0x3dc69d27	0.09697943
88	0x3e040f70	0.12896514
89	0x3dd2608e	0.102723226
90	0xbe1a5cd3	-0.15074472
91	0x3daf8651	0.08570541
92	0xbcf0d0de	-0.02939647
93	0x3d07ad16	0.033124052
94	0x3d353dc2	0.04424835
95	0x3e3a80cd	0.18213196
96	0xbc842f83	-0.016135937
97	0x3daf98cc	0.085740656
98	0xbe31b8a3	-0.1735559
99	0xbe273511	-0.16328837
100	0x3d2afce0	0.041745067
101	0x3e46699c	0.19376224
102	0x3e40101f	0.1875615
103	0x3d46cc88	0.0485349
104	0x3e0fb07e	0.1403217
105	0xbdbe9c8b	-0.09307202
106	0x3c14c597	0.009080312
107	0xbde0a2dc	-0.10968563
108	0xbd975cd6	-0.07390754
109	0x3d0d0252	0.03442604
110	0xbe915faf	-0.28393313
111	0x3e787afc	0.24265665
112	0xbdf9ef44	-0.122038394
113	0xbd8b2826	-0.06794767
114	0x3b63c076	0.0034752167
115	0x3db63f31	0.088987716
116	0x3e0ab195	0.13544305
117	0x3cd334e2	0.025782052
118	0x3cd2eada	0.025746752
119	0x3e047f86	0.12939271
120	0xbdbcc92a	-0.092180565
121	0x3cd4eb5b	0.025991132
122	0xbd6ccdd1	-0.05781347
123	0xbdc22b28	-0.09480888
124	0xbdac2859	-0.08406133
125	0x3ddd67b4	0.108107954
126	0x3d6cc161	0.057801608
127	0xbe1ac58c	-0.1511442
128	0xbda0ac19	-0.07845325
129	0xbce2b7fc	-0.027675621
130	0xbbf4ee11	-0.007474669
131	0x3d04c558	0.032414764
132	0xbe0a5902	-0.13510516
133	0x3e7a8933	0.244664
134	0x3e88345e	0.26602453
135	0xbd5d2323	-0.053988587
136	0x3dbe7019	0.09298725
137	0x3c3609a3	0.011110696
138	0x3dd8da67	0.10588532
139	0xbdd48859	-0.10377569
140	0x3bab49a1	0.005227283
141	0xbbb48e5a	-0.0055101337
142	0xbdde92b8	-0.10867828
143	0xbd6cff63	-0.057860743
144	0xbe039d0f	-0.12852882
145	0x3dd0eff7	0.1020202
146	0x3e156a55	0.14591344
147	0x3d7ff87d	0.062492836
148	0x3c9f94e1	0.01948017
149	0xbe373649	-0.17891802
150	0x3cab1f2f	0.020888893
151	0xbe270f31	-0.16314389
152	0x3e1f48f4	0.15555173
153	0xbe0a3837	-0.13498007
154	0xbdd8a2ca	-0.105779245
155	0xbba4cc99	-0.0050292728
156	0x3e405219	0.18781318
157	0x3db39155	0.08767954
158	0xbe85255b	-0.26005062
159	0x3ce22ee8	0.027610257
160	0x3cbe8ab9	0.023259507
161	0xbe6c091d	-0.23050351
162	0xbd75f8c9	-0.060051713
163	0x3d5e8e84	0.054335132
164	0x3d4a75ca	0.04942874
165	0x3da2f8c8	0.079576075
166	0xbe94c8a4	-0.29059327
167	0x3d19494f	0.03742343
168	0x3e1f2c74	0.15544301
169	0x3dc1838d	0.094489194
170	0xbe220c9b	-0.15825121
171	0xba44e8c1	-0.00075114897
172	0xbe01d479	-0.12678708
173	0xbda8cd3d	-0.08242271
174	0xbe6f895b	-0.2339224
175	0x3df7f0e5	0.12106494
176	0x3d89bcbd	0.06725452
177	0x3e1e7ad9	0.1547655
178	0xbe153ae2	-0.14573243
179	0x3e10f75e	0.14156863
180	0xbe872f54	-0.26403296
181	0x3c2c55bc	0.010518488
182	0x3e212c0e	0.15739462
183	0xbdaaf16f	-0.08346831
184	0x3e835b83	0.25655755
185	0x3ad86979	0.0016510925
186	0xbe1605d9	-0.14650668
187	0x3da9466f	0.08265387
188	0x3d1025df	0.035192367
189	0xbdcc0de1	-0.09963585
190	0xbe406df8	-0.1879195
191	0xbd948386	-0.072516486
192	0xbd4fb70f	-0.050711688
193	0x3d41a892	0.0472799
194	0xbe4ecae7	-0.20194589
195	0x3d904cff	0.07045936
196	0xbbb7bcff	-0.005607247
197	0xbc9fa542	-0.01948798
198	0x3cb66ca9	0.02226861
199	0x3de1c5a2	0.110240236
200	0x3dbc77ef	0.09202563
201	0x3e026d61	0.12737037
202	0x3e0a693e	0.13516709
203	0x3e50c155	0.2038625
204	0xbe3374fd	-0.17525096
205	0xbd8f108f	-0.0698558
206	0x3e1b5b39	0.15171517
207	0xbd600b4a	-0.054698266
208	0x3db9c76c	0.0907124
209	0xbe15b5e3	-0.14620166
210	0xbd885d46	-0.066584155
211	0x3d378ae0	0.044810176
212	0x3dce72e4	0.100805074
213	0xbcf4abfb	-0.029867163
214	0xbe199288	-0.14997303
215	0xbce8bd69	-0.02841063
216	0x3d43786e	0.047722273
217	0xbe124d44	-0.14287287
218	0xbc4ce32b	-0.012505333
219	0x3d372365	0.04471149
220	0x3dfc098f	0.12306511
221	0xbb8b3707	-0.004248503
222	0xbe841081	-0.2579384
223	0x3e196c49	0.14982714
224	0x3d55214b	0.052033704
225	0x3e340660	0.17580557
226	0x3e24e312	0.16102245
227	0x3d00461e	0.03131687
228	0xbdfe86ba	-0.12428041
229	0xbe802b55	-0.2503306
230	0xbdb19073	-0.086701296
231	0x3c8aa891	0.016926082
232	0x3c74099e	0.014894871
233	0x3c8a5390	0.016885549
234	0x3de8eed9	0.113736816
235	0xbe383298	-0.1798805
236	0xbe04df70	-0.1297586
237	0x3d7d9047	0.06190517
238	0xbd83fa23	-0.06444194
239	0x3ddefbbb	0.108878575
240	0xbd4b9191	-0.04969937
241	0x3e402c26	0.18766841
242	0x3da9b7b6	0.08286993
243	0x3d8e748d	0.06955824
244	0xbd59dce3	-0.05318917
245	0xbe150279	-0.14551724
246	0xbde6159f	-0.11234593
247	0xbd43d29a	-0.047808267
248	0xbe82ab6a	-0.25521404
249	0xbcdde3da	-0.027086187
250	0xbbfa8780	-0.0076455474
251	0x3cf7f0ec	0.030266248
252	0x3d3146be	0.043280356
253	0x3d8c2a90	0.06844056
254	0x3d384dc5	0.04499604
255	0x3dc19820	0.09452844
