Assets/Resources/ONNX/SwordMLAgents_State_search.onnx (onnx, 23089 bytes, 6 tensors)

0.bias f4 [64]
000000 81 15 77 3e e8 f6 16 3d 96 2c d4 bd 62 c2 4b 3d
       0.24129297 0.036856562 -0.103600666 0.049745925
000010 88 64 1e 3d 4f 09 a8 bc a8 08 45 3d 8c 8e d4 bc
       0.038670093 -0.020512251 0.04810396 -0.025946878
000020 a0 03 49 3e 98 d4 99 3e 5e ab 68 3e 81 26 7f be
       0.19630289 0.3004501 0.22721621 -0.24917032
000030 ca c5 a8 3c e5 15 6e 3e ba 61 57 3e 7a 13 84 bd
       0.020602126 0.2325054 0.21033373 -0.06449027
000040 a1 e2 08 be d0 f2 9e 3d 9a 9d 0c bd 13 fd 2a 3e
       -0.13367702 0.077611566 -0.034329988 0.16698103
000050 a6 30 5f be 55 90 f8 bd 6e 47 32 be c8 d8 b3 3d
       -0.21795902 -0.12136904 -0.17410061 0.08781582
000060 74 a7 a5 3e cb 5c 25 3e 3c 3e fc 3d 0f c9 83 bd
       0.3235432 0.16148679 0.12316558 -0.06434833
000070 c7 d9 17 3e e1 f6 e8 3c 3e 8e 3a be 62 d9 02 3d
       0.14829169 0.028438034 -0.18218324 0.031945594
000080 46 fa 16 3e 9f d5 a9 3c 2e ae 67 bb 21 e3 2f 3e
       0.14743909 0.020731745 -0.0035351622 0.17176487
000090 12 b0 4e be e8 04 fa 3d d2 e3 b1 3c c5 59 a2 bb
       -0.20184353 0.12207967 0.021715079 -0.004954549
0000a0 5b 2b 94 bd 45 32 f3 bd ba 74 86 be 8d 1a 08 3e
       -0.07234832 -0.118748225 -0.2626093 0.13291378
0000b0 55 f4 9c bd 80 c0 38 be 80 a0 87 bd f2 8e 8d 3e
       -0.0766379 -0.18042183 -0.0662241 0.2764812
0000c0 b2 2c 20 be 8e 86 84 3d 66 67 bf bd b0 54 2b 3e
       -0.1564205 0.06470977 -0.093458936 0.16731524
0000d0 a8 e7 10 be 9a 99 92 3e d3 b7 d6 3c 49 87 06 bd
       -0.1415087 0.28632814 0.026210701 -0.03284386
0000e0 83 dd 50 3e e0 f9 f2 bd 45 ce be 3d 20 ae cb 3c
       0.20397 -0.11864066 0.093166865 0.024863303
0000f0 5e 0c 10 be 7b 3d 35 3d 07 d4 96 bd 7e ff f7 bd
       -0.14067218 0.044248085 -0.0736466 -0.12109278

2.bias f4 [64]
000000 db 20 17 bd db 82 e0 3c 41 6d ca bd c6 dc 59 3e
       -0.036896568 0.027406147 -0.0988412 0.21275625
000010 88 93 3d 3d 94 47 19 3b 5c 3f 94 3d 21 28 09 3c
       0.046283275 0.002338861 0.07238647 0.008371384
000020 b4 34 62 bd b1 95 b6 3d e1 3f 24 3e ea fc 3e bd
       -0.055226043 0.0891527 0.16039993 -0.046627916
000030 59 d7 8d 3d b7 58 d2 bd 52 eb 82 3d 88 70 ac 3d
       0.0692584 -0.10270827 0.0639254 0.08419901
000040 a5 70 b6 3d 72 1b 92 bd b5 4c 13 be b7 43 4d bc
       0.08908204 -0.07134141 -0.1438473 -0.0125283515
000050 ca 1b 07 3e 87 23 a6 3b 1b e8 aa 3d 72 6c 44 3d
       0.13194194 0.005070153 0.08345052 0.047954984
000060 da cb 93 bd 24 16 33 3d 71 53 0c 3e 20 41 02 be
       -0.07216616 0.043722287 0.13703705 -0.12720156
000070 2a 25 42 3d d9 c9 b3 bc 83 73 39 bd 8a 37 a2 bd
       0.047398724 -0.021946834 -0.045276176 -0.079207495
000080 15 d4 76 bd 72 7c e5 3c f3 5d 8e 3d b9 cf ac bd
       -0.06026085 0.028013442 0.06951513 -0.084380575
000090 57 46 1f 3e f0 a6 b9 3d ef 38 4b 3d aa 6d da bc
       0.15554176 0.09065044 0.049614843 -0.02666362
0000a0 b5 40 56 bc 75 3c 8f bd 48 0c 99 bd c9 c8 b3 3c
       -0.013076951 -0.06993953 -0.074730456 0.021946328
0000b0 39 8f 3e bd fe 31 e8 3d 30 93 c7 3b 9f a4 a0 bd
       -0.046523307 0.1133766 0.006090544 -0.07843899
0000c0 0f 4e 8e bd 13 d8 37 3c f9 36 c0 3c 60 bd 06 3e
       -0.06948482 0.01122095 0.023463713 0.13158178
0000d0 0e f2 3c bd eb 0e 99 bd 0d 35 01 3e dd 4d 40 be
       -0.04612928 -0.074735485 0.12617894 -0.18779702
0000e0 39 86 35 bc 41 5e 98 3d 88 e9 80 bd ba 63 f7 3c
       -0.011079364 0.074398525 -0.062945426 0.03019892
0000f0 88 8f 09 be 22 bb 1b bd 1d 19 92 bd c7 64 3d be
       -0.13433659 -0.03802026 -0.07133696 -0.18495475

4.bias f4 [6]
000000 44 17 8f 3d 12 16 04 3e 92 5b 1f 3e ab 7c 92 bd
       0.069868594 0.12899044 0.15562275 -0.07152685
000010 1b d4 a9 3c cc 95 c1 bd
       0.020731023 -0.094523996

onnx::MatMul_19 f4 [15, 64]
000000 7f 17 e9 bd 78 d5 09 bd b0 8d e0 3d 71 b0 f1 3d
       -0.11381435 -0.033650845 0.10964525 0.11801232
000010 e1 9e 3f 3c 60 a7 a1 be 1e 4a fa 3d 5f a6 96 3e
       0.0116955945 -0.3157301 0.12221168 0.29423806
000020 9c 66 27 be c8 52 38 3d 3b fc 27 3d ff bd 9b 3e
       -0.16347736 0.04500082 0.04101203 0.30418393
000030 9a 21 88 be 03 32 87 3c c6 20 c5 3d e7 76 c5 bc
       -0.26588136 0.01650334 0.09625392 -0.024104549
000040 6e 9b db 3c a1 03 04 3e d6 0e c0 bd 12 b2 70 be
       0.026807513 0.1289201 -0.0937783 -0.23505428
000050 09 91 07 bd 8a e4 28 be b9 c1 3b 3e c0 e5 12 bd
       -0.0330973 -0.1649343 0.18335618 -0.035863638
000060 46 bb 09 3d 89 14 d1 3d f3 4b 57 3e d0 8c 01 be
       0.033625863 0.10208995 0.21025066 -0.12651372
000070 26 ab 28 39 90 12 bf 3e 5c ef 8b 3c fc ab 36 3d
       0.00016085486 0.3731885 0.017081909 0.04459761
000080 17 25 06 3e 3a 16 83 be e8 40 07 be 07 2d d4 3e
       0.13100086 -0.25602895 -0.13208354 0.41440603
000090 4e 6d a7 3d 11 90 3e bc 2d 3c 57 bd 38 8d 93 bc
       0.08175145 -0.011631028 -0.052547622 -0.018011674
0000a0 58 6c ed 3d b4 eb cb 3c ed fa 2b 3e d0 e5 0e bd
       0.115929306 0.024892665 0.1679494 -0.034887135
0000b0 b8 3f 22 3e 38 f1 e3 be 7e fb b5 be 14 5b f8 3c
       0.1584462 -0.44519973 -0.35543436 0.030316867
0000c0 af fc ef be 2b de 39 3d de da c0 be 79 41 89 be
       -0.4687247 0.04537789 -0.37666982 -0.26807764
0000d0 98 e1 ca 3d b2 8a 1f be 24 ab 3f 3d bf fe 9b be
       0.0990631 -0.15580252 0.04679407 -0.30467793
0000e0 9c ee 1f 3e 27 3c 3c be f8 99 2f 3e 0d 1f cf 3d
       0.15618366 -0.18382321 0.17148578 0.10113344
0000f0 6d 13 b9 bb b1 db d9 bd b0 0c 16 be bb 5d 9f bd
       -0.0056480677 -0.10637606 -0.14653277 -0.077815495
000100 b9 ac a7 be e4 1b 90 be c6 ff a6 be c8 15 06 bf
       -0.32748964 -0.2814628 -0.32617015 -0.52376986
000110 b9 ed 31 bd 00 34 fd bd ad a4 b7 be 74 f4 fb bc
       -0.0434396 -0.12363434 -0.35867825 -0.030756213
000120 dd fd 51 bd 1a 96 90 3d cc ac a5 be a6 bb 9b bc
       -0.051267494 0.070598796 -0.32358396 -0.019010376
000130 c3 be c1 bd 8e a2 c8 3d 94 e9 96 be 3b 57 6f 3d
       -0.09460213 0.0979663 -0.2947508 0.0584328
000140 81 ff 1f 3e 8a 63 3d 3e 3a ba f4 bd ad f3 12 3e
       0.15624811 0.18495002 -0.119495824 0.14350767
000150 85 ee de bd 91 a4 7e bd db 52 9f bc 65 5f e4 3d
       -0.10885338 -0.06216866 -0.019448688 0.111510076
000160 af 2d f2 3d c0 34 ac 3d 5e 3e 2f 3d fe 80 a8 bd
       0.1182512 0.08408499 0.042784087 -0.08227728
000170 84 73 69 bc 63 20 b2 be 9e 10 85 3c ef 92 f0 bd
       -0.0142487325 -0.34790334 0.016243275 -0.11746775
000180 df cb f6 3d d7 ed 14 be 8e a8 b4 bd f6 5b 8d bd
       0.12050604 -0.14543854 -0.08821212 -0.06902306
000190 ef 7f 0d be 4e 48 be bc 22 b8 97 3e fc 19 94 3d
       -0.13818334 -0.023227837 0.2963267 0.072315186
0001a0 c2 a5 0a bf ed a2 2a be 9f 06 43 3c 89 e9 c8 3c
       -0.54159176 -0.16663714 0.011903434 0.02452542
0001b0 e9 96 f6 3d d9 1e 55 3d 47 ef 95 bb 7e 20 8e 3c
       0.120405026 0.05203137 -0.004575643 0.017349478
0001c0 48 fb 8c 3d 30 05 8c 3e 87 bf b9 bd 5d 3a a4 3e
       0.068838656 0.27347708 -0.09069734 0.32075778
0001d0 9c 51 67 3d c8 55 5b bd 47 82 26 bd 78 17 77 be
       0.056474313 -0.053548604 -0.040651586 -0.24130046
0001e0 7a 6c b9 3d e1 be 24 be ed 32 06 3e 47 e3 0f 3e
       0.090538934 -0.1608844 0.13105364 0.14051543
0001f0 3d d7 d6 bd 97 b3 31 3c 62 07 6e 3d 26 f1 b8 bc
       -0.10490272 0.01084604 0.05811251 -0.022575926
000200 bd 16 36 3f 81 2d 96 be e4 fc 02 3d e7 a1 8b be
       0.71128446 -0.29331592 0.031979457 -0.2727196
000210 21 b6 2a bc 7b 5c b8 3c e4 1a d8 3d 65 f7 16 3f
       -0.0104193995 0.022505036 0.10552004 0.58971244
000220 02 e4 bf 3c 46 45 d3 be 06 3b c9 be b9 21 12 bb
       0.023424152 -0.4126379 -0.39302844 -0.0022297932
000230 e2 9d 93 3e b4 09 d5 be 0c bb 34 3e fc f8 ea bb
       0.28831393 -0.41608965 0.17649478 -0.0071707945
000240 ac 4e 82 3e 38 92 bc 3d 2f 6c 32 3e 62 ff 7e 3e
       0.25450647 0.092075765 0.17424081 0.24902108
000250 e3 60 63 bd cf 60 72 3e 0a e9 9b 3e a2 8c e1 3e
       -0.05551232 0.23669742 0.30451232 0.44052607
000260 34 91 47 be de 28 f2 3e cf 4b 33 3e 5f 62 6a 3d
       -0.19488984 0.47296804 0.17509387 0.05722272
000270 0b eb 6c 3e d2 4c b4 3e 39 78 98 3e aa 91 e0 3d
       0.23136537 0.3521486 0.29779223 0.10965283
000280 4e 70 1c 3d 5b f3 06 3f 0c f6 c9 3e 65 59 ae 3e
       0.03819304 0.5271508 0.3944553 0.34052578
000290 0f 35 c3 3e 8f 0a 82 be 8d 26 6d be 83 d4 30 bf
       0.38126418 -0.2539868 -0.23159237 -0.6907427
0002a0 bf 94 06 3c 9c 5c 08 bf e0 dd 54 be f7 45 a6 bd
       0.008214175 -0.5326631 -0.20787764 -0.081188135
0002b0 18 53 b0 be f1 60 17 bf b8 e9 0f be 53 c7 75 be
       -0.34438396 -0.59132296 -0.14054 -0.24001817
0002c0 6f d9 24 bf 24 31 88 3e 41 19 89 bd 4c ed 13 be
       -0.6439428 0.2659999 -0.0669427 -0.1444599
0002d0 17 4a a0 bd 47 0a 1f 3e f6 b8 2c 3f e6 d8 e9 3b
       -0.078266315 0.15531264 0.6746973 0.007136452
0002e0 e8 02 5f be 5b dd b0 be d0 74 29 be 81 c6 d7 bd
       -0.21778452 -0.3454388 -0.16548467 -0.105359085
0002f0 6e 31 23 3f 4c 8a 3f be 6d 87 08 3f 0b a2 2c 3f
       0.637473 -0.187051 0.53331643 0.6743476
000300 b4 35 50 3e 8b 96 f0 be a8 20 00 be 31 41 03 be
       0.20332986 -0.46989855 -0.12512457 -0.12817837
000310 ee 65 ef be 76 12 b4 bc 30 65 13 bf 15 9b 28 3e
       -0.46757454 -0.02198146 -0.57576275 0.16465409
000320 97 34 0c bf 23 b1 1b 3e 2f aa 1d bf 52 43 7a 3e
       -0.54767746 0.15204291 -0.61587805 0.24439743
000330 9f 5a b1 bd 1f 79 2d 3d b0 93 9d be e8 ee dc 3d
       -0.08659863 0.04235184 -0.3077674 0.10787755
000340 9f d0 00 3f 92 5d 11 bf 1d 50 ea 3c 6e 8d 96 3e
       0.5031833 -0.567834 0.028602654 0.29404777
000350 77 bb 24 be 03 77 92 be df 01 2e 3d f9 e2 73 3e
       -0.16087137 -0.28606424 0.042482253 0.23817052
000360 10 51 a5 be d3 1e 8b 3e c4 24 85 3e 0c 6f 3e be
       -0.32288408 0.27171955 0.26004612 -0.18597049
000370 6f 6d 4e bf 22 41 d9 bd 3a f4 09 bf 84 d9 b0 be
       -0.8063573 -0.10608126 -0.53888285 -0.3454095
000380 36 ab f6 3e f3 48 80 3e ae 27 c1 3e ea c5 0b 3e
       0.481775 0.25055656 0.37725586 0.13649717
000390 2d c9 af 3c 93 b7 a8 3c 7f b0 e4 3b 73 04 5e be
       0.021458233 0.020595348 0.006979048 -0.21681385
0003a0 db f5 8c be d3 34 8c bd 52 9b d9 3e 63 83 ef 3e
       -0.27531323 -0.06846013 0.42501312 0.46779928
0003b0 fd aa 09 bf 80 cb 66 be 6c 09 6d be 6a 08 a2 be
       -0.5377653 -0.22538567 -0.23148125 -0.31647044
0003c0 5c ea 0e 3e d9 d9 21 3e 0d 34 2a bd 2f b1 fa 3c
       0.13956589 0.15805759 -0.041553546 0.030602066
0003d0 cf f1 0f 3f 2f d4 0c 3f 66 23 ec 3e 99 05 bd be
       0.56228346 0.55011266 0.46120757 -0.36918333
0003e0 d4 3e 26 3e d5 65 02 bf fb fb 49 3e 42 e6 2e bd
       0.16234905 -0.50936633 0.19725029 -0.04270006
0003f0 04 61 65 3e 7a dc ac be eb ae d1 3e df 24 04 be
       0.2240029 -0.3376196 0.40953764 -0.1290469

onnx::MatMul_20 f4 [64, 64]
000000 ae 02 4d 3c 78 ef d0 3d e8 dc 1d be af c9 25 3d
       0.012512846 0.10201925 -0.154163 0.040475544
000010 42 0d 18 3e 14 3e f4 ba 41 f6 ef bd 55 15 5d be
       0.14848807 -0.0018634223 -0.11716891 -0.21590169
000020 96 c4 69 be 28 d8 b0 bd ff b1 0e bd e6 40 f0 bd
       -0.22828898 -0.086349785 -0.03483772 -0.117311284
000030 1d dd ea bc 17 cc c4 bd 9d 63 33 be f2 38 3f 3d
       -0.028669888 -0.096092395 -0.17518468 0.046685167
000040 4e be ea 3d 4c cc 52 be e4 e8 ec bd 1d 9e 40 3d
       0.11462079 -0.20585746 -0.11567858 0.04702579
000050 20 02 5b 3d 32 f2 63 bd e1 10 27 3d fb 02 aa 3d
       0.053468823 -0.055650897 0.04078758 0.0830135
000060 3b b2 de 3d fb 28 1f be a8 bb d1 3d f3 d6 d9 bd
       0.108738385 -0.15542977 0.10240871 -0.106367014
000070 1e 6e e1 3d 62 a9 f3 3d 33 ac 51 be 22 dc a7 bc
       0.11007331 0.118975416 -0.20475845 -0.02049071
000080 cf 53 78 bc 32 8d 11 be 35 a5 62 be 5b 3d cc 3d
       -0.0151567 -0.14214018 -0.22133334 0.0997264
000090 2d 31 f0 3c 5b 4c fa bd 7f 0b 02 be 9d 8f ad 3d
       0.029320324 -0.12221595 -0.12699698 0.08474658
0000a0 36 53 2c 3d 58 a8 ff 3d 3e 34 a5 bb 52 d7 eb bd
       0.042071544 0.12483281 -0.005041628 -0.115156785
0000b0 6b 9d 2b be 82 c6 94 bd cf cf f2 3d ba 46 fe bd
       -0.16759269 -0.07264425 0.118560426 -0.12415834
0000c0 26 c4 8a 3d d6 51 01 3e ee a2 ce 3d 5f 74 29 3e
       0.067756936 0.12628874 0.1008967 0.16548298
0000d0 5c 4c 03 be 79 8d 1f be 16 5a 2b be 16 6f 17 be
       -0.12822098 -0.15581311 -0.16733584 -0.1478847
0000e0 cc 58 0f 3e c9 b0 23 3e b8 ac 2c be bf 1d 29 3e
       0.13998717 0.15985407 -0.16862762 0.16515253
0000f0 89 0e ed 3d 93 f0 39 bd 44 1c e2 bb e2 04 80 be
       0.11575038 -0.045395445 -0.006900342 -0.25003725
000100 26 cf d7 3d 95 a8 1c 3e 65 45 f2 bd f8 82 3d 3e
       0.10537557 0.15298684 -0.11829642 0.18506992
000110 56 91 50 3d 00 11 83 bd 3b 47 27 be 4c 8b 37 be
       0.050919853 -0.06399727 -0.16335766 -0.17924231
000120 ec a2 e9 3d 63 86 b5 ba d6 b5 c3 3d 11 1b d1 3d
       0.11408028 -0.0013849254 0.09556167 0.10210241
000130 fa 57 be 3c 33 55 04 bd f5 30 fe 3c 30 6e c6 3d
       0.02323531 -0.032307815 0.031029204 0.09688985
000140 91 ea 78 3e e3 2b 9e 3d cc cf 12 be 3c 51 99 3d
       0.2430823 0.077232145 -0.1433708 0.07486197
000150 e2 d4 53 3e 52 35 2e 3d 1d 64 50 3c c0 f4 94 3e
       0.20686677 0.04253132 0.012719181 0.2909298
000160 af f8 02 be 78 94 79 3d 55 9c 2f 3c 16 f0 64 be
       -0.12790178 0.060932606 0.010718425 -0.2235721
000170 21 84 88 be 38 18 a3 3d 2a 77 c0 bc 7f 97 f2 bd
       -0.26663306 0.07963604 -0.023494322 -0.11845302
000180 a0 5f 91 3d ff f7 5f 3e ce ca 1b be 6c 4e c5 bc
       0.07098317 0.21871947 -0.15214083 -0.024085246
000190 b7 0a 1e 3e d8 19 93 3c f6 02 71 3d 5c ff 90 bb
       0.15433775 0.01795666 0.058840714 -0.0044249725
0001a0 75 eb f1 bd 25 5e 95 bd ed 09 ed bd 5b d7 4c 3c
       -0.11812488 -0.07293347 -0.11574159 0.012502517
0001b0 b0 87 0c bd 56 f2 92 be f5 a7 d3 3b 7a 1f 7c be
       -0.03430909 -0.28700513 0.006459231 -0.24621382
0001c0 48 17 17 3e 81 8f fa bb b7 84 e8 bd d7 12 ad 3e
       0.14754975 -0.0076465015 -0.11353438 0.33803436
0001d0 86 ac d7 bc 79 9a 7d 3d 27 c3 1a 3d cd 49 54 be
       -0.026327383 0.061914895 0.037783768 -0.20731278
0001e0 c9 7b fb 3d d9 63 9c bd f4 c5 04 3d dd 75 3b bd
       0.122794695 -0.07636232 0.032415345 -0.0457667
0001f0 0d 92 c9 bc 2d ab d1 bd cf 56 08 be d7 39 43 bd
       -0.024605775 -0.10237727 -0.13314365 -0.047662582
000200 fd 1d bf 3d 6e bf 87 bd e7 98 20 bd 0f 6a f2 3d
       0.09331892 -0.06628309 -0.03920832 0.11836635
000210 dd 4b e3 3d de 1b 6e be 21 1a d3 bc a6 82 83 be
       0.11098454 -0.23252818 -0.025769295 -0.25685614
000220 fc 83 80 bd d1 dc cd 3d 28 33 75 3d f8 8a 8e bc
       -0.06275174 0.10051883 0.05986324 -0.01740025
000230 ae 6a 04 3d 2d bd 18 bd 35 49 09 be 1b ca 92 bd
       0.0323283 -0.037289787 -0.13406833 -0.07167455
000240 2c 57 09 3e 4d 2f 03 3e bf 6c c1 bd 9e 08 74 3d
       0.1341216 0.12811013 -0.0944457 0.05957853
000250 86 90 69 bd dd 87 0e bc 7e ed 75 3d 94 e5 c7 3d
       -0.057022594 -0.0086993845 0.060040943 0.097605854
000260 49 4a 9d bd 97 49 bc 3c cc 89 dc 3c fc 20 d3 bc
       -0.076801844 0.02298431 0.026921175 -0.025772564
000270 fd aa 3a 3d 91 15 4c 3e c9 13 25 3e ba 2d 75 bd
       0.045573223 0.19930102 0.16120829 -0.05985806
000280 ff 7c bf bd ed 74 5b bd 48 c7 d1 bc d4 fd f7 bd
       -0.09350013 -0.053578306 -0.02560772 -0.12108961
000290 0d e7 7b 3b 49 91 57 bc b1 b5 ae bd 75 a0 44 3c
       0.0038437278 -0.013157197 -0.08530749 0.012001147
0002a0 3a 62 38 be 43 0f 28 bd 7d 65 15 be e3 e0 84 3d
       -0.1800622 -0.04103018 -0.14589496 0.06488206
0002b0 01 78 e3 bc d2 05 8f bd 25 85 bf bc 8e 12 63 be
       -0.027767183 -0.06983532 -0.023378918 -0.22175047
0002c0 54 f9 c9 bd a1 87 3c bb 8a f3 08 3e d8 a3 11 3e
       -0.09862009 -0.0028767365 0.13374153 0.14222658
0002d0 4f f7 e0 3d e9 de 05 3e d8 dd 20 3e 61 62 6c bd
       0.1098467 0.13073315 0.15709627 -0.05771101
0002e0 bd cf 76 bb 84 08 b7 bc d3 3f a1 3d ec 43 ab 3d
       -0.0037660443 -0.022342928 0.07873502 0.083625644
0002f0 c7 77 fd 39 c8 e4 87 bd 49 55 54 3d ac 9c 3f be
       0.00048345161 -0.066354334 0.051839147 -0.1871211
000300 13 49 1d 3e d9 9a 08 bd 23 3b 6b be c6 f6 67 3e
       0.15359907 -0.0333508 -0.22971778 0.2265273
000310 fa 12 bf bd fa e2 f4 bd 0d 76 66 be 32 3a 86 be
       -0.09329791 -0.11957355 -0.2250597 -0.26216274
000320 07 43 bb 3d e8 6b b6 3d c4 dc 8e bd 7d 2c 8c 3d
       0.09143644 0.089073 -0.069757015 0.06844423
000330 2b c6 fe 3c 3b 6d 25 be 4a a5 5d bd 31 7d 21 3e
       0.031100353 -0.1615495 -0.05411271 0.15770413
000340 39 10 bc 3d 33 cc e9 3d 2a 10 85 bd 33 7d 01 3d
       0.09182782 0.11415901 -0.06497224 0.03161354
000350 b4 72 04 3e ec bd a8 3d 10 33 95 3d 21 93 71 3c
       0.12934381 0.0823935 0.0728513 0.014744551
000360 9c 73 d2 bd 85 c4 04 be f5 90 21 3e 9e c7 ab bd
       -0.10275957 -0.12965591 0.15777953 -0.08387683
000370 68 62 2a be 9f c2 2b 3e 06 45 3f 3e 49 06 f2 bd
       -0.16639102 0.16773461 0.18678674 -0.11817605
000380 ff e4 d6 bd ce d2 20 3e 08 e5 bd 3d cf 4d 48 be
       -0.10492896 0.15705416 0.092722 -0.19560932
000390 c4 e8 31 3c 29 16 d5 bd 3f 90 1b bd 7e a3 9a bc
       0.010858718 -0.10404617 -0.03797936 -0.018876787
0003a0 37 c3 48 be 07 29 06 be c5 82 12 be 7a 68 b0 3d
       -0.19605719 -0.13101588 -0.14307697 0.08613677
0003b0 99 55 7d 3d 8c 91 27 be 11 71 d8 3d da 04 b7 be
       0.06184921 -0.16364115 0.10568441 -0.3574589
0003c0 1f 7b cc 3d 68 74 f3 3c 46 3e d7 3c 67 5c 83 3e
       0.09984421 0.029718593 0.026274811 0.25656435
0003d0 71 61 b4 3d 4b 5c 94 3c ed 80 15 3e 66 65 87 be
       0.08807648 0.018110415 0.14599963 -0.26444548
0003e0 02 2e 84 bc 31 0c a2 bb 4e 74 b6 3d 61 35 95 bd
       -0.01613522 -0.004945301 0.08908902 -0.07285572
0003f0 60 fc 7c be 4c f4 36 bd 69 3f 84 bd bf f3 2e be
       -0.24705648 -0.044666573 -0.06457407 -0.1708517

onnx::MatMul_21 f4 [64, 6]
000000 b0 1d 09 3e 13 98 0c be 8a 02 52 bd e1 91 a4 bd
       0.13390231 -0.13729887 -0.051271953 -0.08035637
000010 0b 94 f3 bd 93 e0 df bd c1 25 50 be b1 fb 01 bd
       -0.11893471 -0.10931506 -0.20326902 -0.031734172
000020 5e 65 d1 3c cd 5b b3 bd 7a c7 cb bd 07 e8 33 3d
       0.025561031 -0.08757744 -0.099501565 0.04392245
000030 a0 ea 8f bd 17 2f 84 bb b0 64 83 bd 45 f3 bb 3b
       -0.07027173 -0.004033934 -0.06415689 0.005735787
000040 79 76 85 3e 51 08 04 3d e2 4a e2 bd 39 48 04 bd
       0.2606695 0.032234494 -0.11049439 -0.03229544
000050 5f fb 0e 3e 4f 4c d0 3d bd 9b 33 be 24 f2 03 bd
       0.13963078 0.10170805 -0.17539878 -0.032213345
000060 1d 9f d9 3d bb 83 05 be 1a 54 a1 bd 91 a3 8d 3d
       0.106260516 -0.13038532 -0.07877369 0.069159634
000070 d3 9c 8b bd de 19 d4 bb 77 59 32 3e 6c e1 ad 3d
       -0.06817021 -0.00647281 0.1741694 0.084902614
000080 a5 89 07 bd c4 3e 60 3d f0 c0 1b 3e bd f7 3a bb
       -0.033090252 0.054747358 0.15210319 -0.0028529011
000090 fd d5 be 3d d1 46 fd bc d0 c4 15 be b5 fa 7d 3e
       0.09318159 -0.030917557 -0.1462586 0.24802668
0000a0 79 b7 65 3d e3 fc 93 bd e4 c4 ca 3c d4 aa 1d bc
       0.056083176 -0.07225969 0.024752088 -0.009623248
0000b0 bd 8b ca bd f5 63 e0 bc 70 90 51 3e 17 52 9e bd
       -0.09889934 -0.027391413 0.20465255 -0.07730501
0000c0 30 e5 0a 3c 58 e7 80 3d 04 48 9f bc f7 e1 78 be
       0.008477494 0.06294125 -0.01944352 -0.24304949
0000d0 03 a4 30 3e 41 5b 68 3d 56 16 05 3e c8 5d 06 bd
       0.17250066 0.05672765 0.12996802 -0.03280428
0000e0 e3 02 18 3e b9 27 2c be 3d 08 ce 3c ce a0 07 be
       0.14844851 -0.16812028 0.025150413 -0.13244936
0000f0 2a d7 34 3e 53 7b 89 be 2b 39 44 3d a3 92 8a 3d
       0.17660204 -0.268519 0.047906082 0.0676625
000100 52 43 23 bd c6 e8 ff bc 25 42 88 bd 18 24 0b 3e
       -0.039859124 -0.031238925 -0.06653241 0.13587987
000110 fe 5c c0 3d 1f b3 0d be a8 03 4b 3e 94 7c 55 3d
       0.09392737 -0.1383786 0.19825613 0.05212076
000120 4b 10 0b 3e c4 cf 4f bd 29 c9 3c bd 83 e9 88 bc
       0.13580434 -0.05073525 -0.04609028 -0.01671291
000130 48 89 48 3e fd d0 89 bc b2 45 d3 bd db cf 10 be
       0.19583619 -0.016823286 -0.10316028 -0.1414179
000140 19 3a 06 bd 0e b7 02 3e 59 8a 8d 3e c5 4a a6 3d
       -0.03277025 0.12765142 0.27644613 0.0811973
000150 7b f5 03 3d e4 46 b8 bd 26 bd 22 3d 29 38 1a be
       0.03221653 -0.08997896 0.039731167 -0.15060486
000160 10 54 9c 3e f1 4c 46 3c 85 0f 03 bd 41 54 b4 3d
       0.30532885 0.012103305 -0.031997222 0.08805133
000170 72 da a7 3d 05 f6 47 be 34 16 91 be 43 74 a4 3d
       0.08195962 -0.19527443 -0.28337252 0.08029988
000180 be ab 38 bd 44 17 2c 3c 95 c2 a2 3d 09 d8 65 be
       -0.04508566 0.010503594 0.0794727 -0.22445692
000190 b8 bf a8 bd 30 11 ef 3d 65 df 9d bd d4 3f 1c 3e
       -0.082396924 0.116732 -0.07708625 0.15258723
0001a0 ca 83 aa 3c d4 90 75 be 23 c9 92 bd bf eb b1 bc
       0.020814795 -0.23981029 -0.0716727 -0.021718858
0001b0 fd ef 53 3c 1e fb 50 3b da 1c b1 bd b9 fc 16 3e
       0.012935636 0.0031887959 -0.08648081 0.14744844
0001c0 51 9e 49 3e d8 be 36 bc 7b 0d 5d 3e 5b d9 d0 bd
       0.19689299 -0.011153899 0.21587174 -0.10197707
0001d0 9a aa d0 3d 73 d1 12 be be 4e 8d bc fc a3 a0 bd
       0.1018879 -0.14337711 -0.017249461 -0.078437775
0001e0 33 c3 2f 3d 89 75 f6 bd c1 37 7f 3d 82 44 7b be
       0.042910766 -0.12034137 0.06230903 -0.24537852
0001f0 99 09 c7 bd 7d 52 24 be 3c 93 cf bd d4 f7 8a 3c
       -0.097186275 -0.16047092 -0.101355046 0.016963877
000200 8a ff 3a 3d 27 63 ac be 5b 25 d4 bd fc 80 45 bd
       0.045653857 -0.33669397 -0.103586875 -0.048218712
000210 4c ff 0d 3d 16 98 36 3c 86 f1 ff 3b 53 f7 eb bd
       0.0346673 0.011144659 0.0078107743 -0.11521783
000220 56 9c af 3d 22 a1 0f 3d 0a 9a c7 bd 50 b2 cb 3b
       0.085747406 0.035065778 -0.097461775 0.006216325
000230 51 02 28 3e 47 12 32 be eb eb 27 3d f4 96 08 3e
       0.16407134 -0.17389785 0.040996473 0.13338834
000240 2f c8 c2 3c 29 7a 22 bd 68 7b f7 bd fe 75 99 3e
       0.023777096 -0.039667282 -0.12084085 0.29972833
000250 c4 f6 38 3e d6 58 d8 bc e4 0c 14 bc db 97 f3 3b
       0.18062884 -0.026409548 -0.0090362765 0.007433874
000260 ae 00 a0 bd 5a 21 5d be e5 96 98 3e 2f 51 25 bd
       -0.0781263 -0.21594754 0.29802623 -0.040360626
000270 9d 46 31 bb 71 75 87 3c 61 b5 88 3d bc ea 41 bd
       -0.0027050145 0.016535493 0.0667522 -0.047343
000280 6c e7 53 be aa aa 81 3c 07 4b b2 bd 31 77 4e 3b
       -0.20693749 0.01582845 -0.087057166 0.003150415
000290 af 64 1a be 6e f4 3d 3e fc c7 ec 3c 5c af 3b bd
       -0.1507747 0.18550274 0.028903954 -0.045821533
0002a0 e8 56 cf bc 97 59 e4 bc c8 f1 88 bd f3 3f c3 3e
       -0.025309995 -0.027874751 -0.06686741 0.38134727
0002b0 58 de 95 ba 97 1c 08 3d 39 27 f5 bd 3d 9c 7f bd
       -0.0011434061 0.03323039 -0.11970372 -0.06240486
0002c0 41 3b c4 3a f6 d6 23 3e 41 5e 1c be 77 c5 56 3d
       0.0014971272 0.1599997 -0.1527033 0.05243441
0002d0 45 2a a9 bc 96 17 fe 3d d8 dc d8 3d a4 ca 6b be
       -0.020650038 0.124068424 0.105889976 -0.2302652
0002e0 bc a6 22 3c b8 7a 0a be 72 09 cd 3d 96 d6 85 bd
       0.009927448 -0.13523376 0.10011567 -0.0653507
0002f0 79 ac 02 be 95 fb 6f 3e 8f e8 65 3d 63 4d 1a bd
       -0.12761106 0.23435815 0.05612999 -0.037671458
000300 ae cc 78 be b0 ba 40 3d 0e 10 1f be a8 a1 95 bd
       -0.24296829 0.04705304 -0.15533468 -0.07306224
000310 a5 8b d0 3d c0 8e 16 3e 96 08 da bb 82 0c ac 3d
       0.10182885 0.14702892 -0.0066538556 0.08400823
000320 a7 8e 2d 3e 95 4a 8d be c7 14 e8 bd d6 81 97 3b
       0.16948949 -0.27595964 -0.11332088 0.004623632
000330 70 0b a5 bd f9 eb 64 bc 7e e7 9d bc e9 54 aa bd
       -0.08058822 -0.013972276 -0.019275423 -0.083169766
000340 f7 d2 35 3d f4 c6 09 be de 99 cf bc 0e 23 5e bd
       0.044390645 -0.13454801 -0.025341924 -0.05423265
000350 d9 8d 4e be 32 19 9e 3e 95 88 b4 3d 22 ae 7a 3d
       -0.20171298 0.30878597 0.088151135 0.061201222
000360 42 63 70 bc fd b0 9b bd 22 de ef 3d d9 87 b6 3d
       -0.014672102 -0.07602117 0.1171229 0.0891263
000370 3d dc c2 bd 19 c2 cb 3c fa bd 09 3e af 94 24 be
       -0.09514663 0.024872826 0.13451377 -0.16072343
000380 dc d0 84 3d fc 91 f1 bd 2a d3 08 3e 15 72 67 bd
       0.06485149 -0.117954224 0.13361803 -0.05650528
000390 00 da 88 bd 2c 41 c5 3c ae 89 ba bd 86 e3 fc bd
       -0.06682205 0.024078928 -0.091082916 -0.12348084
0003a0 ab 21 5f 3e ac bb 08 bd 3e e2 88 bd f6 fb 87 3d
       0.21790187 -0.033382103 -0.06683777 0.066398546
0003b0 5d b7 01 be c1 fd 92 3e 4a 6e c7 bd 31 3e 12 bd
       -0.12667604 0.28709224 -0.09737833 -0.03570384
0003c0 b1 03 62 bd 13 93 06 be 9d eb cc 3c 2d 78 47 3e
       -0.0551793 -0.13142042 0.025014693 0.19479437
0003d0 dc b1 32 3e a0 91 d4 3d 4e 99 98 bb 4d 5b 00 be
       0.1745066 0.10379338 -0.004656947 -0.12534828
0003e0 b5 b8 2b be 2d 56 60 3e ac 7b a0 3d 02 59 f5 3d
       -0.16769679 0.21907873 0.078360885 0.119798675
0003f0 33 73 8c 3d 27 bd b6 bc ef c9 02 bd 10 42 8e 3d
       0.0685791 -0.022306992 -0.03193086 0.06946194
