Assets/Resources/ONNX/SwordMan-3098.onnx (onnx, 82276 bytes, 7 tensors)

network_body.observation_encoder.processors.0.normalizer.running_mean f4 [12]
1.7613226 -7.0765667 44.507915 0.7802517 0.1581155 0.061310098 0.10325912 0.0
0.00032268473 0.00064536947 0.0 0.0
00000000: 0573 e13f 3c73 e2c0 1b08 3242 93be 473f
00000010: 08e9 213e 4c20 7b3d 8479 d33d 0000 0000
00000020: 032e a939 032e 293a 0000 0000 0000 0000

network_body._body_endoder.seq_layers.0.weight f4 [128, 12]
0.26600268 -0.06865276 0.0046652737 0.5922867 -0.09019481 -0.16354659 0.066412725 0.13947874
-0.18727438 0.5364329 0.23854846 0.5000653 0.031199623 0.10058311 -0.18809783 0.07218808
0.13892989 0.4532248 0.120526955 0.25906742 -0.2077741 -0.4581875 0.9874948 -0.18531299
0.11762272 0.4218626 -0.30313426 -0.30827522 -0.32351908 0.19990253 0.11858508 -0.47521183
-0.17002222 0.06871145 0.2609289 0.19990973 -0.10803859 0.1123711 0.09254416 0.12309263
0.033091452 -0.2835043 0.22193095 0.33050022 0.032178964 -0.3270693 -0.23319532 -0.035317663
-0.07845434 -0.21921729 -0.26221308 -0.12956767 0.12340874 0.09158713 0.0079552 0.44683766
-0.05525145 -0.10658622 -0.25806782 -0.3990447 0.037882186 0.33079186 0.12856576 0.28358877
-0.71072495 0.71156895 -0.25737572 -0.10585797 -0.20123947 -0.16334578 0.029357933 0.20663275
0.08232083 0.084886715 -0.10997418 -0.19538933 -0.46142745 -0.5703785 0.031657495 -0.29960606
-0.045955006 -0.32618818 0.029911365 -0.14938794 -0.05476944 0.25119087 -0.053727243 0.12214976
-0.20939939 -0.104095176 -0.087660246 0.215919 0.061839238 -0.29682136 -0.3931683 0.3553088
-0.25680837 0.26381752 -0.098304406 -0.15464045 -0.85751194 -0.063249975 0.3670146 -0.11382311
-0.5376902 -0.28269067 -0.2800394 0.0530526 -0.3066462 0.28093246 0.07461894 0.011377519
0.025387634 0.25099874 0.2866555 0.17521314 0.25443676 -0.08376097 -0.509624 -0.1859515
-0.15318465 -0.46879712 -0.5016622 0.48697296 0.1318189 -0.060928434 0.015311772 0.31373447
-0.07508963 -0.4292338 0.10716674 -0.35687023 -0.011644091 0.010125181 -0.0016434226 0.014228708
-0.2648936 0.15670405 -0.2536378 -0.03772606 -0.16422792 0.4835296 -0.21521391 -0.2836254
-0.045535512 0.17607409 0.2799766 0.078132056 -0.19439909 0.17443833 -0.5284296 -0.010758864
-0.27055717 -0.296788 -0.18054979 -0.27070832 0.011219688 0.07884644 0.17879747 0.22589286
0.08783061 -0.2927523 -0.34179738 0.01513383 -0.3333397 0.24875513 -0.110175565 -0.11896592
-0.047174443 -0.045599148 -0.2747045 -0.0125401905 -0.07357912 0.33891696 0.25303522 0.24080223
-0.12335827 0.25682804 0.26722097 0.075876005 0.3174318 -0.38275218 -0.42776987 0.13936949
0.11850495 0.21669324 -0.091758884 0.028902387 -0.72621626 -0.21816392 0.073592186 0.038306642
-0.025440432 -0.2899731 -0.45159003 0.13172147 -0.061400235 -0.5787558 0.033329397 -0.23046549
-0.30027002 -0.3167532 0.04610336 0.048541084 0.47281483 0.26430616 -0.22715592 -0.2872047
-0.056665752 0.0039310907 -0.540121 -0.32114825 0.51394457 0.11073507 0.30777952 -0.38102004
0.18510431 -0.38523293 -0.23245315 0.23738977 -0.29352078 -0.34555277 0.38620767 -0.06398334
-0.057947293 0.11121465 0.2314168 -0.24611531 -0.07160297 -0.0070287664 -0.016139043 0.04442651
-0.35334834 -0.040407408 -0.30693635 0.005760151 0.29979926 0.33237526 -0.3178405 0.1901504
-0.40639803 -0.027124342 -0.26802504 0.6915737 0.02638017 0.28223446 0.039454315 0.22785805
-0.29676333 0.069700144 -0.19122253 -0.34216508 -0.4468274 -0.21631448 0.17481254 -0.31401694
00000000: 8131 883e d199 8cbd 27df 983b 1aa0 173f
00000010: 0eb8 b8bd c278 27be 6503 883d 84d3 0e3e
00000020: dbc4 3fbe ab53 093f 0c46 743e 4804 003f
00000030: 5a96 ff3c 84fe cd3d b89c 40be 58d7 933d
00000040: a343 0e3e 150d e83e d6d6 f63d 7ca4 843e
00000050: bcc2 54be 8d97 eabe 76cc 7c3f b0c2 3dbe
00000060: 2ee4 f03d 60fe d73e 6a34 9bbe 40d6 9dbe
00000070: 4ba4 a5be 40b3 4c3e bcdc f23d f74e f3be
00000080: 4e1a 2ebe 97b8 8c3d 7998 853e 23b5 4c3e
00000090: 5643 ddbd d222 e63d cb87 bd3d fd17 fc3d
000000a0: e78a 073d 7a27 91be de41 633e 5337 a93e
000000b0: 17ce 033d a175 a7be c1ca 6ebe 41a9 10bd
000000c0: abac a0bd 7f7a 60be cb40 86be 63ad 04be
000000d0: b9bd fc3d 0992 bb3d 8756 023c e8c7 e43e
000000e0: 584f 62bd e049 dabd 7721 84be 964f ccbe
000000f0: 5a2a 1b3d 8d5d a93e bea6 033e 8c32 913e
00000100: 12f2 35bf 6229 363f c0c6 83be 10cc d8bd
00000110: b811 4ebe 1e44 27be 0c80 f03c 8997 533e
00000120: d397 a83d 16d9 ad3d 253a e1bd 2414 48be
00000130: 3840 ecbe 5304 12bf 4aab 013d f765 99be
00000140: 513b 3cbd 2302 a7be ae08 f53c 27f9 18be
00000150: ec55 60bd 179c 803e 1911 5cbd a729 fa3d
00000160: cb6c 56be da2f d5bd 3787 b3bd df19 5d3e
00000170: 244b 7d3d f8f8 97be 5b4d c9be 09eb b53e
00000180: 637c 83be 1713 873e d253 c9bd 115a 1ebe
00000190: e785 5bbf 3489 81bd 56e9 bb3e 171c e9bd
000001a0: 11a6 09bf d5bc 90be 5361 8fbe af4d 593d
000001b0: bb00 9dbe 61d6 8f3e d1d1 983d c668 3a3c
000001c0: baf9 cf3c e882 803e 82c4 923e 136b 333e
000001d0: 8945 823e df8a abbd b876 02bf 126a 3ebe
000001e0: 70dc 1cbe 2d06 f0be ef6c 00bf 8554 f93e
000001f0: 89fb 063e 1890 79bd 3ade 7a3c cea1 a03e
00000200: 98c8 99bd 88c4 dbbe 3c7a db3d b2b7 b6be
00000210: dcc6 3ebc 16e4 253c 1d68 d7ba 871f 693c
00000220: 22a0 87be 0777 203e d0dc 81be a486 1abd
00000230: 5d2b 28be 3191 f73e 0961 5cbe 5937 91be
00000240: 7283 3abd c44c 343e 1859 8f3e b303 a03d
00000250: 8e10 47be f69f 323e 2a47 07bf f245 30bc
00000260: 7886 8abe 99f4 97be 0be2 38be 489a 8abe
00000270: c8d2 373c 3e7a a13d af16 373e 7550 673e
00000280: 89e0 b33d a1e3 95be 1100 afbe e2f3 773c
00000290: 80ab aabe aab9 7e3e baa3 e1bd 67a4 f3bd
000002a0: fd39 41bd 2cc6 3abd 11a6 8cbe 5f75 4dbc
000002b0: a6b0 96bd 8686 ad3e d58d 813e dc94 763e
000002c0: 43a3 fcbd f77e 833e 30d1 883e e164 9b3d
000002d0: 6c86 a23e 18f8 c3be a704 dbbe e0b6 0e3e
000002e0: b9b2 f23d d5e4 5d3e 15ec bbbd b3c4 ec3c
000002f0: 4fe9 39bf 5d66 5fbe 80b7 963d 6de7 1c3d
00000300: 7468 d0bc 5b77 94be cf36 e7be fee1 063e
00000310: d07e 7bbd 5729 14bf 6884 083d 25ff 6bbe
00000320: febc 99be 7a2d a2be e0d6 3c3d 04d3 463d
00000330: c914 f23e 2353 873e 909b 68be 7f0c 93be
00000340: 591a 68bd 61d0 803b 5f45 0abf 8b6d a4be
00000350: df91 033f 12c9 e23d 4795 9d3e 0f15 c3be
00000360: fc8b 3d3e 403d c5be 3308 6ebe 4e16 733e
00000370: 5b48 96be 4bec b0be 03bd c53e b309 83bd
00000380: 245a 6dbd 82c4 e33d 87f8 6c3e a705 7cbe
00000390: 94a4 92bd 9151 e6bb 0736 84bc 92f8 353d
000003a0: 13ea b4be 3d82 25bd c326 9dbe a6bf bc3b
000003b0: 4a7f 993e 172d aa3e fdbb a2be c9b6 423e
000003c0: 6713 d0be de33 debc 943a 89be f90a 313f
000003d0: 3a1b d83c 0981 903e d99a 213d 9f53 693e
000003e0: 5df1 97be f3be 8e3d d7cf 43be 4330 afbe
000003f0: 90c6 e4be 8b81 5dbe 0f02 333e d4c6 a0be

network_body._body_endoder.seq_layers.0.bias f4 [128]
0.0 0.0 0.0 0.0 0.0 0.0 0.0 0.0
0.0 0.0 0.0 0.0 0.0 0.0 0.0 0.0
0.0 0.0 0.0 0.0 0.0 0.0 0.0 0.0
0.0 0.0 0.0 0.0 0.0 0.0 0.0 0.0
0.0 0.0 0.0 0.0 0.0 0.0 0.0 0.0
0.0 0.0 0.0 0.0 0.0 0.0 0.0 0.0
0.0 0.0 0.0 0.0 0.0 0.0 0.0 0.0
0.0 0.0 0.0 0.0 0.0 0.0 0.0 0.0
0.0 0.0 0.0 0.0 0.0 0.0 0.0 0.0
0.0 0.0 0.0 0.0 0.0 0.0 0.0 0.0
0.0 0.0 0.0 0.0 0.0 0.0 0.0 0.0
0.0 0.0 0.0 0.0 0.0 0.0 0.0 0.0
0.0 0.0 0.0 0.0 0.0 0.0 0.0 0.0
0.0 0.0 0.0 0.0 0.0 0.0 0.0 0.0
0.0 0.0 0.0 0.0 0.0 0.0 0.0 0.0
0.0 0.0 0.0 0.0 0.0 0.0 0.0 0.0
00000000: 0000 0000 0000 0000 0000 0000 0000 0000
00000010: 0000 0000 0000 0000 0000 0000 0000 0000
00000020: 0000 0000 0000 0000 0000 0000 0000 0000
00000030: 0000 0000 0000 0000 0000 0000 0000 0000
00000040: 0000 0000 0000 0000 0000 0000 0000 0000
00000050: 0000 0000 0000 0000 0000 0000 0000 0000
00000060: 0000 0000 0000 0000 0000 0000 0000 0000
00000070: 0000 0000 0000 0000 0000 0000 0000 0000
00000080: 0000 0000 0000 0000 0000 0000 0000 0000
00000090: 0000 0000 0000 0000 0000 0000 0000 0000
000000a0: 0000 0000 0000 0000 0000 0000 0000 0000
000000b0: 0000 0000 0000 0000 0000 0000 0000 0000
000000c0: 0000 0000 0000 0000 0000 0000 0000 0000
000000d0: 0000 0000 0000 0000 0000 0000 0000 0000
000000e0: 0000 0000 0000 0000 0000 0000 0000 0000
000000f0: 0000 0000 0000 0000 0000 0000 0000 0000
00000100: 0000 0000 0000 0000 0000 0000 0000 0000
00000110: 0000 0000 0000 0000 0000 0000 0000 0000
00000120: 0000 0000 0000 0000 0000 0000 0000 0000
00000130: 0000 0000 0000 0000 0000 0000 0000 0000
00000140: 0000 0000 0000 0000 0000 0000 0000 0000
00000150: 0000 0000 0000 0000 0000 0000 0000 0000
00000160: 0000 0000 0000 0000 0000 0000 0000 0000
00000170: 0000 0000 0000 0000 0000 0000 0000 0000
00000180: 0000 0000 0000 0000 0000 0000 0000 0000
00000190: 0000 0000 0000 0000 0000 0000 0000 0000
000001a0: 0000 0000 0000 0000 0000 0000 0000 0000
000001b0: 0000 0000 0000 0000 0000 0000 0000 0000
000001c0: 0000 0000 0000 0000 0000 0000 0000 0000
000001d0: 0000 0000 0000 0000 0000 0000 0000 0000
000001e0: 0000 0000 0000 0000 0000 0000 0000 0000
000001f0: 0000 0000 0000 0000 0000 0000 0000 0000

network_body._body_endoder.seq_layers.2.weight f4 [128, 128]
0.032002624 0.050717425 -0.025314646 0.031491257 0.035391495 0.032230828 -0.043441094 0.05140852
0.019263003 -0.22482345 -0.13724604 -0.02924099 -0.14594708 0.10267754 0.11133295 -0.05730069
0.010332416 -0.08044911 0.084032066 -0.059394497 0.046410248 0.06855544 0.08728191 -0.06973924
-0.18879399 0.07092566 0.037987582 -0.030398197 -0.23870514 0.11857275 0.018081622 -0.10984069
-0.07683498 0.12470317 -0.072796285 0.09763306 -0.051180672 0.05595679 -0.09492494 0.04431714
-0.014925183 0.08319521 -0.19919114 -0.0062538055 0.014131445 0.12367187 -0.08078717 -0.01323825
-0.007760407 0.020887539 -0.056121767 -0.03501636 0.045348935 0.041650303 0.062086765 -0.055747576
-0.085613884 0.084101506 -0.053003058 -0.09321683 -0.10576687 -0.03607072 -0.005379679 -0.25801125
0.15210006 0.09733156 0.10846503 0.15458138 0.20874764 0.10007594 0.04919261 -0.065136135
-0.1594345 0.08260512 -0.1553478 -0.10596393 0.13897371 -0.15549845 0.13056678 0.04322755
0.084547766 0.069545634 0.07445949 -0.08513555 0.02093077 0.14180528 -0.11419573 0.13499129
0.002493128 0.07011744 -0.07986572 -0.07489077 -0.11838576 -0.037659954 -0.17281936 0.038904358
-0.0074805766 0.073318146 0.014773698 -0.18435667 -0.078162074 0.07244095 0.07429415 0.09964088
0.06572379 0.04565417 -0.07321564 0.05353225 -0.006123192 -0.20669185 0.11505439 0.111165285
-0.093880594 -0.030993512 0.021537615 -0.115486525 -0.079291895 -0.2043284 -0.03436444 0.0057799807
0.07529939 -0.054735962 -0.12347742 -0.11775502 -0.13031659 0.040041246 -0.13044119 0.0681073
-0.044595502 0.05412002 -0.13749605 0.042762667 -0.124679185 -0.121310115 0.05736135 -0.1522883
-0.056906547 0.036560465 0.027214577 -0.05608323 -0.055670716 -0.02080072 0.035901234 0.11850788
0.031855058 -0.25183976 0.007339509 -0.09837019 0.05837814 -0.037039485 0.053844504 0.06828158
-0.09043249 0.049540117 0.009814013 0.051318508 -0.029783744 0.056061823 -0.07531404 -0.05102437
-0.0439513 -0.0074159666 0.070638336 0.024067065 -0.034766715 -0.063602835 -0.028729098 -0.035886984
-0.060816944 0.0970472 -0.1192495 0.049522057 0.046791624 -0.06176914 -0.08922805 0.033995736
0.03226037 -0.0015878262 -0.030748459 -0.017459985 -0.059989795 0.103549734 0.017794255 0.036841404
-0.03672734 -0.027259551 0.17418571 0.045134712 0.19125095 -0.064993255 0.059958685 0.13918543
0.02626566 -0.08968181 -0.10484467 -0.022838905 0.027459543 0.2395337 0.20206872 0.009348264
0.070305414 0.052593127 0.08702204 -0.10817688 -0.10454111 -0.023352187 -0.061344236 0.037736677
0.026328899 -0.17321116 -0.019710472 0.050108857 0.122816935 -0.016038332 -0.0118453335 0.19335498
0.06323044 0.015082966 -0.071980454 -0.047784753 -0.046013683 0.061739147 -0.047630206 -0.09724693
-0.070557185 -0.15533227 0.050387572 -0.07040957 -0.05486529 0.124762215 0.053227976 0.0657607
0.12422451 0.07336276 -0.06463045 -0.015304448 -0.15001038 -0.06318809 -0.17899066 -0.0003908576
0.04955284 -0.033723846 0.050887283 -0.22112721 -0.0359566 -0.031519923 -0.05689263 -0.0049270964
-0.13836187 0.024016872 -0.022947857 -0.0075403247 0.04736831 -0.07604344 0.0009035155 0.004307607
00000000: 2f15 033d 13bd 4f3d a960 cfbc fafc 003d
00000010: acf6 103d 7904 043d 4aef 31bd be91 523d
00000020: 72cd 9d3c 1e38 66be 3a8a 0cbe cd8a efbc
00000030: 2773 15be 9a48 d23d 8802 e43d 21b4 6abd
00000040: 4b49 293c 81c2 a4bd 0119 ac3d a547 73bd
00000050: ac18 3e3d cb66 8c3d dcc0 b23d 72d3 8ebd
00000060: 3653 41be 7941 913d de98 1b3d a405 f9bc
00000070: 1f6f 74be 45d6 f23d e91f 943c 28f4 e0bd
00000080: a85b 9dbd 6064 ff3d 3816 95bd d7f3 c73d
00000090: d3a2 51bd f232 653d 0268 c2bd e485 353d
000000a0: c188 74bc 4062 aa3d c3f8 4bbe b9ec ccbb
000000b0: 9487 673c ad47 fd3d be73 a5bd 3fe5 58bc
000000c0: 034b febb 581c ab3c f0df 65bd 516d 0fbd
000000d0: cebf 393d 8299 2a3d b14e 7e3d 9257 64bd
000000e0: 5556 afbd 693d ac3d bc19 59bd 77e8 bebd
000000f0: 4d9c d8bd e4be 13bd 0548 b0bb 0d1a 84be
00000100: 1ec0 1b3e c555 c73d ea22 de3d 954a 1e3e
00000110: f1c1 553e 9df4 cc3d 317e 493d 1866 85bd
00000120: cc42 23be e02c a93d 7e13 1fbe 9e03 d9bd
00000130: 204f 0e3e fc3a 1fbe 4cb3 053e 5f0f 313d
00000140: 6127 ad3d f16d 8e3d 387e 983d 8c5b aebd
00000150: 0277 ab3c 6735 113e 73df e9bd 283b 0a3e
00000160: bf63 233b bb99 8f3d a390 a3bd 5560 99bd
00000170: 3c74 f2bd 5341 1abd 8ff7 30be 2d5a 1f3d
00000180: a01f f5bb d327 963d 610d 723c ffc7 3cbe
00000190: 7013 a0bd ec5b 943d 8827 983d 8510 cc3d
000001a0: 329a 863d deff 3a3d 15f2 95bd a244 5b3d
000001b0: 0fa5 c8bb 07a7 53be a3a1 eb3d a0aa e33d
000001c0: 7844 c0bd 1be6 fdbc a76f b03c 3384 ecbd
000001d0: ca63 a2bd 773b 51be bac1 0cbd fe65 bd3b
000001e0: 9136 9a3d d132 60bd bbe1 fcbd 8b29 f1bd
000001f0: b671 05be 4a02 243d 6092 05be d77b 8b3d
00000200: c6a9 36bd f4ac 5d3d c4cb 0cbe e827 2f3d
00000210: cd57 ffbd 7071 f8bd bcf3 6a3d 77f1 1bbe
00000220: d716 69bd 6dc0 153d 1bf1 de3c 87b7 65bd
00000230: fa06 64bd 4666 aabc 2c0d 133d 42b4 f23d
00000240: 737a 023d 24f1 80be 4480 f03b 4f76 c9bd
00000250: eb1d 6f3d b7b6 17bd 0e8c 5c3d 37d7 8b3d
00000260: ab34 b9bd 94ea 4a3d f4ca 203c 5b33 523d
00000270: 0afd f3bc 15a1 653d 3f3e 9abd eefe 50bd
00000280: 4706 34bd a301 f3bb d5aa 903d 4b28 c53c
00000290: 8b67 0ebd 3442 82bd 4959 ebbc 3bfe 12bd
000002a0: 301b 79bd afc0 c63d 1539 f4bd a4d7 4a3d
000002b0: 93a8 3f3d a301 7dbd 32bd b6bd 1d3f 0b3d
000002c0: 7323 043d 9b1e d0ba 31e4 fbbc 3e08 8fbc
000002d0: dcb7 75bd e211 d43d 42c5 913c 03e7 163d
000002e0: 686f 16bd 6c4f dfbc bd5d 323e 2ddf 383d
000002f0: 4ad7 433e 2f1b 85bd 3d97 753d a086 0e3e
00000300: 152b d73c 19ab b7bd cdb8 d6bd a818 bbbc
00000310: d6f2 e03c 5248 753e 1aeb 4e3e 7629 193c
00000320: 49fc 8f3d e46b 573d 9c38 b23d d78b ddbd
00000330: a619 d6bd 164d bfbc 1844 7bbd c691 1a3d
00000340: b4af d73c 445e 31be db77 a1bc f23e 4d3d
00000350: 7287 fb3d d262 83bc ee12 42bc d9fe 453e
00000360: f67e 813d 8b1e 773c 7d6a 93bd f2b9 43bd
00000370: d878 3cbd 30e2 7c3d e417 43bd 6629 c7bd
00000380: 4980 90bd 6c0f 1fbe 3363 4e3d e532 90bd
00000390: 6dba 60bd 5583 ff3d 9405 5a3d 8cad 863d
000003a0: 6b69 fe3d 373f 963d f85c 84bd 82bf 7abc
000003b0: 529c 19be c268 81bd 5449 37be 05ec ccb9
000003c0: ebf7 4a3d 0422 0abd 2f6f 503d 2c6f 62be
000003d0: 3a47 13bd 091b 01bd 3f08 69bd 7b73 a1bb
000003e0: bcae 0dbe 08bf c43c 25fd bbbc d414 f7bb
000003f0: 4605 423d aabc 9bbd e6d9 6c3a d426 8d3b

action_model._discrete_distribution.branches.0.weight f4 [8, 128]
0.0015408181 0.02121905 -0.019292153 0.00097233866 0.023828926 -0.008445558 -0.014846946 0.0052200328
-0.007104145 0.018045666 -0.0025129307 0.009348424 0.004872896 -0.007902547 0.004983859 0.010249066
-0.012013519 -0.007206102 -0.0020838352 -0.0067986385 -0.005164769 -0.0101730935 0.0077147144 -0.005090378
-0.0017629756 -0.013095841 0.0059402287 0.007352418 -0.0077425726 0.0063102036 0.0015505657 -0.001700844
-0.0077324035 -0.02189097 0.010523084 -0.009428068 -0.008177976 -0.009926739 0.006732367 -0.01053781
0.020767944 0.007628047 -0.013575025 -0.020182196 -0.0010384186 -0.008267593 -0.022388 -0.012134156
-0.008895233 -0.0001347048 -0.0019174217 0.007184478 0.005325705 0.0023460346 0.004815282 0.005808196
-0.0032774264 0.0051223473 -0.00613421 0.013238515 -0.010110958 0.0083940355 -0.011695631 -0.009989855
0.0025479333 -0.010379558 0.0010917927 0.010660608 -0.027268082 -0.0044575157 -0.002784716 -0.007764429
-0.007737681 0.005711678 0.0031100884 -0.006660188 -0.0051759286 0.021167604 -0.0016225384 -0.003408656
-0.008053704 0.0051671956 -0.003926821 0.0023126525 0.0036164138 0.009831202 -0.007174898 0.010412549
0.003950577 -0.011762358 -0.013161282 0.00089701544 0.004044817 -0.008874683 0.0062228534 -0.018720454
-0.0029167384 -0.014678897 -0.008075495 0.003155401 -0.0066046626 0.017242733 -0.0037048168 0.0051178006
0.00884164 0.0027614243 0.019210696 -0.009208365 0.003869698 0.0024510815 0.008356897 0.011689497
0.015430522 -0.0069560283 0.0065047904 -0.0025332593 -0.007815511 0.0018834987 0.0052188803 -0.0037426807
0.020190876 -0.004208715 -0.0012004805 -0.0058006025 -0.006479 -8.562171e-05 0.0017169275 0.014216678
0.03354687 0.030109955 0.0020235751 -0.007966561 -0.0009484961 0.00011045156 -0.0063941516 -0.0029338647
-0.004523897 -0.0078028613 -0.00360962 0.0010050664 0.01080235 -0.003398335 -0.0051269974 -0.004812921
0.0020345587 7.6197575e-05 -0.007757127 0.012467519 -0.0012535386 0.0014255116 0.0008674615 -0.009556506
-0.013954085 0.0016323725 0.01424315 0.00030886952 0.009863674 0.0004212452 0.0030422343 0.010990667
-0.013257988 0.009040926 -0.012206717 -0.005706665 5.8290596e-05 -0.0029081914 -0.009711394 0.0043834285
-0.012979105 0.0054896185 -0.00047831188 0.010227187 -0.007012897 -0.0064492486 0.0011288257 -0.0038760614
-0.0033066217 -0.0002929539 -0.023232548 0.002945585 -0.016418705 -0.00968513 0.0024786831 0.0013410008
0.0125351045 -0.0113177905 0.003665039 -0.0149949035 -0.0053281914 -0.0007968068 0.009517486 0.006427303
0.001884434 0.007132277 0.005292977 0.0038582776 -0.00074702536 -0.008764457 -0.014301496 -0.0023965032
0.0071055666 -0.01579998 0.0031542385 0.009785521 -0.020202277 0.0132670915 -0.000749081 -0.017925784
-0.002967443 -0.010140194 -0.00422846 0.0059760767 -0.0012135679 0.008396075 0.00012389863 -0.0057050562
-0.008792789 0.005636207 -0.0117550045 -0.009623869 0.0027589672 0.00648029 -0.014515533 -0.015189499
-0.0069941827 -0.008201664 0.0063616484 0.0010934215 -0.0035398472 0.007287187 -0.012223738 0.0049122022
-0.008873574 0.014051898 0.0032852024 0.010652125 0.001326417 0.0026273362 -0.006055734 -0.016528578
-0.0108410735 -0.012861177 -0.010311657 0.010833255 0.008606975 0.011982891 -0.013791773 -0.0025284884
0.015410431 -0.001956196 -0.012310373 -0.006181823 0.0041353977 0.0017863117 -0.007874445 0.0018991185
00000000: 47f5 c93a 93d3 ad3c 940a 9ebc 8be4 7e3a
00000010: e134 c33c 3d5f 0abc 9b40 73bc cf0c ab3b
00000020: e3c9 e8bb 81d4 933c fbaf 24bb 222a 193c
00000030: d0ac 9f3b af79 01bc a44f a33b b3eb 273c
00000040: 5ad4 44bc 2a21 ecbb f490 08bb 1dc7 debb
00000050: 393d a9bb 0cad 26bc b7cb fc3b 30cd a6bb
00000060: a513 e7ba f08f 56bc 40a6 c23b 8dec f03b
00000070: 68b5 fdbb d3c5 ce3b 5a3c cb3a dbee deba
00000080: 1a60 fdbb b154 b3bc 0369 2c3c 2f78 1abc
00000090: ebfc 05bc c3a3 22bc 309b dc3b c7a6 2cbc
000000a0: 8921 aa3c b2f4 f93b c869 5ebc 2255 a5bc
000000b0: 8c1b 88ba cc74 07bc 0a67 b7bc 57ce 46bc
000000c0: 50bd 11bc 8b3f 0db9 ff51 fbba c56b eb3b
000000d0: 4083 ae3b eebf 193b 83c9 9d3b ae52 be3b
000000e0: 17ca 56bb 5dd9 a73b 7c01 c9bb 5be6 583c
000000f0: 6ea8 25bc 2387 093c 089f 3fbc 7dac 23bc
00000100: 3afb 263b 060f 2abc 7c1a 8f3a d5a9 2e3c
00000110: 5061 dfbc 5a10 92bb c87f 36bb c06c febb
00000120: 5f8c fdbb 0729 bb3b a0d2 4b3b b53d dabb
00000130: d69a a9bb af67 ad3c 5bab d4ba c263 5fbb
00000140: aff3 03bc 9451 a93b 90ac 80bb df8f 173b
00000150: 5b01 6d3b 0d13 213c 681b ebbb 6599 2a3c
00000160: d873 813b e8b6 40bc 6ba2 57bc b025 6b3a
00000170: 628a 843b 1e67 11bc 14e9 cb3b a35b 99bc
00000180: c026 3fbb c27f 70bc 154f 04bc d8ca 4e3b
00000190: ed6b d8bb a240 8d3c 83cc 72bb 39b3 a73b
000001a0: 87dc 103c 03f9 343b c05f 9d3c afde 16bc
000001b0: c29a 7d3b 53a2 203b 5eeb 083c 4e85 3f3c
000001c0: 4dd0 7c3c 65ef e3bb 2326 d53b 0a05 26bb
000001d0: a10c 00bc bbdf f63a 2403 ab3b c347 75bb
000001e0: 5667 a53c 43e9 89bb 7159 9dba fb12 bebb
000001f0: cb4d d4bb ce8f b3b8 870a e13a 12ed 683c
00000200: 7168 093d 27a9 f63c f59d 043b 2e86 02bc
00000210: 7fa4 78ba 3ba2 e738 0886 d1bb 1546 40bb
00000220: 333d 94bb 25af ffbb 608f 6cbb 6fbc 833a
00000230: 57fc 303c 9ab6 5ebb 5f00 a8bb b5b5 9dbb
00000240: 3b56 053b 43cc 9f38 7f2f febb 9144 4c3c
00000250: c74d a4ba 3bd8 ba3a 5b66 633a e492 1cbc
00000260: ad9f 64bc 55f5 d53a 1a5c 693c c4ef a139
00000270: 3f9b 213c 93da dc39 3960 473b 3312 343c
00000280: 0838 59bc 6420 143c affe 47bc fafe babb
00000290: 0d7d 7438 5b97 3ebb 8a1c 1fbc dda2 8f3b
000002a0: 50a6 54bc 42e2 b33b efc5 fab9 ee8f 273c
000002b0: 72cc e5bb 3854 d3bb 1bf5 933a 8505 7ebb
000002c0: e8b3 58bb 9b97 99b9 2f52 bebc b70a 413b
000002d0: 8580 86bc 61ae 1ebc 6771 223b 85c4 af3a
000002e0: 0a60 4d3c 416e 39bc 2731 703b 2fad 75bc
000002f0: 1c98 aebb cde0 50ba 3bef 1b3c 209c d23b
00000300: 1dff f63a e0b5 e93b b670 ad3b 28db 7c3b
00000310: 06d4 43ba cc98 0fbc d250 6abc a70e 1dbb
00000320: d0d5 e83b f66e 81bc 57b7 4e3b 7353 203c
00000330: 3f7f a5bc 375e 593c fa5d 44ba 18d9 92bc
00000340: 6f79 42bb 0e23 26bc e58e 8abb f7d2 c33b
00000350: 9510 9fba b18f 093c c9ea 0139 7bf1 babb
00000360: a10f 10bc eeaf b83b 1098 40bc 6fad 1dbc
00000370: cacf 343b 9d58 d43b 8fd2 6dbc 60dd 78bc
00000380: 752f e5bb 4660 06bc 6075 d03b 2351 8f3a
00000390: c8fc 67bb 5bc9 ee3b 1346 48bc 8af6 a03b
000003a0: 7862 11bc ef39 663c 8d4c 573b 4086 2e3c
000003b0: 2bdb ad3a 632f 2c3b 2e6f c6bb f166 87bc
000003c0: c29e 31bc b0b7 52bc 39f2 28bc f77d 313c
000003d0: 4504 0d3c e353 443c e3f6 61bc ffb4 25bb
000003e0: 087c 7c3c 8633 00bb 72b1 49bc e490 cabb
000003f0: 3b82 873b ad22 ea3a d103 01bc d8eb f83a

action_model._discrete_distribution.branches.0.bias f4 [8]
0.0 0.0 0.0 0.0 0.0 0.0 0.0 0.0
00000000: 0000 0000 0000 0000 0000 0000 0000 0000
00000010: 0000 0000 0000 0000 0000 0000 0000 0000

onnx::Div_52 f4 [12]
4.8060393 5.1489043 109.64103 0.41446555 0.36529124 0.24056984 0.30482677 0.017963428
0.025402075 0.031106876 0.017963428 0.017963428
00000000: 13cb 9940 d3c3 a440 3548 db42 d434 d43e
00000010: 7407 bb3e f157 763e 4112 9c3e 0a28 933c
00000020: 0318 d03c d9d3 fe3c 0a28 933c 0a28 933c
