Assets/Resources/ONNX/SwordMLAgents_State_attack.onnx (onnx, 23609 bytes, 6 tensors)

0.bias f4 [64]
0	0x3d501753	0.050803494
1	0x3e2be118	0.16785085
2	0x3e57913c	0.21051496
3	0xbe417bc5	-0.1889487
4	0x3e81ac11	0.2532659
5	0xbe555c01	-0.20835878
6	0x3cdaef56	0.026725452
7	0x3e494787	0.19656192
8	0x3d42caaa	0.047556557
9	0x3dbcadba	0.09212823
10	0xbe8d0f14	-0.27550566
11	0xbe4d06da	-0.20022145
12	0x3e5e0019	0.21679725
13	0x3e4c1718	0.19930685
14	0xbeb74eab	-0.35802206
15	0xbd9c4fd0	-0.076324105
16	0xbd2f8690	-0.04285294
17	0x3e21c929	0.15799393
18	0xbe668832	-0.22512892
19	0x3e3a1874	0.1817339
20	0xbe650c8d	-0.22368069
21	0x3e1ba649	0.15200152
22	0x3db426be	0.08796452
23	0xbc9c94f9	-0.019114004
24	0xbddee879	-0.108841844
25	0xbdef83f4	-0.1169509
26	0xbe031177	-0.12799631
27	0xbd9c3ea0	-0.07629132
28	0x3e2f92ff	0.17145918
29	0x3ea416ae	0.32048553
30	0xbd8184c8	-0.06324154
31	0x3e2b5678	0.16732204
32	0x3dae1cf8	0.08501619
33	0x3db4e3de	0.08832525
34	0xbe112c8f	-0.14177154
35	0xbe2b0ea7	-0.16704808
36	0xbe76d335	-0.24104007
37	0x3e909db9	0.28245333
38	0xbe82e01c	-0.25561607
39	0x3de2bb64	0.11070898
40	0x3db91afd	0.09038351
41	0x3ea4fa9b	0.32222447
42	0xbe4efc69	-0.20213474
43	0x3d3d64c8	0.04623869
44	0xbe56544d	-0.20930596
45	0x3ccc75a9	0.024958448
46	0x3e3c9b91	0.18418719
47	0x3e187659	0.14888896
48	0x3be73ff4	0.0070571844
49	0x3e0f7554	0.14009601
50	0x3e1cbc8d	0.15306301
51	0xbe3e5b75	-0.18589576
52	0x3d4d2054	0.05007966
53	0x3e45d8ee	0.19321033
54	0xbe9848de	-0.29743093
55	0x3e4da6ab	0.2008311
56	0xbd9f8902	-0.07789804
57	0xbe16855e	-0.14699313
58	0x3e6acdb1	0.22930028
59	0x3e32ec2f	0.1747291
60	0xbea47a5a	-0.32124597
61	0xbe6d0331	-0.23145749
62	0x3d537aa6	0.05163064
63	0x3e15f32b	0.14643542

2.bias f4 [64]
0	0x3dd37f66	0.10327034
1	0x3dcbbea9	0.09948475
2	0x3d2d587a	0.042320706
3	0xbd19b75f	-0.037528392
4	0x3b7323e3	0.0037100248
5	0xbe1a00f1	-0.15039422
6	0x3d6ff59d	0.058583844
7	0x3ddb89e2	0.107196584
8	0x3d2b3ce5	0.04180612
9	0x3d6f4382	0.05841399
10	0xbde5a056	-0.11212222
11	0x3c00b747	0.007856197
12	0x3da83f56	0.08215205
13	0x3d8bc3b4	0.06824437
14	0x3c236379	0.009972447
15	0x3d9cb4d2	0.07651676
16	0x3d2400ed	0.040039945
17	0x3e148b31	0.14506222
18	0xbdf3940d	-0.11893473
19	0x3c9b7649	0.018977301
20	0x3d30879f	0.04309809
21	0xbb46be0c	-0.003032568
22	0x3d7da35b	0.061923366
23	0xbd9153ab	-0.070960365
24	0x3dec4883	0.11537268
25	0x3e32140e	0.17390463
26	0xbdf2320b	-0.11825951
27	0xbdfce264	-0.12347868
28	0xbd377b20	-0.044795156
29	0xbcd793ba	-0.026315559
30	0xbd18ec72	-0.037334867
31	0x3df1e63c	0.11811492
32	0x3d272547	0.040807035
33	0xbdc02507	-0.093820624
34	0xbda6eaeb	-0.08150276
35	0xbc912fe8	-0.017723039
36	0x3df2d691	0.118573315
37	0x3d687a72	0.056757398
38	0x3e048fd0	0.12945485
39	0x3e0530b3	0.13006859
40	0xbd9b460f	-0.07581722
41	0xbc3df171	-0.011593209
42	0x3c9f22b9	0.019425737
43	0xbd456358	-0.048190445
44	0x3dcc1484	0.099648505
45	0xbdad45d7	-0.084605865
46	0xbda870c9	-0.08224637
47	0xbc3867ab	-0.011255185
48	0xbdc92ad7	-0.09822624
49	0x3d0d924d	0.03456335
50	0xbda4b454	-0.08042207
51	0x3d8e252c	0.06940684
52	0x3db235f5	0.08701698
53	0xbdf73e24	-0.12072399
54	0xbd7ba7bc	-0.06143926
55	0x3e0d1c74	0.13780385
56	0xbd55df78	-0.05221507
57	0xbe107a34	-0.14109117
58	0xbad2afb1	-0.0016074089
59	0x3d1ea6b5	0.038733203
60	0x3e197300	0.14985275
61	0xbbb53060	-0.0055294484
62	0xbca04203	-0.019562727
63	0xbc3ed268	-0.011646844

4.bias f4 [8]
0	0xb9e898e7	-0.0004436441
1	0xbd07f731	-0.033194724
2	0x3c78130e	0.015141262
3	0x3cdd7530	0.027033418
4	0x3c5e1b90	0.013556376
5	0x3dc334a9	0.095315285
6	0x3dc858c7	0.09782558
7	0x3c792821	0.015207321

onnx::MatMul_19 f4 [15, 64]
0	0xbd812b11	-0.063070424
1	0xbd14b51f	-0.036305543
2	0xbe794f53	-0.24346666
3	0xbe7ce3fc	-0.24696344
4	0x3cde4fd9	0.027137684
5	0x3e9c8088	0.30566812
6	0xbd2b5225	-0.041826386
7	0xbe1d4db2	-0.1536167
8	0xbdd39b08	-0.10332304
9	0x3c84ca06	0.016209614
10	0xbe704ea5	-0.234675
11	0xbd5cfa88	-0.053949863
12	0x3dbca965	0.09211997
13	0xbe5ba231	-0.2144859
14	0x3e1a7021	0.15081836
15	0xbe813455	-0.2523524
16	0x3dcd8794	0.10035625
17	0x3daf6658	0.085644424
18	0xbe5ae336	-0.21375737
19	0xbd58e403	-0.052951824
20	0xbe07e9c3	-0.13272767
21	0x3e84df7e	0.2595176
22	0xbe6a5641	-0.22884466
23	0x3e7452c9	0.23859705
24	0x3e322d9c	0.17400211
25	0xbdc77bd8	-0.09740418
26	0x3e0d6fec	0.13812226
27	0xbe2ccfc9	-0.16876139
28	0x3e39f227	0.1815878
29	0xbe1b64ad	-0.15175124
30	0x3dd2d02d	0.10293613
31	0x3e0d7192	0.13812855
32	0xba9e7002	-0.0012087824
33	0xbcdd16db	-0.026988437
34	0xbe7d6fc2	-0.24749663
35	0x3e2bbcdb	0.16771261
36	0xbe43e17b	-0.19128983
37	0xbe4d67ae	-0.20059082
38	0xbe0b6e5a	-0.13616315
39	0x3dc48e36	0.09597437
40	0x3d9cec01	0.07662202
41	0xbe26a3ed	-0.1627347
42	0x3df7e13a	0.121035054
43	0xbd9993d0	-0.07498896
44	0x3d0e2161	0.0346998
45	0xbc0edc48	-0.008719511
46	0xbe50c980	-0.20389366
47	0xbe06964e	-0.13143274
48	0x3d4a9f1f	0.049468156
49	0xbe3cc768	-0.18435442
50	0xbd2b4df7	-0.0418224
51	0x3cbfe3cf	0.023424057
52	0x3d5a69a8	0.053323418
53	0xbe122375	-0.14271338
54	0x3dce6d47	0.10079437
55	0xbcec16d7	-0.028819485
56	0x3ddd3886	0.108017966
57	0x3dd53351	0.104101785
58	0xbdec5578	-0.11539739
59	0x3e8362ff	0.25661466
60	0x3e1773c8	0.14790261
61	0x3d129573	0.035787057
62	0xbe186d86	-0.1488553
63	0xbd76f84f	-0.0602954
64	0xbe74d96d	-0.23911066
65	0x3d3351cc	0.04377918
66	0xbd9eebe0	-0.07759833
67	0x3e66de68	0.22545779
68	0x3e04e293	0.12977056
69	0xbd78c5dd	-0.060735572
70	0x3e7a4650	0.24440885
71	0x3e0a7be0	0.13523817
72	0x3d1feb7a	0.039042927
73	0x3ca720a4	0.020401306
74	0xbe76d6cb	-0.24105375
75	0xbbf41000	-0.0074481964
76	0x3e3c81bc	0.18408865
77	0xbd2e9c06	-0.042629264
78	0xbc0764cf	-0.008263781
79	0xbe463d5e	-0.19359347
80	0x3be5d24f	0.007013596
81	0xbe427bd9	-0.18992557
82	0xbe648b81	-0.22318842
83	0x3e703eef	0.23461507
84	0x3e7a8714	0.2446559
85	0xbe0c9d7e	-0.13731954
86	0x3e1a7952	0.15085343
87	0x3e3b9eee	0.18322346
88	0x3dfd62eb	0.12372383
89	0xbcaaaca3	-0.020834273
90	0xbc3bbf9c	-0.011459257
91	0x3e4ec5ad	0.20192595
92	0x3e07ad93	0.13249807
93	0xbda39525	-0.079874314
94	0x3da359bd	0.079761006
95	0x3e2aea69	0.16690983
96	0x3e4e243e	0.20131013
97	0x3cc0cf92	0.023536477
98	0xbcef6f5f	-0.02922791
99	0xbe07604b	-0.13220327
100	0xbe669c68	-0.22520602
101	0xbda7e758	-0.08198422
102	0xbddf707a	-0.10910125
103	0x3ca8ab44	0.020589478
104	0x3e0cb524	0.13740975
105	0x3c914fa2	0.017738167
106	0x3d80d0cd	0.062898256
107	0x3e92bced	0.28659764
108	0x3db82a8a	0.08992489
109	0xbdb94e07	-0.09048086
110	0x3e8d53ca	0.27602988
111	0xbdf8dcdf	-0.12151503
112	0xbdb4027b	-0.087895356
113	0x3ea78b2d	0.3272337
114	0x3d5a46e0	0.053290248
115	0x3d052c0d	0.032512713
116	0xbe40334c	-0.18769568
117	0xbd96a064	-0.07354811
118	0xbdc7dabf	-0.097585194
119	0x3d45ea63	0.04831923
120	0xbdfa03c1	-0.12207747
121	0x3e40426d	0.1877534
122	0xbd60c3a3	-0.054874074
123	0x3e5ee242	0.21765998
124	0xbec04a8d	-0.37556878
125	0xbc6f4bcf	-0.0146054765
126	0xbe73958a	-0.23787513
127	0xbe1b355a	-0.15157071
128	0x3e2f75da	0.171348
129	0xbd43b247	-0.04777744
130	0x3dcc99e1	0.099902876
131	0xbd9ec9bb	-0.07753321
132	0xba269f27	-0.0006356113
133	0x3dadf763	0.08494451
134	0xbd82cd56	-0.06386821
135	0x3d20fda8	0.039304405
136	0x3d732ddc	0.059369907
137	0x3ece7be7	0.40328905
138	0x3e52e8d2	0.20596626
139	0xbec55e9c	-0.38548744
140	0x3dabfd9c	0.083979815
141	0xbe9fe52b	-0.3122953
142	0x3e1d25dc	0.15346473
143	0xbd79b689	-0.060965095
144	0xbeb99f6f	-0.3625445
145	0x3d34a8ba	0.044106223
146	0x3dd1259b	0.10212251
147	0xbf0d28d1	-0.55140406
148	0xbe2996ca	-0.16561428
149	0xbec65080	-0.38733292
150	0x3ea1a1fc	0.31568897
151	0x3bf49ded	0.0074651153
152	0xbe92552a	-0.285806
153	0xbee558af	-0.44794223
154	0x3eb83290	0.35976076
155	0x3e02b13f	0.12762927
156	0xbe95d53e	-0.29264253
157	0x3d3eb8a7	0.046562817
158	0xbeae018a	-0.3398555
159	0xbc416bc2	-0.011805477
160	0xbdbfaa8c	-0.09358701
161	0x3ea88bc9	0.32919148
162	0xbe147c55	-0.14500554
163	0x3db166f0	0.08662212
164	0xbdc3c5fc	-0.09559247
165	0xbe7cdd27	-0.24693738
166	0xbdbf9efd	-0.093564965
167	0x3eae53c9	0.34048298
168	0xbdde2f34	-0.10848847
169	0x3d515eeb	0.05111591
170	0x3ed82dcd	0.42222443
171	0xbe2622df	-0.1622424
172	0xbe968ff2	-0.29406697
173	0x3e4122e7	0.1886097
174	0xbec91aa6	-0.39278144
175	0xbef45baa	-0.47726184
176	0xbe954da7	-0.29160807
177	0xbe03cbea	-0.12870756
178	0xbed1ee35	-0.4100205
179	0x3c97cebf	0.018531201
180	0x3ed5d8df	0.41767022
181	0x3d2ff70d	0.042960215
182	0xbdfd73f3	-0.12375631
183	0x3e99e5eb	0.30058226
184	0xbed567fa	-0.4168089
185	0x3e1fc9b7	0.15604292
186	0x3dea55ba	0.11442132
187	0xbdd423e0	-0.10358405
188	0xbeca7e1d	-0.39549342
189	0xbec88542	-0.39164168
190	0x3e5b8fdf	0.21441601
191	0xbea96d67	-0.3309128
192	0xbe8f09a7	-0.27937052
193	0x3e3bf831	0.18356396
194	0x3d0f03cc	0.03491573
195	0x3e0b5188	0.1360532
196	0x3e671bde	0.22569224
197	0xbdd6c0c9	-0.104859896
198	0x3e4dbd6b	0.20091788
199	0x3df44d31	0.119287856
200	0x3e8b4142	0.27198225
201	0xbea0280e	-0.3128056
202	0xbe805492	-0.25064522
203	0x3de8354b	0.1133829
204	0xbe35fcf9	-0.17772283
205	0xbc0df8de	-0.008665292
206	0xbea6fe1a	-0.3261574
207	0xbd40af58	-0.04704222
208	0x3d54dc15	0.0519677
209	0x3e5d035c	0.21583313
210	0xbdfa9632	-0.12235679
211	0x3e957708	0.29192376
212	0xbd6cc80e	-0.057807975
213	0x3e59895b	0.21243803
214	0x3eb2b24f	0.34901664
215	0x3e2f5502	0.17122272
216	0x3e51a25b	0.2047209
217	0x3e42b5a5	0.19014604
218	0xbe14e788	-0.14541447
219	0xbea1e4e6	-0.31619948
220	0x3e4720b9	0.19446076
221	0x3e86d4ed	0.26334324
222	0xbe101a14	-0.14072448
223	0x3e9df415	0.30850282
224	0x3c28f696	0.010312697
225	0x3ca6b8c7	0.02035178
226	0x3e24c82d	0.16091986
227	0xbeaab46d	-0.3334078
228	0x3e63f326	0.22260723
229	0x3ccb5141	0.024819018
230	0xbd9ae471	-0.07563103
231	0x3e599322	0.21247533
232	0x3e58f8b2	0.2118862
233	0xbe32a090	-0.17444062
234	0x3e052b59	0.13004817
235	0xbcf644e0	-0.030062139
236	0xbe5f3291	-0.21796633
237	0xbe4e993a	-0.20175639
238	0xbd49e9d0	-0.049295247
239	0x3df1eeb7	0.11813109
240	0xbe9bda23	-0.30439863
241	0xbe85e35a	-0.26150018
242	0xbd676428	-0.056492
243	0xbce2c002	-0.027679447
244	0x3c81107e	0.015754934
245	0xbe8b626e	-0.27223533
246	0xbe055fca	-0.13024822
247	0x3de5f128	0.112276375
248	0xbc6b0cb3	-0.014346289
249	0xbcb21c87	-0.021742119
250	0x3e0e8adc	0.13920158
251	0x3d9f19d8	0.07768601
252	0x3d8f2325	0.06989125
253	0xbe4d8aed	-0.20072527
254	0x3de4009e	0.1113293
255	0xbe7ae75d	-0.2450232

onnx::MatMul_20 f4 [64, 64]
0	0x3ded73df	0.11594366
1	0xbcba0cd1	-0.02271119
2	0x3b67c02a	0.0035362341
3	0xbddf2791	-0.108962186
4	0x3ce9978d	0.028514648
5	0xbd0373c4	-0.032092825
6	0x3b15e5ae	0.0022872495
7	0x3dfc9f09	0.12335021
8	0xbd91d4a4	-0.07120636
9	0x3df5f1ab	0.12008985
10	0xbdce35d6	-0.10068862
11	0x3dfd7c61	0.12377239
12	0x3e16cf3c	0.14727491
13	0x3d9a9d52	0.07549538
14	0x3d4d9854	0.0501941
15	0x3da5701a	0.08078022
16	0xbda548a3	-0.08070495
17	0x3df835d5	0.12119643
18	0xbe05708b	-0.13031213
19	0x3c0f81ba	0.008758957
20	0x3e0aa8dc	0.13540977
21	0x3d7aa13e	0.06118893
22	0xbdeadd34	-0.114679724
23	0x3d64b646	0.055837892
24	0x3d648f2f	0.055800613
25	0xbd83b564	-0.06431082
26	0xbd5d27e1	-0.05399311
27	0x3d602d59	0.054730747
28	0x3d85f4cf	0.06540834
29	0xbcb31262	-0.021859352
30	0xbdc0a9ad	-0.09407363
31	0xbd8b7c94	-0.06810871
32	0xbc64f7ab	-0.013975064
33	0x3d8cde5a	0.06878348
34	0x3d9d5a5b	0.076832496
35	0x3c3d1828	0.011541404
36	0x3d320219	0.04345903
37	0xbdf7d15c	-0.12100479
38	0xbbe10c85	-0.0068679475
39	0xbd451f62	-0.048125632
40	0x3de865f9	0.11347575
41	0x3dcb6d26	0.09932928
42	0xbcc822d1	-0.024430664
43	0xbc62ef01	-0.013850928
44	0xbda0847b	-0.07837769
45	0x3dd854b7	0.10563033
46	0x3d8046d8	0.062635124
47	0x3cb7631c	0.022386126
48	0xbddbf9e9	-0.10741026
49	0xbe127d37	-0.14305578
50	0x3d7f939e	0.062396638
51	0x3d941e86	0.072323844
52	0x3db289d6	0.08717696
53	0xbe050479	-0.12989987
54	0xbe27a53e	-0.16371629
55	0x3cd3b0f1	0.025841208
56	0x3dc738d4	0.09727636
57	0x3d35aaa2	0.04435218
58	0x3dab927a	0.083775476
59	0x3da7b28c	0.08188352
60	0x3d8ae1ff	0.067813866
61	0x3dedcef4	0.11611739
62	0xbd951e8f	-0.07281219
63	0x3dd87a66	0.10570221
64	0x3da4d4de	0.08048414
65	0xbc8a6560	-0.016894042
66	0xbda8285e	-0.082108244
67	0x3d3007b3	0.042976093
68	0xbd87ccb8	-0.06630844
69	0xbdc250c7	-0.09488063
70	0x3c8e8231	0.017396064
71	0x3d3cee2f	0.046125587
72	0x3e23ea0d	0.16007252
73	0xbe008d74	-0.1255396
74	0xbdac5905	-0.08415417
75	0x3d29ccb2	0.04145498
76	0x3cd46236	0.025925737
77	0xbd839aa1	-0.064259775
78	0xbdbdeecd	-0.09274063
79	0xbbcef654	-0.0063159857
80	0xbca80586	-0.020510446
81	0x3c5e0366	0.013550615
82	0x3d6841c9	0.056703363
83	0xbd0c33b2	-0.034228988
84	0x3d0dfaea	0.03466312
85	0xbd36704d	-0.044540692
86	0xbd86cd8d	-0.065821745
87	0x3c3396c6	0.01096124
88	0xbc77a856	-0.015115818
89	0xbd14d539	-0.036336157
90	0xbe136176	-0.14392647
91	0xbe3d785e	-0.18502948
92	0xbd797e64	-0.06091155
93	0xbe3ffe07	-0.18749247
94	0xbdd08a35	-0.10182611
95	0x3e05670a	0.13027588
96	0x3d14a941	0.036294226
97	0x3d047350	0.032336533
98	0x3c98c7c3	0.018649941
99	0x3da760d8	0.08172768
100	0xbb98e261	-0.0046656583
101	0xbc891a9d	-0.016736323
102	0x3e15e27c	0.14637178
103	0xbd2929e0	-0.0412997
104	0x3cf28002	0.029602055
105	0xbe369f76	-0.17834267
106	0xbdd109c4	-0.10206941
107	0x3e50e731	0.20400693
108	0xbda8b607	-0.08237844
109	0x3d31b91b	0.04338942
110	0x3dadd691	0.08488191
111	0x3d84dfad	0.06487975
112	0x3d3a9dd6	0.04556068
113	0x3d8d7bec	0.06908402
114	0x3e2486a7	0.16066991
115	0xbd8335c2	-0.06406738
116	0xbc8d64e9	-0.017260032
117	0x3c689939	0.014196687
118	0x3cade922	0.02122933
119	0x3cb0026e	0.021485534
120	0xbde1a58d	-0.110179044
121	0x3dc68732	0.09693755
122	0x3df2efe7	0.11862164
123	0xb8d7beca	-0.00010287536
124	0x3e0f4fe1	0.13995315
125	0x3c72c9c5	0.014818613
126	0xbd766d23	-0.060162675
127	0x3ce1071d	0.027469212
128	0xbda4c29f	-0.080449335
129	0x3dc476d6	0.09592979
130	0xbd99f326	-0.0751708
131	0x3d6db379	0.058032487
132	0x3d2ebe4e	0.042661957
133	0x3e5494e7	0.20759927
134	0x3d8887ac	0.06666502
135	0xbcffce07	-0.031226171
136	0xbcac9135	-0.021065334
137	0xbdfc5d2b	-0.12322458
138	0xbc967075	-0.01836417
139	0x3d99b726	0.07505636
140	0x3cec5e85	0.028853664
141	0xbddefbdb	-0.10887881
142	0x3dac6e2a	0.084194496
143	0x3d27942e	0.0409128
144	0xbdb37f82	-0.087645546
145	0xbc15d1c2	-0.009144248
146	0xbdabdf4e	-0.08392201
147	0xbd477afe	-0.04870128
148	0xbcd92960	-0.026508987
149	0xbd72999b	-0.05922852
150	0xbdcce183	-0.100039504
151	0xbbb7a1d3	-0.0056040077
152	0x3d8a6794	0.06758037
153	0x3dbc7ad8	0.09203118
154	0x3c1c0ab8	0.00952404
155	0xbe030eed	-0.12798662
156	0x3d6fc7e1	0.05854023
157	0x3da8c05e	0.08239816
158	0xbc845912	-0.016155753
159	0x3cc7fd36	0.024412733
160	0x3d2767cd	0.040870477
161	0x3b9294e4	0.0044733156
162	0x3e00a878	0.12564266
163	0xbd15642b	-0.03647248
164	0xbda8af9d	-0.082366206
165	0xbdfa4fac	-0.122222275
166	0x3e13b67c	0.14425081
167	0xbcf8b143	-0.030357962
168	0x3c15b2f0	0.0091369
169	0xbbbea406	-0.005817893
170	0x3d5a8aec	0.053355142
171	0xbd5f2e7c	-0.05448769
172	0x3d26ea1a	0.0407506
173	0xbd140302	-0.03613568
174	0x3d9b89f7	0.07594674
175	0xbcf58554	-0.029970802
176	0xbd795abd	-0.06087755
177	0xbdd9fbba	-0.10643716
178	0xbdcb3b54	-0.09923425
179	0xbe0f4f05	-0.13994987
180	0xbc1bdec4	-0.009513561
181	0x3ca7a536	0.02046452
182	0xbe0a3738	-0.13497627
183	0xbd2751ed	-0.040849615
184	0x3d6464be	0.055760138
185	0x3d88945d	0.06668923
186	0x3dec8c0b	0.115501486
187	0xbd3cba56	-0.04607614
188	0x3d2c1538	0.042012423
189	0x3d82e0b7	0.06390517
190	0x3dff422e	0.12463795
191	0x3e154446	0.14576825
192	0x3da4baf6	0.080434725
193	0xbc2cad4c	-0.010539364
194	0x3d609955	0.05483373
195	0xbda28643	-0.07935765
196	0x3d8a4f53	0.06753411
197	0xbcf8dadc	-0.030377798
198	0x3b1697c6	0.0022978648
199	0x3de96386	0.11395936
200	0xbdd37a85	-0.10326103
201	0xbe28d67a	-0.16488066
202	0x3df2f7ab	0.11863645
203	0x3dd0f8d2	0.10203709
204	0xbe0341a6	-0.12818012
205	0x3d6d936c	0.05800192
206	0xbddfabf6	-0.10921471
207	0xbde50100	-0.11181831
208	0x3e02130f	0.12702583
209	0x3dd1a41e	0.10236381
210	0x3d8e28e4	0.06941393
211	0xbde1b13d	-0.11020134
212	0x3d01239b	0.031528097
213	0x3c7bd769	0.015371182
214	0xbd9df401	-0.07712556
215	0xbde23f70	-0.11047256
216	0xbdec4d4a	-0.11538179
217	0xbe0e7bfc	-0.13914484
218	0x3c8f3ccd	0.017485047
219	0x3dc2d0f8	0.09512514
220	0x3ccdce62	0.025122825
221	0x3d3986b6	0.045294486
222	0x3de977f3	0.113998316
223	0xbdd32db9	-0.10311455
224	0x3df91f10	0.12164128
225	0xbdac7f12	-0.08422674
226	0x3d8477d4	0.06468168
227	0xbe07cfe5	-0.13262899
228	0xbca3d955	-0.020001093
229	0x3df8d3b6	0.12149756
230	0xbdfd43a6	-0.123664185
231	0xbdc81900	-0.09770393
232	0x3d1179e3	0.03551663
233	0x3ddb0ba4	0.1069558
234	0x3b8df0b7	0.004331674
235	0xbe1b0e27	-0.15142117
236	0xbd157812	-0.03649146
237	0xbdef64ff	-0.11689185
238	0x3e2099cf	0.15683673
239	0x3db7bca7	0.089715295
240	0x3d2780e7	0.040894415
241	0xbc57ee27	-0.013179339
242	0x3b9ca96e	0.00478094
243	0x3dc55b19	0.09636516
244	0xbd23abeb	-0.039958876
245	0xbbcd3b45	-0.006263169
246	0x3e0a535e	0.13508365
247	0xbe068a35	-0.1313866
248	0x3b309a62	0.0026947488
249	0x3c966a3d	0.018361205
250	0x3d16c28e	0.036806636
251	0x3c46ac5d	0.012126056
252	0xbc54ee17	-0.012996218
253	0xbde9f9ca	-0.114245966
254	0x3bc432ac	0.005987486
255	0x3dad711e	0.08468841

onnx::MatMul_21 f4 [64, 8]
0	0xbc0ef80b	-0.00872613
1	0x3c367966	0.011137342
2	0x3cae3197	0.02126388
3	0x3e2a358f	0.16621993
4	0xbca73754	-0.020412125
5	0x3e02c36e	0.12769863
6	0xbdd4f425	-0.103981294
7	0x3c927030	0.01787576
8	0x3e14aa50	0.14518094
9	0xbdd2e88d	-0.10298262
10	0xbcc1444a	-0.023592133
11	0xbd9a1111	-0.075227864
12	0xbe04edb5	-0.12981303
13	0x3d94cba8	0.07265407
14	0x3e03c4cc	0.12868041
15	0x3d9dab26	0.076986596
16	0xbdc92a21	-0.098224886
17	0x3e0f8590	0.14015794
18	0x3e4fd928	0.20297682
19	0x3e33f143	0.17572503
20	0x3e4cd5f6	0.20003495
21	0x3df0d343	0.11759045
22	0xbe0a0723	-0.13479285
23	0x3b8b84cb	0.0042577735
24	0xbdb24530	-0.08704603
25	0xbde148b4	-0.11000195
26	0xbe1e30c0	-0.15448284
27	0xbe17ea73	-0.14835529
28	0x3bf64458	0.0075154714
29	0x3dfaf4d0	0.122537255
30	0xbdba3d71	-0.0909375
31	0xbd83722b	-0.0641826
32	0xbcf13a5c	-0.029446773
33	0xbd377cb6	-0.044796668
34	0xbd6d92cb	-0.05800132
35	0x3de33f09	0.110960074
36	0x3e21cbae	0.15800354
37	0x3d33d2ff	0.043902393
38	0xbe1828d3	-0.14859323
39	0x3cc3f38c	0.023919843
40	0x3e22aafd	0.1588554
41	0x3e074266	0.13208923
42	0xbccd0581	-0.025027039
43	0xbe02efa0	-0.12786722
44	0xbe0d01b3	-0.1377018
45	0xbdf7e7c4	-0.12104753
46	0x3b81b675	0.003958518
47	0xbdd00c8c	-0.10158643
48	0x3d34cab9	0.044138644
49	0x3b6751c4	0.003529654
50	0x3e0b5fa6	0.13610706
51	0x3d8d7c6b	0.069084965
52	0xbcd14dc0	-0.02554977
53	0xbd99a43f	-0.075020306
54	0xbe4cb4fb	-0.19990914
55	0xbdc0391c	-0.09385893
56	0x3ddf7087	0.10910135
57	0x3aa5c1ce	0.0012646259
58	0xbdfe9fc7	-0.12432819
59	0xbdee5257	-0.11636799
60	0xbd6a6511	-0.05722529
61	0x3bdda4ed	0.0067640455
62	0x3d732360	0.059359908
63	0xbd85fb8a	-0.06542118
64	0xbdde2d11	-0.108484395
65	0xbdf3ada6	-0.11898355
66	0xbe3d40fc	-0.18481821
67	0x3e1331e3	0.14374499
68	0xbd6cafff	-0.05778503
69	0x3ddd5526	0.108072564
70	0x3dff58d8	0.124681175
71	0xbc140509	-0.009034404
72	0xbd6843f3	-0.056705426
73	0xbe2176f2	-0.1576803
74	0xbc939d68	-0.018019393
75	0xbddf21d3	-0.10895123
76	0x3c838cd0	0.016058356
77	0xbdbb774f	-0.09153616
78	0x3e1573cf	0.14594959
79	0xbd5ef4d9	-0.054432724
80	0xbba3249a	-0.0049787285
81	0x3dc2b03f	0.095062725
82	0x3e275e9b	0.16344683
83	0x3ce31880	0.027721643
84	0x3d7ef949	0.062249456
85	0x3e061350	0.13093305
86	0x3dd59f5f	0.10430788
87	0xbdfcd875	-0.123459734
88	0x3d9fbeef	0.078000896
89	0xbd787e75	-0.060667474
90	0xbe235601	-0.15950777
91	0xbe122989	-0.14273657
92	0xbbe27ef6	-0.0069121076
93	0xbd985816	-0.07438676
94	0x3daf8052	0.08569397
95	0x3cd50e6d	0.026007855
96	0xbd8fd121	-0.0702231
97	0xbe2071dc	-0.15668434
98	0xbe113770	-0.14181304
99	0x3da9a2a1	0.08282972
100	0x3dc61f59	0.09673948
101	0xbbb94286	-0.005653682
102	0x3e5e724d	0.2172329
103	0xbdcf2650	-0.101147294
104	0x3ddefc75	0.10887996
105	0xbd1205d4	-0.03565009
106	0x3d932100	0.071840286
107	0x3dccb817	0.0999605
108	0xbd602409	-0.054721866
109	0xbd70dc56	-0.05880388
110	0xbe14dac3	-0.14536576
111	0xbe0c4158	-0.13696802
112	0x3db15483	0.086586975
113	0x3e27fa7d	0.16404147
114	0xbd671ae0	-0.056422114
115	0x3ce4d9ed	0.027935946
116	0xbc997186	-0.01873089
117	0xbe161204	-0.1465531
118	0xbe61ab62	-0.22038034
119	0x3dbd0862	0.092301145
120	0x3d29c824	0.041450635
121	0x3c72a87b	0.014810677
122	0xbd825ceb	-0.06365379
123	0xbce334ae	-0.02773508
124	0x3d9450e5	0.07241992
125	0xbdc0c608	-0.094127715
126	0x3e830862	0.25592333
127	0x3d98172d	0.074262954
128	0xbe0efa1a	-0.13962594
129	0xbc04f3c6	-0.008114761
130	0xbd1ef742	-0.038810022
131	0xbe1787de	-0.14797923
132	0xbe4b5174	-0.1985529
133	0x3e43eeee	0.19134113
134	0xbdb03297	-0.08603399
135	0xbd2fe9a5	-0.04294743
136	0xbd726311	-0.05917651
137	0x3d523ce2	0.051327594
138	0xbe59a96a	-0.21256033
139	0xbd2853a6	-0.0410954
140	0x3d3899a6	0.045068406
141	0x3de86d5a	0.11348982
142	0x3e66a020	0.2252202
143	0xbda2eb94	-0.07955089
144	0x3cb38ba6	0.021917176
145	0xbc710573	-0.014710772
146	0x3dc8e85a	0.098099425
147	0xba1971fe	-0.0005853473
148	0xbd407abb	-0.046992045
149	0x3e5d25f3	0.21596508
150	0xbe34d5ad	-0.17659636
151	0xbdd85645	-0.105633296
152	0xbe20c2c2	-0.15699294
153	0xbe2faf78	-0.1715678
154	0xbe385ec9	-0.18004908
155	0xbbb311b6	-0.005464758
156	0xbe1c2db6	-0.15251812
157	0x3d5e7b36	0.05431672
158	0x3e8880c5	0.26660743
159	0xbd8ea9dd	-0.069659926
160	0x3d517c53	0.051143955
161	0xbd2d79e0	-0.042352557
162	0xbe61eeaf	-0.22063707
163	0xbe118f14	-0.14214736
164	0x3db43976	0.08800022
165	0xbe10f45b	-0.14155714
166	0x3e8072a4	0.25087464
167	0x3d88b3ea	0.06674941
168	0xbd57ff15	-0.0527335
169	0x3d738582	0.059453495
170	0xbe34130d	-0.17585392
171	0xbdec78d2	-0.11546482
172	0xbe02f17b	-0.1278743
173	0x3bdf69db	0.006818039
174	0x3e7e52e1	0.24836303
175	0x3c921471	0.017832013
176	0x3df4cb89	0.11952884
177	0xbdde2a2f	-0.1084789
178	0x3cec20b3	0.028824186
179	0xbe16629f	-0.14686058
180	0xbd6909da	-0.05689416
181	0x3d75670f	0.059912737
182	0x3e4b5d36	0.19859776
183	0x3c817411	0.015802415
184	0x3e55eab5	0.20890315
185	0x3d2ab3f7	0.041675534
186	0xbd81a97d	-0.063311554
187	0xbd3ca895	-0.04605921
188	0xbd612ea9	-0.05497614
189	0xbc9000d9	-0.01757853
190	0x3e07a751	0.1324742
191	0x3ddd7561	0.10813404
192	0x3dcfc5ee	0.10145174
193	0xbe132366	-0.14368972
194	0xbd7426ad	-0.059607197
195	0xbd9b970c	-0.07597169
196	0xbd25e577	-0.040502038
197	0xbe3db94a	-0.18527713
198	0x3e5e4036	0.21704182
199	0xbd5736be	-0.05254244
200	0xbe0c1d42	-0.13683036
201	0xbe1ed4c9	-0.15510859
202	0x3d5911b9	0.052995417
203	0x3c2464f8	0.010033838
204	0x3e06a8c9	0.13150324
205	0x3dba07f4	0.09083548
206	0x3e4e3da5	0.20140703
207	0x3dccc790	0.09999001
208	0x3df80572	0.121104136
209	0x3decb7bb	0.11558481
210	0x3e66d89d	0.22543569
211	0x3dfdb4c7	0.12387996
212	0xbcb9a48e	-0.022661474
213	0xbe1f4cb2	-0.155566
214	0xbe7302b7	-0.23731504
215	0x3d877933	0.06614914
216	0x3df34cab	0.11879858
217	0x3c1dfe1a	0.009643102
218	0x3ce59c34	0.028028585
219	0x3d84d4c9	0.06485898
220	0x3e5a55fc	0.21321863
221	0xbd69444c	-0.0569499
222	0xbe98be19	-0.29832533
223	0xbdbd6b37	-0.09248965
224	0x3ccfb57e	0.025355097
225	0xbca4e81b	-0.020130208
226	0xbdbc5684	-0.09196189
227	0x3d325526	0.043538235
228	0x3dd4ec71	0.1039666
229	0x3dbc245f	0.09186625
230	0xbe5b883c	-0.21438688
231	0xbdb20331	-0.08692015
232	0x3d79d3b3	0.060992908
233	0x3d291d6b	0.04128782
234	0x3e49c7f8	0.19705188
235	0x3ccc2dc8	0.024924174
236	0xbd37ae07	-0.0448437
237	0xbe13f682	-0.14449504
238	0xbeb3125f	-0.34974954
239	0x3d17ef6e	0.037093572
240	0xbc1dea5f	-0.009638398
241	0x3e1c2ad9	0.1525072
242	0xbbf23d9d	-0.007392599
243	0x3d8db3a0	0.069190264
244	0x3d7b6cb7	0.061382975
245	0x3e6b7efc	0.2299766
246	0xbe580950	-0.21097302
247	0xbe28a31e	-0.16468474
248	0x3cdcac8f	0.026937751
249	0xbda94fa6	-0.08267145
250	0x3d446268	0.04794541
251	0x3aa5d3cb	0.001265162
252	0xbe51dfcd	-0.2049553
253	0x3dbbce97	0.09170263
254	0x3e8b4fc8	0.27209306
255	0xbe0d4e36	-0.13799366
